my_ppo_model.onnx (onnx, 37368 bytes, 7 tensors)

policy.log_std f4 [2]
0	0xbfcbbd4d	-1.5917145
1	0xbf6f063f	-0.93368906

policy.mlp_extractor.policy_net.0.weight f4 [64, 60]
0	0xbe4269f0	-0.18985724
1	0x3e2835cb	0.1642677
2	0x3e8de626	0.27714652
3	0x3e8f4bbb	0.27987465
4	0xbd003f97	-0.031310644
5	0xbec7ac8e	-0.38998836
6	0xbc9bf8be	-0.019039508
7	0xbd9cea51	-0.0766188
8	0x3e5dc9fa	0.21659079
9	0x3e3ffd2a	0.18748918
10	0xbdc6d5d7	-0.097087555
11	0x3e1cfcc6	0.153308
12	0xbe9b35df	-0.30314538
13	0x3caa734f	0.020806937
14	0xbe0ddbfe	-0.13853452
15	0x3e927822	0.2860728
16	0xbdae7166	-0.08517723
17	0x3dba42fd	0.09094808
18	0xbd807d2b	-0.06273874
19	0xbd3dd1b3	-0.046342563
20	0xbea78a30	-0.32722616
21	0x3e011e17	0.12609135
22	0xbddc2d8b	-0.10750874
23	0xbe49b073	-0.19696216
24	0x3e277637	0.16353689
25	0x3ec1ff45	0.37890068
26	0xbe259036	-0.16168293
27	0x3db4ae51	0.08822311
28	0x3d9f180c	0.077682585
29	0x3e39e4dd	0.1815371
30	0x3e7007a5	0.23440416
31	0x3e750c07	0.2393037
32	0xbec05b6c	-0.3756975
33	0xbdd55041	-0.10415698
34	0x3e4fb32e	0.20283195
35	0xbe0ec18a	-0.13941017
36	0x3dff1e45	0.12456945
37	0x3e95771f	0.29192445
38	0x3dcde239	0.10052914
39	0x3b4a7770	0.0030893944
40	0x3e1b5ab8	0.15171325
41	0x3d7e4060	0.06207311
42	0xbdaf4cb8	-0.08559555
43	0xbd424cea	-0.047436632
44	0x3e437e33	0.1909111
45	0x3d3b81f6	0.045778237
46	0x3de992d3	0.114049576
47	0xbe090e73	-0.13384418
48	0xbd91fe82	-0.07128622
49	0xbbd4b324	-0.006491082
50	0x3c298513	0.010346669
51	0x3d57d50e	0.05269342
52	0x3c50840e	0.012726797
53	0xbe6e225c	-0.23255295
54	0x3e85558c	0.2604183
55	0x3e179e8f	0.14806579
56	0xbdaae3e9	-0.08344252
57	0xbe3e9211	-0.18610407
58	0xbe1ae200	-0.15125275
59	0xbe2f0676	-0.17092308
60	0x3e92a3f8	0.28640723
61	0x3e564f66	0.20928726
62	0xbe51e2c3	-0.20496659
63	0x3e4fa7b2	0.20278814
64	0x3e379606	0.17928323
65	0x3e3893ea	0.18025175
66	0xbd3c81a9	-0.04602209
67	0x3d4f99ea	0.050683893
68	0x3e2a3d4d	0.16624947
69	0xbed0e813	-0.4080206
70	0xbdfeadb4	-0.12435475
71	0x3e25faab	0.16208903
72	0x3b97ae48	0.0046289302
73	0xbc916dd0	-0.017752558
74	0x3d579713	0.05263431
75	0xbdf76440	-0.12079668
76	0x3e75d8b3	0.24008445
77	0x3e898695	0.2686049
78	0xbc051e23	-0.008124861
79	0xbe63dc2d	-0.22251959
80	0x3d562c34	0.05228825
81	0xbc97bf8d	-0.018523956
82	0x3d2aff79	0.041747544
83	0x3cd986d6	0.026553553
84	0xbdb4a9a6	-0.0882142
85	0x3e637eac	0.2221629
86	0xbcd5bafc	-0.026090138
87	0xbd0cd9e3	-0.03438748
88	0x3f027404	0.50958276
89	0xbd1a2056	-0.037628494
90	0x3e385bef	0.1800382
91	0x3e821093	0.2540327
92	0xbd3a8947	-0.045541074
93	0xbe357543	-0.17720513
94	0xbd5d807e	-0.054077618
95	0x3e1ebbd2	0.15501335
96	0xbe87b086	-0.26501864
97	0x3eae44ea	0.34036952
98	0x3d16451b	0.036686998
99	0xbe28a601	-0.16469575
100	0x3dc1adcd	0.09456978
101	0x3dbbe604	0.091747314
102	0xbe5e301b	-0.21698038
103	0xbae6667e	-0.0017578152
104	0xbdaf65c0	-0.08564329
105	0x3e368de3	0.17827563
106	0x3e15ed25	0.14641245
107	0xbdf4a533	-0.11945572
108	0x3d5bb3d5	0.053638298
109	0x3d72770f	0.059195574
110	0xbe2bab14	-0.1676448
111	0xbe4eea07	-0.20206462
112	0xbcfe9cb9	-0.03108059
113	0xbe62615e	-0.22107455
114	0xbe8adbdf	-0.27120873
115	0xbcff12b8	-0.031136855
116	0x3cceff91	0.025268348
117	0x3d40a8e5	0.04703607
118	0x3e955c4a	0.29171973
119	0xbd0aab3b	-0.033854704
120	0xbd035516	-0.032063566
121	0xbd124566	-0.035710715
122	0xbcc78acf	-0.024358181
123	0xbe2f62dc	-0.17127556
124	0xbcf52cc2	-0.029928569
125	0xbe0ff9a6	-0.14060077
126	0xbd91a008	-0.07110602
127	0x3d4eb2fe	0.05046367
128	0xbe136496	-0.14393839
129	0xbd20a87e	-0.039223187
130	0x3da27cef	0.079339854
131	0x3c0a3674	0.008435834
132	0xbc5dbcdc	-0.013533797
133	0x3e42249a	0.18959275
134	0xbe21a439	-0.15785302
135	0xbe06d69b	-0.13167803
136	0x3df114e2	0.11771561
137	0xbe7fd6ee	-0.24984333
138	0xbe130f59	-0.14361323
139	0xbe33f6d3	-0.17574625
140	0x3ceea16c	0.029129706
141	0xbdaf6823	-0.085647844
142	0xbcaca71d	-0.02107578
143	0xbe9b742c	-0.3036207
144	0xbeb971f6	-0.36219758
145	0x3e09bd58	0.13451135
146	0x3d8698bc	0.065721005
147	0x3e3531f9	0.17694844
148	0xbde75357	-0.11295193
149	0x3e0ee8af	0.13955949
150	0xbeb6730a	-0.35634643
151	0xbdf1b6c8	-0.11802441
152	0xbe734cc8	-0.23759758
153	0xbee6f3cf	-0.45107886
154	0xbd8c85e7	-0.06861477
155	0xbd102051	-0.03518707
156	0x3e532e21	0.20623066
157	0x3e18d519	0.1492504
158	0xbe0c7d38	-0.13719642
159	0xbe7c57db	-0.24642889
160	0xbe50eb0b	-0.20402162
161	0xbe6ee9cc	-0.23331374
162	0xbe098951	-0.13431288
163	0xbdd1c065	-0.102417745
164	0xbe10405c	-0.14087051
165	0x3e12eb0c	0.14347476
166	0xbea5f888	-0.32416177
167	0xbe8a272f	-0.2698302
168	0xbd43a1a5	-0.047761578
169	0x3d7c8490	0.06164986
170	0xbe90fd50	-0.28318262
171	0xbd115adf	-0.035487052
172	0x3c5669c1	0.013086737
173	0xbccd033a	-0.025025953
174	0xbd7d0944	-0.061776415
175	0xbe038163	-0.12842326
176	0x3ebc0f89	0.36730602
177	0xbd5e08e2	-0.05420769
178	0xbea390fc	-0.31946552
179	0x3d4382e4	0.04773225
180	0xbcd72c63	-0.026266282
181	0x3e8f4aff	0.27986905
182	0x3dc99aa0	0.098439455
183	0x3e64de61	0.22350456
184	0xbdc435b4	-0.095805556
185	0x3e8025f7	0.25028965
186	0x3e6dd51c	0.23225826
187	0xbccb834e	-0.024842884
188	0x3e0419eb	0.12900512
189	0x3e962911	0.29328206
190	0xbd3a5cf8	-0.04549882
191	0x3dd03b96	0.10167615
192	0x3cfb23df	0.030656753
193	0x3ec23b5b	0.3793591
194	0x3d9f083a	0.07765241
195	0xbe94266c	-0.28935564
196	0x3e25e2aa	0.16199747
197	0x3e2385b7	0.15968977
198	0x3ef19f8a	0.4719203
199	0xbe2fc8c5	-0.17166431
200	0x3ee027da	0.43780404
201	0xbc937212	-0.017998729
202	0xbe01e2f0	-0.12684226
203	0x3c3b856a	0.011445383
204	0xba56d067	-0.00081945065
205	0xbcbb6a70	-0.022877902
206	0xbe23f771	-0.1601236
207	0x3e98bea8	0.2983296
208	0x3e0dbdcb	0.13841932
209	0x3e06774c	0.13131446
210	0x3e40a1c6	0.18811712
211	0xbe81d300	-0.25356293
212	0x3db4b44f	0.08823454
213	0x3dfa915d	0.12234757
214	0xbdc9d057	-0.09854191
215	0x3e89b163	0.26893148
216	0x3e074025	0.13208063
217	0x3d416ceb	0.047223013
218	0x3e23e7df	0.1600642
219	0xbcd09553	-0.025461828
220	0xbdc3dfde	-0.09564184
221	0xbc9db454	-0.019251026
222	0xbdb05a50	-0.08610976
223	0xbca6f517	-0.02038054
224	0x3bb0c5a4	0.0053946543
225	0xbe084494	-0.1330741
226	0x3d2c0031	0.04199237
227	0xbe253b99	-0.16136016
228	0xbe455abf	-0.19272898
229	0xbcbd6eee	-0.023124184
230	0x3e88ab6b	0.26693282
231	0x3c381869	0.011236289
232	0x3ca69b9d	0.020337874
233	0x3dc27c5b	0.09496375
234	0x3e06cf76	0.13165078
235	0x3b8219de	0.0039703688
236	0x3e855800	0.260437
237	0x3c177743	0.009244743
238	0xbc941c56	-0.018079918
239	0x3d8c1783	0.06840422
240	0xbe45391e	-0.1926007
241	0xbe168d68	-0.1470238
242	0x3ebdf60b	0.37101778
243	0x3dba044b	0.0908285
244	0x3e423e2e	0.18969032
245	0x3d9c8398	0.07642287
246	0xbf1f2aeb	-0.6217486
247	0xbcee7a48	-0.029111043
248	0x3da78cfc	0.081811875
249	0xbd619b2c	-0.055079624
250	0x3d5e9601	0.054342274
251	0xbe231cad	-0.15928908
252	0xbe89f859	-0.26947287
253	0x3bd26b52	0.006421485
254	0x3e229d6c	0.15880364
255	0xbe838edf	-0.2569494

policy.mlp_extractor.policy_net.0.bias f4 [64]
0	0xb68580a8	-3.9786864e-06
1	0x00000000	0.0
2	0x00000000	0.0
3	0x00000000	0.0
4	0xbc530aea	-0.01288102
5	0x00000000	0.0
6	0x00000000	0.0
7	0x394c229b	0.00019467848
8	0x338d916b	6.5922755e-08
9	0x3ba798e0	0.0051146597
10	0xbad45cb9	-0.001620195
11	0x00000000	0.0
12	0x3a36fd24	0.000698047
13	0xb9959edb	-0.0002853785
14	0x384a91e8	4.829644e-05
15	0x359fb56b	1.1899223e-06
16	0xbc7a6555	-0.0152829485
17	0x3acf3dae	0.0015811229
18	0x00000000	0.0
19	0xbb9deb3e	-0.004819303
20	0xbc266024	-0.010154758
21	0x39d65d17	0.00040886618
22	0x3bfaaf78	0.007650312
23	0xbb8b5016	-0.0042514903
24	0xba9e77d5	-0.0012090156
25	0x00000000	0.0
26	0x3b865f28	0.004100699
27	0xb8f0cffe	-0.00011482833
28	0x00000000	0.0
29	0x3b2cfd5c	0.002639613
30	0x00000000	0.0
31	0xb9febf23	-0.00048589063
32	0x3bbe544c	0.005808389
33	0x00000000	0.0
34	0xbc2890cf	-0.010288431
35	0xbc9b3d42	-0.018950108
36	0x00000000	0.0
37	0x00000000	0.0
38	0x00000000	0.0
39	0x3cbc1325	0.022958348
40	0x00000000	0.0
41	0xbc578034	-0.013153125
42	0x378f2832	1.7065646e-05
43	0x00000000	0.0
44	0xbcf3a5d6	-0.029742163
45	0x00000000	0.0
46	0x00000000	0.0
47	0xbb6e36b5	-0.0036348526
48	0x00000000	0.0
49	0x3c3c7c81	0.011504293
50	0x00000000	0.0
51	0x00000000	0.0
52	0xbaf866eb	-0.001895157
53	0x00000000	0.0
54	0x3a887124	0.0010409695
55	0x00000000	0.0
56	0x3b0febfb	0.0021960724
57	0xba49ae7a	-0.00076935405
58	0xbcc0d901	-0.023540976
59	0x00000000	0.0
60	0x3c8cba08	0.01717855
61	0x36cc2f09	6.0851494e-06
62	0x3c51813a	0.012787158
63	0x00000000	0.0

policy.mlp_extractor.policy_net.2.weight f4 [64, 64]
0	0xbf00714c	-0.5017288
1	0x3dc8f147	0.09811645
2	0xbdf67396	-0.12033765
3	0x3d85f4f8	0.06540865
4	0xbe222e11	-0.15837885
5	0xbea3c0d3	-0.3198305
6	0x3e97deea	0.29662257
7	0xbe8af686	-0.27141207
8	0x3e7991e4	0.24372059
9	0xbe331df8	-0.17491901
10	0x3eb3d001	0.35119632
11	0x3ebc1fc9	0.36743
12	0xbe699d42	-0.22813895
13	0xbf196930	-0.5992613
14	0x3c42b46e	0.011883838
15	0xbf2d9945	-0.67811996
16	0xbd043ce7	-0.032284644
17	0xbf412dcf	-0.75460523
18	0xbe741541	-0.23836233
19	0xbeb30b9e	-0.349698
20	0xbe63d920	-0.22250795
21	0xbeaff029	-0.34362915
22	0xbf02ca9d	-0.51090413
23	0xbe4cb887	-0.19992267
24	0xbec8600b	-0.39135775
25	0xbec34173	-0.3813587
26	0x3f4617d2	0.77380097
27	0xbc1ee74f	-0.009698703
28	0x3d722c1a	0.05912409
29	0xbe9ac23d	-0.30226317
30	0x3ca23c0b	0.019804021
31	0xbe7fe3d7	-0.24989258
32	0xbed49035	-0.4151627
33	0x3b107290	0.002204094
34	0x3e2c18e0	0.16806364
35	0x3990408d	0.00027513914
36	0x3e9b3dd8	0.3032062
37	0x3df5b899	0.119981
38	0x3e576f4b	0.21038549
39	0xbc750fcf	-0.014957382
40	0xbd37d5ec	-0.044881746
41	0xbde2fe3e	-0.11083649
42	0x3d0b1376	0.033954106
43	0xbdb8c7c8	-0.0902248
44	0xbdbe1d40	-0.09282923
45	0x3ecf0336	0.40432137
46	0x3e0ae10d	0.13562413
47	0x3edbe50b	0.42948183
48	0x3e66cf1f	0.22539948
49	0xbebb43a2	-0.36575037
50	0x3f13610c	0.57569957
51	0xbdc27943	-0.09495785
52	0x3e49ab7b	0.19694321
53	0xbdf81735	-0.121138014
54	0xbe872349	-0.26394108
55	0xbc905a58	-0.017621204
56	0x3dacdc01	0.084404
57	0xbe232cd7	-0.15935074
58	0xbf203d62	-0.6259366
59	0x3e4f949b	0.20271532
60	0xbe445ffb	-0.19177239
61	0x3c747eca	0.014922807
62	0x3bb4f7bb	0.005522696
63	0xbd777137	-0.060410704
64	0x3e8f8602	0.28031927
65	0xbdb8461f	-0.089977495
66	0xbea29230	-0.31752157
67	0x3e4d951f	0.20076416
68	0x3d371c5b	0.044704776
69	0x3e9b1f7f	0.30297467
70	0x3dfbd604	0.122966796
71	0x3f2a4836	0.66516435
72	0xbdf45578	-0.11930364
73	0xbdd5e366	-0.104437634
74	0x3d280e0c	0.04102902
75	0x3cfd5250	0.030923039
76	0xbdca355a	-0.09873457
77	0xbe472e7a	-0.19451323
78	0x3f17d59d	0.59310323
79	0x3eb46929	0.3523648
80	0xbd70e82f	-0.058815178
81	0x3efcd906	0.49384326
82	0x3dbce24c	0.0922285
83	0xbc19cc52	-0.009387093
84	0xbe13cb6a	-0.14433065
85	0x3cba6739	0.022754299
86	0x3f26b93d	0.651264
87	0xbd0bf144	-0.034165636
88	0xbb8da147	-0.0043222043
89	0xbed244e0	-0.41068172
90	0xbf2ad954	-0.66737866
91	0x3e64a915	0.22330125
92	0x3e90d7a7	0.2828953
93	0x3f01cfd4	0.50707746
94	0xbdf25e77	-0.11834424
95	0x3f307709	0.68931633
96	0xbef46882	-0.47735983
97	0xbdbcf7f8	-0.09226984
98	0xbe04054e	-0.12892649
99	0xbd60eb3e	-0.054911844
100	0xbe22f898	-0.15915143
101	0xbd0487e2	-0.03235615
102	0x3e07df81	0.13268854
103	0x3d8d47f5	0.0689849
104	0x3dce48e4	0.100724965
105	0xbe9b7f29	-0.30370453
106	0x3e5ccf0c	0.21563357
107	0x3e3a51ce	0.18195269
108	0x3f8e5ff9	1.1123039
109	0xbd0e4b72	-0.03473992
110	0x3e1a890a	0.15091339
111	0x3f2c6152	0.67336
112	0x3e08a90a	0.13345733
113	0x3ed9837b	0.42483124
114	0xbd04d004	-0.03242494
115	0xbf07bbc4	-0.5302088
116	0x3e3fce6c	0.18731087
117	0x3d47cd37	0.048779693
118	0x3f2b0b56	0.6681417
119	0xbd4a1fd1	-0.04934675
120	0xbbef27c1	-0.00729844
121	0x3f213c12	0.62982285
122	0xbe3f7d81	-0.1870022
123	0x3dedc1a8	0.116092026
124	0xbef40c83	-0.47665796
125	0x3dddf953	0.108385704
126	0x3dc83ad1	0.09776843
127	0x3c0a8275	0.008453955
128	0xbe322556	-0.17397055
129	0xbf1c00d8	-0.6093879
130	0xbe2ca41b	-0.16859476
131	0xbe32c351	-0.1745732
132	0xbe889b4b	-0.2668098
133	0x3e99fbe1	0.3007498
134	0xbe18dbf2	-0.14927652
135	0xbe86b6b0	-0.26311255
136	0xbbc56ac9	-0.0060246927
137	0xbe3e5597	-0.18587337
138	0xbe136dbf	-0.14397334
139	0x3e48a322	0.1959348
140	0xbec40f02	-0.382927
141	0x3ef79537	0.4835603
142	0xbea6e978	-0.32599998
143	0xbe86ac67	-0.26303408
144	0xbe436383	-0.1908093
145	0x3e131998	0.14365232
146	0x3cd1101a	0.025520373
147	0x3e8d7ddc	0.27635086
148	0x3f337624	0.70102143
149	0xbe2d6793	-0.16934042
150	0xbf1b3f54	-0.60643506
151	0xbeab2906	-0.33429736
152	0xbe3d7900	-0.18503189
153	0xbe635030	-0.22198558
154	0xbf183a94	-0.59464383
155	0xbd6040eb	-0.05474941
156	0x3e0a6837	0.13516317
157	0xbe966477	-0.29373524
158	0xbdc1d67d	-0.094647385
159	0xbde89ea8	-0.11358386
160	0x3e92eb13	0.28694972
161	0xbe3f9a18	-0.18711126
162	0x3e97381e	0.29535002
163	0xbda8c2cd	-0.0824028
164	0xbce568ef	-0.028004138
165	0x3e2bbc38	0.16771019
166	0x3db69cdf	0.089166395
167	0xbe80ea60	-0.25178814
168	0x3e281c0f	0.16416954
169	0xbf09a919	-0.5377365
170	0x3d146fd2	0.036239453
171	0xbe35d494	-0.17756873
172	0x3c959e8e	0.018264081
173	0x3e1632a1	0.14667751
174	0xbeab9698	-0.3351333
175	0xbf4b9cfb	-0.7953641
176	0x3e832155	0.25611368
177	0xbf2e314f	-0.6804399
178	0x3f9a96bf	1.2077254
179	0x3eabcb38	0.3355348
180	0x3cf4e903	0.029896265
181	0xbb9eeb83	-0.0048498525
182	0x3f0423c2	0.5161706
183	0xbe4a4e16	-0.1975635
184	0x3ea68cb3	0.3252922
185	0xbe8eb649	-0.27873448
186	0xbe37baaa	-0.179423
187	0x3dbe2ef8	0.09286302
188	0xbdd42baf	-0.103598945
189	0xbd78ff32	-0.06079025
190	0x3eb4e6b9	0.35332277
191	0xbeb5498a	-0.35407668
192	0xbcade370	-0.021226615
193	0x3df00dd6	0.11721389
194	0xbe4dd152	-0.2009938
195	0x3ea926e3	0.3303748
196	0xbbe61455	-0.0070214667
197	0x3d8260b0	0.06366098
198	0xbe534cc9	-0.2063476
199	0xbc8c8651	-0.01715389
200	0xbe607179	-0.21918286
201	0x3e0c39d7	0.13693939
202	0x3e91f2c7	0.28505537
203	0x3df36015	0.118835606
204	0xbc556ed6	-0.013026914
205	0xbe1ce35e	-0.15321109
206	0x3de3230b	0.11090668
207	0x3e617de2	0.22020677
208	0x3cb8f7e2	0.022579137
209	0xbb775bf8	-0.0037744027
210	0x3e2d33d4	0.16914302
211	0x3e104b4e	0.14091226
212	0xbd203d6b	-0.039121073
213	0xbb8a60bc	-0.0042229574
214	0x3ca5ce38	0.020239934
215	0xbcbc6d6a	-0.023001391
216	0xbc8e9adb	-0.017407825
217	0x3d9721e1	0.07379509
218	0x3908817d	0.00013018209
219	0xbda91ef7	-0.08257859
220	0xbd921cb9	-0.07134385
221	0x3c2947a5	0.010332023
222	0xbd7a2982	-0.06107474
223	0xbd857e35	-0.06518213
224	0xbb7604cf	-0.0037539487
225	0x3cd1df76	0.02561925
226	0x3daee7e0	0.085403204
227	0xbc5a6d25	-0.013331686
228	0x3e07d2ed	0.13264056
229	0x3e216983	0.15762906
230	0x3e0a5797	0.13509975
231	0xbbcbbeda	-0.0062178196
232	0x3e035aae	0.1282756
233	0x3d693b6d	0.05694144
234	0x3d32e3fc	0.043674454
235	0xbe8db064	-0.27673638
236	0x3bc70c99	0.0060745
237	0x3db5d92a	0.088793114
238	0x3e4a3db8	0.19750106
239	0xbadff451	-0.0017086362
240	0x3cb273b2	0.021783683
241	0xbe1acdfe	-0.15117642
242	0x3d5bf012	0.053695746
243	0xbe32e40c	-0.17469805
244	0xbeba514a	-0.36390144
245	0xbd81d67a	-0.06339736
246	0xbd119eff	-0.03555202
247	0xbe32ff44	-0.17480189
248	0xbdbae2ca	-0.09125288
249	0xbd61cab1	-0.055124942
250	0xbbfeea7a	-0.0077794166
251	0x3e3a7f59	0.18212642
252	0xbaf7eeba	-0.001891575
253	0x3c56ab0b	0.013102303
254	0xbe55361c	-0.20821422
255	0x3e0a8976	0.13529

policy.mlp_extractor.policy_net.2.bias f4 [64]
0	0xbb958f4b	-0.004564201
1	0x3d740f03	0.05958463
2	0xbda310df	-0.07962202
3	0xbb998127	-0.0046845856
4	0x3be8fe45	0.0071103894
5	0x3d7b9f2f	0.061431106
6	0xbdf3b18a	-0.11899097
7	0xbd57607a	-0.05258224
8	0xbd76ed8a	-0.06028513
9	0xbd95c0e0	-0.073121786
10	0xbb5eb106	-0.0033980026
11	0x3d8e329b	0.06943246
12	0xbd379a11	-0.044824664
13	0xbcf24fd4	-0.02957908
14	0xbca2c2c9	-0.019868271
15	0xbcc2ad0e	-0.02376416
16	0xbd5e1e13	-0.0542279
17	0x3c4e7c0f	0.01260282
18	0x3cb854b7	0.022501333
19	0x3c310703	0.010804894
20	0x3d50bd74	0.050961927
21	0x3c805586	0.01566578
22	0xbcc0719f	-0.023491679
23	0x3d5e5f7e	0.054290287
24	0xbd3aad55	-0.04557546
25	0xbd965944	-0.07341245
26	0x3d12b9e7	0.03582182
27	0xbad1ab02	-0.0015996399
28	0x3da0aee2	0.07845856
29	0xbc591cbb	-0.013251479
30	0xbbfb64a6	-0.0076719103
31	0xba5c32d5	-0.00083999085
32	0x3d3aa151	0.045564
33	0x3d0e3d71	0.034726564
34	0xbcba72db	-0.022759845
35	0xbcf9b984	-0.030483969
36	0xbd725873	-0.059166383
37	0xbd5acf2a	-0.053420223
38	0x3d2af5ea	0.04173843
39	0x3e10e066	0.14148101
40	0xbcfaf446	-0.030634057
41	0xbc99748d	-0.018732334
42	0xbd2ea6d9	-0.042639587
43	0x3b55ac73	0.0032604008
44	0x3db9be2d	0.09069476
45	0x3c4716b9	0.012151414
46	0x3c9a5c36	0.018842798
47	0xbd8a79f6	-0.067615435
48	0x3d690855	0.05689271
49	0x3be75c9f	0.007060602
50	0x3ce23e68	0.027617648
51	0xbd06771c	-0.032828435
52	0x3a382cce	0.00070257194
53	0xbcef4df9	-0.029211985
54	0x3d9e4ed3	0.07729878
55	0x3c3ae867	0.011407948
56	0xbd1ddfa9	-0.038543377
57	0x3e123ea4	0.14281708
58	0xbd00d2e2	-0.031451114
59	0x3cd391c2	0.025826339
60	0xbc9afa93	-0.018918311
61	0x3c46650e	0.012109054
62	0xbc066bfe	-0.008204458
63	0xbcc689db	-0.024235656

policy.action_net.weight f4 [2, 64]
0	0xbcbcbf2e	-0.02304038
1	0x3e9f81c1	0.31153682
2	0xbdea5f6b	-0.11443981
3	0xba123a30	-0.00055781286
4	0xbb99ba4f	-0.004691399
5	0xbef84742	-0.48491865
6	0xbdc3e7c1	-0.09565688
7	0xbdf8273f	-0.121168606
8	0xbf093ce9	-0.53608567
9	0xbea43e93	-0.3207899
10	0xbee16d2c	-0.44028604
11	0xbe456587	-0.19277011
12	0x3eaaf5d8	0.3339069
13	0xbc94a9da	-0.018147398
14	0x3e40bfbc	0.18823141
15	0x39df9575	0.0004264523
16	0xbe51cfa6	-0.20489368
17	0xbc56c19b	-0.013107683
18	0x3dc66d9a	0.096888736
19	0x3a4e3298	0.00078658154
20	0xbab631a2	-0.001390029
21	0x3b44b710	0.003001634
22	0xbedc77c8	-0.43060136
23	0x3e80e113	0.25171718
24	0x3d050591	0.03247601
25	0xbb273633	-0.0025514483
26	0xbe157fde	-0.14599559
27	0x3c7168e5	0.014734481
28	0xbdfe8b0b	-0.12428864
29	0x3afbd483	0.0019213114
30	0x3e83f505	0.25772873
31	0x3ad5cb78	0.0016311249
32	0x3ec7128e	0.38881344
33	0x3d40a1bc	0.047029242
34	0xbb6958a3	-0.003560581
35	0xbb98edce	-0.0046670204
36	0x3e8e9840	0.27850533
37	0x3eb833ae	0.35976928
38	0x3964b631	0.00021811646
39	0x3ecb176c	0.39666307
40	0xba99affb	-0.001172542
41	0xbe031dcb	-0.12804334
42	0xb9ad3a06	-0.00033040362
43	0x3edf5262	0.4361754
44	0x3e9932ce	0.29921573
45	0xbe0e9a6b	-0.13926093
46	0xbb2e486c	-0.002659346
47	0xbecfc367	-0.40578768
48	0xbf0903ea	-0.535216
49	0x3a743953	0.00093164033
50	0x3ae64bc6	0.001757019
51	0xbb73d26b	-0.0037204276
52	0x3d59322c	0.053026363
53	0xbde2b066	-0.110688016
54	0xbddf38ea	-0.10899527
55	0x3e40d7a9	0.18832268
56	0x3eb626bd	0.3557643
57	0xbe12dab8	-0.14341247
58	0xbab4ae4f	-0.0013784858
59	0xbde62a3a	-0.11238523
60	0x3934307b	0.00017184198
61	0x3e97725d	0.2957944
62	0x3cc49d02	0.024000648
63	0xbe512e9e	-0.2042794
64	0xbd5736fb	-0.052542668
65	0xbe098c5e	-0.13432452
66	0xbd8c1a63	-0.0684097
67	0xb9a73779	-0.00031894053
68	0x3c7fd36c	0.015614372
69	0xbd5b3eb7	-0.053526606
70	0xbdd8fa52	-0.1059462
71	0xbd5fbb27	-0.05462184
72	0x3c31ac63	0.010844323
73	0xbcbf6bee	-0.023366895
74	0x3de1bc3e	0.110222325
75	0xbd4e9593	-0.050435614
76	0x3ded399f	0.11583256
77	0xbdf50cd2	-0.11965336
78	0x3dafd17c	0.08584878
79	0xbb17855f	-0.0023120267
80	0xbde32f02	-0.110929504
81	0x3d16e64a	0.036840715
82	0xbe0241ff	-0.12720488
83	0xbb82d8f9	-0.0039931503
84	0x3b02793c	0.0019908687
85	0x3bf441e4	0.007454144
86	0x3e663c87	0.22484027
87	0xbd8a800c	-0.06762704
88	0x3d7d91e7	0.06190672
89	0x3abd549a	0.0014444769
90	0x3c8662e3	0.016404575
91	0xbe3f1881	-0.18661691
92	0x3a681e8d	0.000885465
93	0xb9bcabc1	-0.0003598612
94	0x3e24f472	0.16108873
95	0xbae4b79c	-0.0017449739
96	0xbd483102	-0.048874862
97	0xbd938704	-0.072034866
98	0x39edd3aa	0.00045361865
99	0xbdeea709	-0.11652953
100	0xbdb3c4c9	-0.08777768
101	0x3d4e065d	0.050299037
102	0x3aeaf25a	0.001792501
103	0x3ce2742e	0.02764329
104	0x3ac77008	0.0015215883
105	0x3e40b0ba	0.18817416
106	0xba98199c	-0.0011604312
107	0x3d42def7	0.047575917
108	0x3ddf6b20	0.10909104
109	0xbe1a796b	-0.1508538
110	0x3a3fab38	0.00073115854
111	0xbd41b823	-0.047294747
112	0xbd959f04	-0.073057204
113	0xbb7de373	-0.0038740307
114	0xbb033ac7	-0.0020024048
115	0x3a462d7a	0.0007559877
116	0xbe940b70	-0.28914976
117	0x3d8e38f7	0.06944459
118	0x3e1e1f4f	0.15441631
119	0x3e541b9e	0.2071366
120	0x3e09ce24	0.13457543
121	0x3d83ea6a	0.06441195
122	0x3ab5a5b4	0.0013858587
123	0x3e5031a8	0.20331442
124	0x3b29c49d	0.0025904544
125	0xbcf31989	-0.029675262
126	0xbccc1fd7	-0.024917526
127	0x3dc55122	0.096346155

policy.action_net.bias f4 [2]
0	0xbcdb4159	-0.026764559
1	0x3d561fbf	0.05227637
