my_ppo_model.onnx (onnx, 41081 bytes, 7 tensors)

policy.mlp_extractor.policy_net.0.weight f4 [64, 3]
000000 a1 18 95 3e 4c 45 f9 3d ab f2 d1 bc 66 48 e7 bc
       0.29120353 0.121714205 -0.025628408 -0.028232764
000010 fd b5 64 3e cd ee 69 3d a5 26 76 3e b4 a7 7f 3e
       0.22335048 0.057112504 0.24038179 0.24966317
000020 1f a6 38 3e 9f 1b 27 bc 8c 4d 57 3d a3 59 f5 3c
       0.1803212 -0.0101994565 0.05256419 0.029949969
000030 a4 4e 67 bd b8 a6 22 3d 5c 52 7d 3d 31 f7 bb bb
       -0.056471482 0.039709777 0.061846122 -0.0057362546
000040 4a 77 2a 3d 72 6f 8f bd f6 6f 33 3e fb 14 11 be
       0.04161767 -0.070036784 0.17523178 -0.1416816
000050 67 98 47 bd 5d d0 4e 3e 5c eb 34 be 77 38 cc 3e
       -0.048729327 0.20196672 -0.17667907 0.3988683
000060 af 20 b9 3e 9c c8 16 3e f8 3f 69 3d 45 1e 7a be
       0.36157748 0.14724964 0.05694577 -0.2442561
000070 3d 0a a4 bd 65 c6 ac 3d 0e 0b db 3d 60 47 64 bd
       -0.08009765 0.08436278 0.10695468 -0.05573213
000080 9b 56 77 3e 1f b9 d1 bd d1 4e 93 3c 60 dd 86 bd
       0.24154131 -0.10240387 0.017981919 -0.06585193
000090 72 39 95 bd 3b 2e 55 3e 0e 78 cf 3e 2c 02 0e bd
       -0.072863474 0.20818417 0.40521282 -0.03467004
0000a0 e8 55 d5 be 91 2d d7 3c c6 60 d6 3d 21 ba b1 bb
       -0.41667104 0.026266845 0.10467677 -0.0054237996
0000b0 f2 21 87 be 06 ab b1 be 08 7f a7 bd d1 b0 0f 3d
       -0.26393086 -0.34700793 -0.08178526 0.035080735
0000c0 3d 02 36 be 08 1e 51 be e1 40 ad be 02 36 33 3d
       -0.17774291 -0.20421612 -0.3383856 0.043752678
0000d0 a0 87 55 3d 33 7a 98 3d 47 8c 78 bd 31 5c ba bd
       0.052131295 0.07445183 -0.060680654 -0.09099615
0000e0 23 6c cb bc da a1 cc 3e bc 9c 14 3e c0 0f 73 3e
       -0.024831837 0.39967233 0.14512914 0.23736477
0000f0 b0 9b 27 3e b5 38 73 3d b8 98 fb bc 74 38 d3 3d
       0.16367984 0.059380252 -0.03071247 0.10313502
000100 d8 08 60 3e 82 53 fe 3d 7d 47 4c 3d 57 f2 0e be
       0.21878374 0.124182716 0.049872864 -0.13959633
000110 6d be 8c 3d 5c 5c 10 be 00 95 90 3e 12 54 08 be
       0.06872258 -0.14097732 0.28238678 -0.1331332
000120 c3 c1 29 be 63 dd 2c 3e db fc ec bd a2 cf 14 be
       -0.1657782 0.16881327 -0.11571666 -0.1453233
000130 57 d2 ea 3d 43 89 be be 17 d3 6c 3d 0a 33 a8 3e
       0.114659004 -0.37214097 0.0578185 0.3285144
000140 b4 00 85 be 79 0c ad be b5 53 0d 3e 59 08 8c 3e
       -0.259771 -0.33798578 0.13801463 0.2735012
000150 94 7d b9 3d 80 0d b6 bc 64 41 83 be eb 96 ba bd
       0.09057155 -0.022223234 -0.25635827 -0.091108166
000160 99 99 9d be 7a 2e b6 3d 16 e7 35 3e 4f 5e 28 be
       -0.30781248 0.088955835 0.17763934 -0.16442226
000170 97 10 2a be 6c fa 56 3d 19 5a d2 be 22 c2 28 be
       -0.16607891 0.052484915 -0.41084364 -0.16480306
000180 f2 e5 6b be 96 3e a1 3e 95 3d 80 bd a0 68 7c be
       -0.23036936 0.31493062 -0.06261746 -0.24649286
000190 ca 95 0f be f0 22 d1 3e 25 2b 76 be 89 e9 a7 3d
       -0.14021984 0.40846968 -0.24039896 0.0819884
0001a0 c9 69 07 3c 17 4d d7 3c 77 aa 09 3e 97 ca 5c 3c
       0.008264967 0.026281876 0.13443933 0.013476036
0001b0 a4 a4 91 be 56 21 5a 3c 1f fe a3 3c 40 89 11 be
       -0.28445923 0.013313612 0.020018635 -0.14212513
0001c0 21 e2 ad 3e b9 c8 7e be 5c 9d e0 3d ce 5c 16 3e
       0.33961585 -0.24881257 0.10967514 0.1468384
0001d0 c8 02 eb bd 4e ec 6c 3c 7a 4c 55 3d ec ec 1c bd
       -0.1147514 0.014460636 0.052074887 -0.038311884
0001e0 e7 cc df bc 47 09 43 3d a6 4d 21 3d 70 22 85 be
       -0.027319385 0.04761627 0.039380692 -0.26002836
0001f0 41 47 28 bd da 39 21 3d 5e ae 2a 3e b7 9f 44 3d
       -0.041083578 0.039361812 0.16668078 0.04800388
000200 dc 08 a6 be 0b 75 7a 3e 26 0c 1f be 51 49 7e be
       -0.32428634 0.24458711 -0.15531978 -0.24832655
000210 0b 66 6c be ba 1c 0c bc 2f 96 4c be 82 96 73 be
       -0.23085801 -0.008551771 -0.19979165 -0.23787883
000220 74 7f 1c 3d 85 84 83 3d 5e 7d c6 3c 46 9b a2 3e
       0.038207486 0.064217605 0.024229702 0.3175909
000230 d5 30 88 3e d0 cd 67 3e 13 be a9 be a9 4a 85 3d
       0.26599756 0.22637105 -0.33152828 0.06508381
000240 d1 0f f8 3b 4a bb ad 39 36 5b 80 3e 3a fc 4a bd
       0.007570245 0.00033136673 0.25069588 -0.04955695
000250 f4 17 b3 3c 22 ba 0f 3e 37 29 8c 3e 1e b9 86 bd
       0.021862008 0.14035848 0.27375194 -0.06578277
000260 7a be 27 bc 94 a1 df 3d 0d 99 94 3e 88 df 11 bd
       -0.010238284 0.109194905 0.29023018 -0.035613567
000270 4a 7f b9 bc 56 1a 84 3e aa ac d5 bd 70 25 2b 3e
       -0.022643704 0.25801343 -0.10433324 0.167135
000280 94 ba 77 bd 74 91 f1 bc f9 cc 33 be 4b 26 b8 bc
       -0.06048067 -0.029488303 -0.1755866 -0.022479197
000290 21 ab a1 be 7e 10 cd 3d 51 fa f8 bd 14 6c 19 be
       -0.31575873 0.10012911 -0.12157119 -0.14982635
0002a0 35 44 98 be 40 27 17 ba 5b 71 2e 3e 8f 46 d3 3c
       -0.29739538 -0.00057660416 0.17035429 0.02579048
0002b0 aa 34 1a be 07 c4 c6 bd 1b 91 f3 3d d5 fb 56 3e
       -0.15059152 -0.09705358 0.11892911 0.20994504
0002c0 f4 66 5b bd ca d8 e5 bd 56 59 c2 bd 16 2e 01 be
       -0.05356498 -0.1122299 -0.09489696 -0.12615237
0002d0 ef dd 06 bd 68 86 3b bd 83 0a b6 bc 9c 3c 3e bd
       -0.032926496 -0.045782477 -0.02222181 -0.04644452
0002e0 35 b7 4e 3e c7 fc 2a be ac 34 81 3e 6b dc 71 3e
       0.20187075 -0.1669799 0.25235498 0.23619239
0002f0 72 15 35 3d 92 3c ea bd 18 da 11 bd 4a 02 60 3d
       0.044209905 -0.11437334 -0.03560838 0.054689683

policy.mlp_extractor.policy_net.0.bias f4 [64]
000000 00 00 00 00 00 00 00 00 00 00 00 00 00 00 00 00
       0.0 0.0 0.0 0.0
000010 00 00 00 00 00 00 00 00 00 00 00 00 00 00 00 00
       0.0 0.0 0.0 0.0
000020 00 00 00 00 00 00 00 00 00 00 00 00 00 00 00 00
       0.0 0.0 0.0 0.0
000030 00 00 00 00 00 00 00 00 00 00 00 00 00 00 00 00
       0.0 0.0 0.0 0.0
000040 00 00 00 00 00 00 00 00 00 00 00 00 00 00 00 00
       0.0 0.0 0.0 0.0
000050 00 00 00 00 00 00 00 00 00 00 00 00 00 00 00 00
       0.0 0.0 0.0 0.0
000060 00 00 00 00 00 00 00 00 00 00 00 00 00 00 00 00
       0.0 0.0 0.0 0.0
000070 00 00 00 00 00 00 00 00 00 00 00 00 00 00 00 00
       0.0 0.0 0.0 0.0
000080 00 00 00 00 00 00 00 00 00 00 00 00 00 00 00 00
       0.0 0.0 0.0 0.0
000090 00 00 00 00 00 00 00 00 00 00 00 00 00 00 00 00
       0.0 0.0 0.0 0.0
0000a0 00 00 00 00 00 00 00 00 00 00 00 00 00 00 00 00
       0.0 0.0 0.0 0.0
0000b0 00 00 00 00 00 00 00 00 00 00 00 00 00 00 00 00
       0.0 0.0 0.0 0.0
0000c0 00 00 00 00 00 00 00 00 00 00 00 00 00 00 00 00
       0.0 0.0 0.0 0.0
0000d0 00 00 00 00 00 00 00 00 00 00 00 00 00 00 00 00
       0.0 0.0 0.0 0.0
0000e0 00 00 00 00 00 00 00 00 00 00 00 00 00 00 00 00
       0.0 0.0 0.0 0.0
0000f0 00 00 00 00 00 00 00 00 00 00 00 00 00 00 00 00
       0.0 0.0 0.0 0.0

policy.mlp_extractor.policy_net.2.weight f4 [64, 64]
000000 41 50 64 be 0d 2d 91 be af af 54 be 11 38 a2 bd
       -0.2229624 -0.28354684 -0.20770143 -0.0792085
000010 a1 a3 24 bd 28 60 d0 3d bf fa ec 3d 7b eb 46 be
       -0.04019511 0.1017459 0.115712635 -0.19425766
000020 a8 c0 ae 3d 85 b5 b1 be 09 c7 56 be df a1 1d 3e
       0.0853284 -0.347088 -0.20974363 0.1539378
000030 b9 ae 5f 3e 82 ff c5 3e 44 ff 8e 3c 3c 06 e4 bd
       0.21843995 0.386715 0.017455705 -0.111340016
000040 9b 23 af be db 4b ce bc f5 cf a2 be 09 cd 3d 3e
       -0.34206852 -0.025182655 -0.31799284 0.18535246
000050 f9 24 da 3b 9f e1 9a 3e 0e 43 50 bd 9c 80 da 3a
       0.0066572395 0.3025026 -0.0508452 0.0016670409
000060 c7 21 cd 3c 32 29 fc 3d 35 eb 34 3e 3a bf 47 3e
       0.02504052 0.12312545 0.1766785 0.19506541
000070 7e 77 e7 bd 2a 1d 37 3e 06 72 82 3e 5d 1f d3 3c
       -0.11302088 0.17882219 0.25477618 0.025771791
000080 29 c6 42 3e 01 c5 bd 3e c6 27 0d be 76 63 9e bd
       0.19020905 0.37064365 -0.13784704 -0.077338144
000090 bd 3c 21 be c8 92 b7 bd 5e 7e ee 3b f1 c2 de 3c
       -0.15745826 -0.08963543 0.0072782477 0.027192565
0000a0 33 af db 3d bb 47 99 bd 59 c6 60 3d 9d 83 e8 bc
       0.10726776 -0.074843846 0.05487666 -0.02838307
0000b0 f2 d1 16 bd 9c b8 88 be 74 a5 80 3d 3f b6 02 bf
       -0.036821313 -0.26703346 0.06281558 -0.51059335
0000c0 90 8f d6 3c 61 6b 94 3d 5b 15 83 bd a8 45 13 bd
       0.026191503 0.072470434 -0.064005576 -0.0359551
0000d0 09 5c 30 3d 67 b2 f6 3d ca 34 0e be 51 52 23 be
       0.04305652 0.12045746 -0.13887325 -0.1594937
0000e0 51 38 ad 3e 0a ca f9 ba 9b da ce bd 18 d8 a5 bd
       0.33832029 -0.0019057405 -0.101002894 -0.08097857
0000f0 f1 45 ff 3c b3 2c ad bd 8f 96 a8 3d 11 4b a4 3c
       0.03116128 -0.08455791 0.08231842 0.020055326
000100 d6 df 0a be f5 bd 26 3e 27 13 45 bd 51 67 19 3e
       -0.13561949 0.162834 -0.04811397 0.14980818
000110 b1 75 7e 3c 67 46 62 3d ad 48 33 3b 66 b2 c2 3c
       0.0155309895 0.055242922 0.002735655 0.023766708
000120 1e 4f a2 3d c3 47 88 be 8c 7a 40 3e 46 c2 7c 3e
       0.07925247 -0.2661725 0.18796748 0.24683484
000130 59 34 ca 3e 5e 7c 78 be d1 1c b0 bc fa 6f 26 be
       0.39493063 -0.24266192 -0.021498116 -0.16253653
000140 ab 6b 0b 3e bd 4a 29 3e c6 26 a1 bd ac b8 a4 3d
       0.13615291 0.16532417 -0.078687236 0.08043036
000150 b0 53 81 be 4d e0 2f bd 9f 07 ab 3e 3b 6e c1 3b
       -0.2525916 -0.04293852 0.33404252 0.005903033
000160 f5 59 b4 be d2 5d a5 bb 66 cb 22 3e 79 7d 12 3e
       -0.35224882 -0.0050465846 0.15897903 0.14305677
000170 d0 77 a4 bc 4a 93 8c 3d 47 90 24 be 0a 64 4e bd
       -0.020076662 0.06864031 -0.16070662 -0.050388373
000180 87 11 06 3e d3 1c 8d be c7 37 39 be 00 b1 55 bd
       0.13092624 -0.27561054 -0.18087684 -0.052170753
000190 38 52 13 be 61 80 e7 be 23 5b 28 3d a1 e7 a2 bd
       -0.14386833 -0.45215133 0.04110254 -0.07954336
0001a0 9e 90 04 3d dd e9 98 be 62 87 22 3e cc 6f bb bd
       0.03236448 -0.29865924 0.15871957 -0.09152183
0001b0 e7 f1 29 3e 1d ee 25 3d 2e 57 76 bd 57 d8 c6 3e
       0.16596185 0.040510286 -0.060141735 0.3883693
0001c0 49 3b 48 be b9 cc 5a be d6 1a 37 be f2 de 9d 3d
       -0.19553865 -0.21367158 -0.17881331 0.07708539
0001d0 cb 59 37 be 44 28 7f 3e 74 19 9c 3d e0 2f 74 be
       -0.17905347 0.24917704 0.07622042 -0.23846388
0001e0 9e 3f 1e 3d df 88 3f 3d cd 17 07 be 5f e2 15 be
       0.03863489 0.04676139 -0.13192673 -0.14637135
0001f0 01 70 1f 3e fd 4f 11 bd 9d 2e 6c 3e fa 54 69 bd
       0.1557007 -0.035476673 0.23064657 -0.056965806
000200 64 1a 56 3e a6 68 42 3e bb a7 43 bd c8 4f 2f 3e
       0.20908505 0.18985233 -0.047767382 0.17120278
000210 22 45 9c 3e 5a 50 64 bd 51 b6 25 be 46 d7 c6 be
       0.30521494 -0.05574069 -0.1618283 -0.38836116
000220 a1 cd 3a be 1b 12 b9 3e 85 22 bf 3d aa 38 ac 3d
       -0.18242504 0.36146626 0.09332756 0.08409245
000230 fe 2b 06 3e 55 8f dd bc f3 09 3a be 76 8a 8f 3c
       0.13102719 -0.027045885 -0.18167858 0.017522078
000240 89 23 d6 3e db a9 7b bd a5 e0 12 be fa 2a 14 3e
       0.41823986 -0.061441284 -0.14343508 0.1446952
000250 47 c7 93 3e 8d 64 96 b8 2d a1 8c 3c 6c cf 1a bd
       0.28862974 -7.1712864e-05 0.017166698 -0.03779547
000260 74 e4 16 3e 30 a4 de 3b f8 9a 7c be 55 7a 15 3d
       0.14735585 0.006794475 -0.24668491 0.036493618
000270 30 e3 ba bc 28 1a 46 3e de 93 9c bd 2c ce 78 bc
       -0.02281341 0.19345915 -0.07645391 -0.015185874
000280 71 ef fa bc 65 2f 99 3d 19 7b 3f be ad c8 f3 3d
       -0.030631753 0.07479743 -0.18699302 0.1190351
000290 e5 fe 1f be 70 9f 3a be 85 e0 3e be cd 2c 84 bc
       -0.15624578 -0.18224883 -0.18640335 -0.016134644
0002a0 b1 a6 89 bd 5a 02 5f 3e b7 b0 07 be 75 44 52 be
       -0.06721247 0.21778241 -0.13251005 -0.20533927
0002b0 d2 a9 85 3d ef b2 9d be 62 a5 12 be 13 ac 55 be
       0.06526531 -0.30800578 -0.14320901 -0.20866422
0002c0 9c b6 b5 be 8c 32 89 bb 30 1e 58 3e b3 81 e1 3d
       -0.35490882 -0.004186934 0.21105266 0.11011066
0002d0 52 36 a9 be e8 71 2a 3d 4f b0 2f bd 92 5e f1 bd
       -0.33049256 0.041612536 -0.04289275 -0.11785616
0002e0 2c bc 48 3e 2f 4d 84 be e1 85 fe 3c f2 ad 5a 3e
       0.19603032 -0.25840136 0.031069698 0.21355417
0002f0 bb 3f 1b be 6b 86 3d be a4 d5 85 3d 4e 6f 97 3d
       -0.1516103 -0.18508308 0.06534889 0.073942766
000300 ec 32 dc 3d 9e 75 3d 3e 79 54 ac 3e 0a 0d b0 3d
       0.107519 0.18501899 0.33658198 0.08596237
000310 20 76 09 bd b8 93 62 3e 3b 0f b3 3e e3 18 c8 3d
       -0.03355992 0.22126663 0.34972557 0.09770372
000320 a3 84 b9 3c 6a ae 15 3d d6 b5 07 3e de 49 1a 3e
       0.022646254 0.036543287 0.13252959 0.1506724
000330 cd e5 7e 3e 8d 62 82 3e f4 a9 db be d9 e4 1e bd
       0.2489235 0.25465813 -0.429031 -0.038792465
000340 77 ff a4 bd a6 8b 5e bd 5d e0 cc bb 03 b0 93 3e
       -0.080565386 -0.054332398 -0.006252332 0.28845224
000350 7f 2f 2c be ee 86 6d bd 27 1e 74 3e 59 4f 14 3e
       -0.16814993 -0.057990007 0.23839627 0.14483394
000360 64 b8 2a 3c 40 66 ce 3d c5 00 62 be 0e ef 48 3d
       0.010419939 0.100780964 -0.22070606 0.049056105
000370 79 57 50 3a dc 61 3a be 4e e1 c7 bc 3f 23 a5 3d
       0.0007947605 -0.18201393 -0.024399426 0.08063363
000380 38 84 bc be 1f 5a ea bd a7 6e e7 3d 7c 25 31 be
       -0.36819625 -0.114429705 0.11300402 -0.17299455
000390 42 52 cf be cf 4b 00 3e 4d 54 ba 3e d6 bf 9c bd
       -0.40492445 0.12528919 0.3639244 -0.07653777
0003a0 bd e7 f0 3d 42 21 02 3c be 63 4f be 6b fd c2 3c
       0.117629506 0.0079425 -0.20252892 0.02380248
0003b0 bf 57 0b bd a5 26 e5 3d eb 87 b5 bd 02 db 23 be
       -0.034019228 0.111890115 -0.08863815 -0.16001514
0003c0 17 c3 80 bd 47 ef 84 3e 25 2e 00 3d 6f e2 f3 bd
       -0.062872104 0.25963804 0.031294007 -0.11908423
0003d0 5e fe 1d be 3e 39 70 bd 78 03 5b bb 8f 07 81 3e
       -0.15429065 -0.05864834 -0.0033418816 0.2520108
0003e0 06 5f ba 3d d4 ac 3a 3e 02 1c 72 be 70 08 d1 3d
       0.091001555 0.18229991 -0.23643497 0.102066875
0003f0 44 2c 63 3d 05 a8 c7 3c e6 1d 87 be 46 2f 1b be
       0.055462137 0.02437211 -0.26389998 -0.15154752

policy.mlp_extractor.value_net.0.weight f4 [64, 3]
000000 19 62 bc bd b4 4f 5d be 7b 77 f4 3d b1 58 e2 bd
       -0.09198398 -0.21612436 0.119368516 -0.11052073
000010 53 a8 9b 3d 0c cf c0 3d ff 0e 8a 3d ad 83 ff bd
       0.07600465 0.09414491 0.067411415 -0.12476287
000020 02 28 0d 3b 6c 59 1f be d7 54 a5 3e df 8d 83 be
       0.002153874 -0.15561455 0.3229129 -0.25694177
000030 c0 b4 97 bc ec 5d 9a bd a8 b7 2b 3d b6 56 d2 bd
       -0.018518806 -0.075374454 0.041923195 -0.10270445
000040 cd 80 98 be 31 bd d1 3d 74 6d 81 3e da bf da 3e
       -0.29785767 0.102411635 0.2527882 0.42724496
000050 bf 17 98 be ae 99 ae 3d f2 d4 14 be e5 ac f9 3d
       -0.29705617 0.08525406 -0.14534357 0.1219118
000060 13 55 a8 bd 69 52 b7 bc 1e b6 a1 3c cd 22 c0 3d
       -0.082193516 -0.022378163 0.01974016 0.09381638
000070 8b ab 58 3e 82 79 77 3c c5 7e 9c 3d ed de 14 bd
       0.21159188 0.015104653 0.07641367 -0.03634541
000080 1b 05 89 3e c7 87 fb bd b7 b0 16 3e 70 bc a8 3d
       0.26761708 -0.12281757 0.14715849 0.082390666
000090 5d c0 9c 3d a1 24 8f 3e 86 46 fc bc ed aa cb be
       0.07653878 0.27957633 -0.030795347 -0.39778844
0000a0 e4 fa 92 3e 2c ad 06 be c9 5f 51 3c 66 2e 38 3c
       0.2870704 -0.13151997 0.012779185 0.011241531
0000b0 84 91 1f be 12 3f 70 3d 25 53 15 3e 0a 6f 8c bd
       -0.15582854 0.0586539 0.14582498 -0.068571165
0000c0 4c 15 66 3e f3 5b c5 3d 93 df 0f 3e 32 3d 66 be
       0.22469062 0.096366785 0.1405013 -0.22484282
0000d0 38 fe a7 bd 1a 7b 95 bd e3 f7 86 3e 0f d6 0a 3e
       -0.08202785 -0.072988704 0.26360998 0.1355822
0000e0 8c a8 56 be e5 20 15 3e 12 f7 b4 be 29 85 d3 be
       -0.20962733 0.1456333 -0.3534475 -0.4131253
0000f0 40 f5 32 bd 4a 58 f4 bc 86 74 d9 3d a3 58 e5 3d
       -0.04369092 -0.029827256 0.10617928 0.11198547
000100 21 40 57 be dd 61 20 be c9 ed 06 bf 4f d7 14 3e
       -0.21020557 -0.15662332 -0.5270658 0.14535259
000110 0e 81 ff bd 3c 78 f0 bd 8c e5 9a 3e 61 cf ff 3b
       -0.12475787 -0.11741683 0.30253255 0.007806704
000120 94 0a 08 be b3 71 26 bb e7 f4 b1 3d b3 ef 0d 3e
       -0.13285285 -0.002539736 0.086892895 0.13860969
000130 b4 45 c3 3d bd af 25 bd b8 75 9d bd be b1 1b be
       0.09534779 -0.0404508 -0.07688469 -0.15204522
000140 02 8a a1 3d d0 c2 16 be 37 05 97 bd 15 b6 8c bd
       0.07887651 -0.14722753 -0.073740415 -0.06870667
000150 0b 72 92 3b ec 48 8b 3d fa 89 5a 3e b8 6f 3d be
       0.0044691614 0.06801018 0.21341696 -0.18499649
000160 dc 19 5d be ab f4 b0 3e fe e1 b2 bd e5 b0 4f 3e
       -0.21591896 0.34561667 -0.08734511 0.20282324
000170 41 66 65 3c 49 be 84 be a2 b7 ba bd ac 55 6b be
       0.01400143 -0.25926426 -0.091170564 -0.229819
000180 cc 8f 8a bd bc 19 61 3e 7f ea 32 3e e6 37 f3 bc
       -0.06765708 0.21982473 0.17472266 -0.02968974
000190 a2 71 16 3d 8f 4e ef bc bc 83 66 3d da 56 58 be
       0.036729462 -0.029212264 0.056277975 -0.21126881
0001a0 c0 00 44 3d c4 20 19 3e 61 8c e4 3d a0 21 88 be
       0.047852278 0.14953905 0.11159588 -0.26588154
0001b0 8f 61 5d be 7a d2 92 be 2f 45 b1 ba fd 16 68 bd
       -0.21619247 -0.28676206 -0.0013524647 -0.05666255
0001c0 11 69 24 3e c2 fe 8a bc 5a 3b 2d be d8 50 6b 3d
       0.16055705 -0.016967181 -0.16917172 0.057450145
0001d0 54 ae a1 3c d6 bd 8c 3d a1 4e 59 bd 42 87 07 bc
       0.019736446 0.06872146 -0.053053502 -0.008271994
0001e0 fd 85 c6 3d a2 2c 7b bd 9e 1e 82 bd 70 18 1b 3e
       0.09693525 -0.061321862 -0.06353496 0.15146041
0001f0 cc 3b fb 3d fc bd ec 3d 21 45 22 3e 34 84 6b bd
       0.12267265 0.11559674 0.15846683 -0.057499126
000200 88 2f fb 3d 4c c0 3b bd a6 38 18 be 47 b8 c7 3d
       0.12264925 -0.045837685 -0.1486536 0.09751945
000210 fe cc eb 3d e6 91 ba 3d ea 64 25 3d 6e 5f 7a be
       0.115137085 0.09109859 0.040379442 -0.24450466
000220 4b 6c 2f 3d f4 db b8 bb 28 37 23 be f9 2d f3 bc
       0.042827886 -0.005641455 -0.15939009 -0.029685007
000230 36 e1 a9 be 07 ae 2e be 2a 04 c8 3d b4 2b 49 be
       -0.33179635 -0.17058574 0.09766419 -0.19645578
000240 99 92 5f be b8 10 83 3e a4 89 9c 3e 2e 21 1e be
       -0.21833266 0.25598693 0.3057376 -0.15442345
000250 dd c1 47 3e 28 e4 bf 3c aa c8 d1 3d c5 0c 67 3d
       0.19507547 0.023424223 0.10243352 0.056408662
000260 27 5e 02 be e3 e8 61 3e 8a e1 c7 bd b0 ab c2 bd
       -0.12731229 0.22061495 -0.09759815 -0.09505403
000270 64 db 06 3e 74 89 29 bd 14 9c 2c be 03 0b e6 3e
       0.13169628 -0.04139085 -0.16856414 0.44930276
000280 4c a7 e3 3d 66 ca 99 be bf 55 c6 3d 2a a6 25 3d
       0.11115894 -0.3003723 0.096843235 0.04044167
000290 6f 38 a8 3e a7 d3 82 be 5c e7 3b 3d 04 0b ad bc
       0.32855555 -0.25552103 0.04587494 -0.021123417
0002a0 dd 61 74 3e a8 a9 5c 3e b0 cc ce 3e ff 3b 41 be
       0.23865457 0.21549094 0.4039054 -0.18870543
0002b0 8b 98 98 3e 47 68 82 3e b5 56 d5 3c 7b 84 1d be
       0.2980388 0.25470182 0.026042322 -0.15382569
0002c0 e7 9f ee 3d 2b a2 66 3e b8 0f 8c 3e d1 02 0f 3e
       0.11651593 0.225228 0.27355742 0.13965918
0002d0 75 89 97 3d 11 1c 7c be 7f b8 69 3c 31 99 9e 3e
       0.07399265 -0.24620081 0.014265179 0.3097625
0002e0 ff 5d 05 bd be 74 d7 3e a3 1e d8 bd 5a 26 fb bd
       -0.032560345 0.42081255 -0.105527185 -0.12263174
0002f0 cd 6c 5e 3e 6f 36 d2 3d 47 c9 9c 3e 9c 2d d4 3d
       0.21721192 0.10264289 0.30622312 0.10360262

policy.mlp_extractor.value_net.2.weight f4 [64, 64]
000000 ec 9b 4d be bc 0d 2c bd a5 9b 69 be b2 78 4e be
       -0.2007901 -0.042005286 -0.2281328 -0.20163229
000010 d0 76 3f 3e a7 e8 90 be c8 7b 5e be af 46 24 be
       0.18697667 -0.283025 -0.21726906 -0.16042589
000020 9d 65 63 be 53 7f 29 be a5 51 e1 3d e2 9e f6 bd
       -0.22206731 -0.16552477 0.110019006 -0.12042023
000030 88 b4 6b be 71 5d 6f 3d 54 11 7c 3c b1 27 9a bd
       -0.23018086 0.058438722 0.015384991 -0.07527102
000040 d7 ff 3a 3e f1 24 33 3e 38 0e a4 3d 53 87 00 3e
       0.18261658 0.17494561 0.080105245 0.12551622
000050 69 31 33 3d 4a e1 2a 3e 84 c5 48 be 0f b8 5c be
       0.043748293 0.16687503 -0.19606596 -0.21554588
000060 d6 4d 5b 3e a1 84 3b be e9 43 65 3d 8f 47 63 3e
       0.21416411 -0.18312313 0.055972967 0.22195266
000070 bf 20 5b be c7 a8 63 3e 97 6c 5b 3d d1 aa 88 3d
       -0.2139921 0.22232352 0.053570356 0.06673206
000080 40 1c 88 be fc 35 e2 bc f9 ac 3e 3e 16 72 39 3d
       -0.26584053 -0.027613632 0.18620671 0.045274816
000090 f9 26 b8 3d 76 4a 4d 3d 52 bc 0f 3e ea ca af be
       0.089918084 0.05011984 0.14036682 -0.343345
0000a0 bb 21 37 be 4e f1 2f 3e 60 3f 1e be 4e b9 88 3d
       -0.17883961 0.17181894 -0.15453863 0.06675969
0000b0 d2 86 65 3e 64 53 0e 3d 08 7f 2e bd dc d9 03 be
       0.22414711 0.034747496 -0.042601615 -0.12876076
0000c0 9b 60 bd bb ea aa 38 be fe ee 4c 3e dd f6 a2 be
       -0.0057793385 -0.18033949 0.20013043 -0.31828967
0000d0 b2 99 ea 3e b7 fe c1 bd 46 5b 38 bd b5 94 63 be
       0.45820385 -0.09472411 -0.04500892 -0.22224696
0000e0 0e b3 ab bc ec 05 ba 3d c9 98 81 be 31 84 60 be
       -0.020959403 0.09083161 -0.25311878 -0.21925427
0000f0 8a 30 c1 3d 07 0b 8c 3d 98 b6 74 be 1d ce 20 be
       0.09433086 0.06838041 -0.23897779 -0.15703626
000100 e4 d0 53 3e 02 ad 37 3d 81 5c 14 3d 9b 6a 9f 3d
       0.20685154 0.044842727 0.03622103 0.07784005
000110 54 40 f3 3d c4 23 92 be 80 9f 7f be 51 7e 08 be
       0.11877504 -0.28542912 -0.24963188 -0.13329436
000120 cc 99 9e be 95 76 8a 3e ac 82 b0 bd a6 89 27 3e
       -0.30976713 0.27043596 -0.08618674 0.16361102
000130 41 4f 64 3e a2 33 d2 3d 5b 20 d0 be ee f1 8f bd
       0.22295858 0.102637544 -0.40649685 -0.07028566
000140 32 a1 9d 3d ae 19 89 bc 5d ec f9 bd 47 9a 72 be
       0.07696761 -0.016735878 -0.12203286 -0.23691665
000150 56 74 3d 3e 8d 37 87 bd 39 37 ac 3d 9f 08 ea be
       0.1850141 -0.06602392 0.084089704 -0.45709702
000160 aa 93 80 3d 1c ea 53 be ce bf 8b be 74 9c 62 39
       0.06278165 -0.20694774 -0.27294773 0.00021611323
000170 7b 33 63 3e d3 04 85 3d 83 57 b9 be 86 af 52 3e
       0.22187607 0.06495061 -0.3619958 0.2057477
000180 b2 05 b0 bd 6e 46 67 3e c0 6b 45 bd 54 70 26 3e
       -0.08594836 0.2258546 -0.04819846 0.16253787
000190 f0 80 aa be 17 61 40 3e f7 c1 10 3d d5 d2 02 3e
       -0.33301497 0.18787037 0.03534123 0.12775739
0001a0 c3 af ae 3d af 04 80 bc 39 fe 19 3d ca 24 ec 3d
       0.08529618 -0.015627233 0.03759596 0.115304545
0001b0 58 08 6a bc ea 0f 59 3d 10 a3 4f be 74 16 28 be
       -0.014284216 0.052993692 -0.20277047 -0.16414815
0001c0 62 20 45 3e 92 b3 1d 3e 13 e2 8a bd 4e 74 4d bd
       0.19250634 0.15400532 -0.067814015 -0.050159745
0001d0 bb 7e 0d 3d e4 79 97 3e c0 4c ff bd 98 56 29 3a
       0.034544688 0.29585183 -0.12465811 0.0006459742
0001e0 b4 e5 45 bd 50 55 53 bd c8 5f f4 3d 65 e3 45 be
       -0.048314765 -0.051595032 0.11932331 -0.19325025
0001f0 b3 f5 01 3e 29 6f 5d bd ef ea 83 3e 46 fb 61 bc
       0.12691383 -0.05406109 0.25765178 -0.013792818
000200 39 5d 29 be 3b 3d d0 3d 7e f3 73 3d ea 1d 33 3e
       -0.16539468 0.10167929 0.059558384 0.1749188
000210 a4 17 85 3e 48 00 47 3e a5 39 cd 3d 22 88 ae 3d
       0.259946 0.19433701 0.100207604 0.08522059
000220 9c 10 9f 3d a9 ac 6c 3e a7 9a 21 3e 4b 53 2b 3e
       0.0776684 0.2311274 0.15781651 0.16730992
000230 b1 0b 44 be ba 84 09 3f d3 da 0f 3e 59 34 74 3e
       -0.19145085 0.5371815 0.14048319 0.23848094
000240 05 11 6b 3d 06 48 41 3e 96 a6 9d bd 56 4b 2f 3e
       0.057389278 0.18875131 -0.07697789 0.17118582
000250 67 43 72 3e 4b 10 3a be 2e df 36 3e c2 20 76 be
       0.23658524 -0.18170278 0.17858574 -0.24035934
000260 02 28 7b be 26 f6 1f 3e 56 8e 8a 3d 05 06 21 3d
       -0.2452698 0.15621242 0.0676543 0.03931238
000270 19 46 f3 bd 90 a5 ee bd 2c 8f b0 3d 93 38 29 be
       -0.118786044 -0.11652672 0.08621058 -0.16525488
000280 24 c0 f9 3d 87 f8 38 be a7 4d 89 be 28 66 14 be
       0.12194851 -0.18063556 -0.26817057 -0.14492095
000290 b4 d4 cc 3d 5c 98 75 3e fb be 49 be 92 7b ab bd
       0.100015074 0.23983902 -0.1970176 -0.083731785
0002a0 3b 05 5e 3e 43 29 0d be 5a 1c e5 3b 49 ad 12 bc
       0.21681683 -0.13785271 0.006991905 -0.008952447
0002b0 f0 7f be 3d a9 6f 9e 3d 6a 54 9e bd 32 a8 4a be
       0.09301746 0.07736141 -0.077309445 -0.19790724
0002c0 f5 a7 1b be c9 7c 51 be 74 3f 17 3d 6c 2b 40 be
       -0.1520079 -0.20457758 0.036925748 -0.18766564
0002d0 63 cd d1 3c c4 7e 93 3e 69 03 84 3e 33 4a 9e bb
       0.025610631 0.28807652 0.25783852 -0.0048306226
0002e0 31 d2 97 be 52 46 41 3d 9f 21 ae 3d 31 27 1d be
       -0.2965255 0.047186203 0.085025065 -0.15346982
0002f0 83 8b a5 3e 70 8d cd 3d 0e 5b ca 3c 82 ee 08 be
       0.32333001 0.10036743 0.024701621 -0.13372234
000300 fa 01 10 be f4 75 d7 bd 00 56 fe 3c 42 3a 1e 3e
       -0.14063254 -0.10520545 0.031046867 0.15451911
000310 71 1b 32 be 08 ce 71 be d3 92 b3 3d e4 97 9a bd
       -0.1739328 -0.23613751 0.08768239 -0.07548502
000320 bd 94 97 bd 56 f2 d3 bd 58 48 0d 3e f4 04 a6 bc
       -0.074014165 -0.10348956 0.13797128 -0.020266034
000330 62 d0 91 bd 1a 49 a5 be f5 07 39 be 29 01 59 3c
       -0.07119824 -0.32282335 -0.18069442 0.0132449055
000340 32 fb 16 be d9 5f d3 bc 5f 9f bb 3c 66 7e 14 3e
       -0.14744261 -0.02580254 0.022903142 0.14501342
000350 13 c5 8a 3e 34 7f fc bd bd b1 3f bd 08 98 0c be
       0.2710348 -0.123289496 -0.046800364 -0.1372987
000360 5b 0b 41 be e3 e4 b8 3d db d6 83 bd 5e 2b ce be
       -0.18851988 0.09028032 -0.06437465 -0.40267462
000370 8f 55 b3 3e 49 0b cf 3d 6d ca 88 3e 21 a4 8d be
       0.35026214 0.10109574 0.2671694 -0.27664283
000380 15 f0 8a 3d c4 4a e1 bd 2e 6d 29 3e d9 e5 8f 3e
       0.06784073 -0.110005885 0.16545555 0.28105047
000390 d8 52 78 bc 91 95 8d 3e 0b 3d f1 bd 06 9c 3c be
       -0.01515647 0.27653173 -0.11779221 -0.18418893
0003a0 66 48 4f 3e 03 c0 b1 bd 1d 1c 22 bc 75 7f 99 3e
       0.20242462 -0.086792015 -0.009894398 0.29980054
0003b0 a4 b1 4e 3d 60 60 74 3e 37 c6 18 be d7 ec f2 bc
       0.05046238 0.23864889 -0.14919363 -0.02965395
0003c0 07 e0 40 be 43 84 8b be ab 27 c6 bd aa 5e 3e be
       -0.1883546 -0.27249345 -0.09675535 -0.18590799
0003d0 65 2e c3 3b a7 9d a0 3d 0b 19 42 be 29 40 51 be
       0.0059564584 0.0784257 -0.18954866 -0.20434631
0003e0 fd 3d e3 3d d6 45 99 3d ca 72 63 3d a5 ab a6 3e
       0.11095808 0.07484023 0.055529393 0.3255283
0003f0 5d 95 a7 bd d3 30 03 be 9b dd 4a be e2 95 b6 3e
       -0.08182786 -0.12811594 -0.19811098 0.35661227

policy.action_net.weight f4 [1, 64]
000000 a4 fb 87 ba 27 4a 11 ba 6b f7 7b b9 24 07 4c 3a
       -0.0010374677 -0.00055423606 -0.00024029396 0.00077830465
000010 93 43 8b ba 60 9e e1 b9 12 47 80 ba d6 83 1d ba
       -0.0010624997 -0.00043033343 -0.0009786806 -0.000600872
000020 19 2f 5d ba 86 a2 07 3b 61 7d e2 ba db 87 37 3a
       -0.0008437499 0.0020696237 -0.0017279797 0.000700114
000030 d4 ff 67 3b e5 23 70 3a 8f 2c 4f ba 8a d7 9a 39
       0.0035400288 0.0009160622 -0.0007903063 0.00029533758
000040 b4 53 1f ba 64 50 2a b9 0c 19 6d 3a 55 69 d2 3a
       -0.00060778414 -0.00016242411 0.0009044565 0.001605312
000050 c5 d1 2e 3a ca 7e 7f 3a ab ac e8 39 2f 4d ff b9
       0.00066688313 0.0009746371 0.00044379136 -0.00048694896
000060 2e 03 29 3a f3 49 1d b9 97 8a 21 3b 9b c7 95 3a
       0.0006447312 -0.00015000235 0.0024649256 0.0011427285
000070 5b 3e 16 3b 6b 3f 61 ba 52 cb 15 3b f6 41 80 3a
       0.002292535 -0.0008592519 0.0022856784 0.0009785283
000080 93 f8 72 3a 6c 73 68 b9 a0 d8 d3 3a 6b 16 46 b9
       0.0009268608 -0.00022168242 0.0016162582 -0.00018891103
000090 15 30 fc 39 cf cb 15 3a bb cf 5e ba 38 c7 a8 3a
       0.0004810101 0.0005714269 -0.0008499582 0.0012876755
0000a0 ab 76 6e 3a ee a8 08 bb 66 5c 12 ba 3e 67 b9 3a
       0.00090966624 -0.0020852643 -0.00055832264 0.0014145148
0000b0 38 00 06 ba 9d b1 98 b9 fd 59 23 3a 02 fd 10 3a
       -0.0005111727 -0.0002912403 0.0006231366 0.0005530865
0000c0 f2 fc b0 ba 26 5e cd ba 13 92 c5 3a 30 7d 04 3a
       -0.0013503118 -0.0015668317 0.0015073441 0.0005054055
0000d0 3d 7a a4 ba bb 33 be ba ca e0 55 b8 86 87 ac 3a
       -0.0012548637 -0.0014511266 -5.099251e-05 0.0013162948
0000e0 9b 10 e8 b9 a2 59 4c ba 57 cd 3d 3a 45 73 2c 3a
       -0.0004426286 -0.0007795339 0.0007240376 0.0006578456
0000f0 7e 05 6e 3b 87 20 60 38 27 a4 84 39 61 e2 10 3b
       0.0036319192 5.3436055e-05 0.00025299305 0.0022107589

policy.value_net.weight f4 [1, 64]
000000 58 1c 59 3e fd 93 22 bd 60 aa ee bd 6a 12 17 3b
       0.21202219 -0.039691914 -0.1165359 0.0023051747
000010 8a 74 33 bc e8 8d 2a be b4 ad 03 be 0e 57 21 3e
       -0.010953078 -0.16655695 -0.12859231 0.15755865
000020 00 ba c6 3d 76 70 90 bd 12 d9 32 be 4b 04 1c be
       0.097034454 -0.070527 -0.17465618 -0.15236013
000030 d5 19 5f bc 4d 90 7b bd 40 2f 7c 3d 16 1c f1 bd
       -0.013616999 -0.061416913 0.0615685 -0.11772935
000040 ae 18 16 be 77 47 b0 bd 02 9d fb bc d9 65 e9 bd
       -0.14657852 -0.08607381 -0.030714516 -0.11396379
000050 fb 98 d2 bd 5f a8 a8 bd 5c d8 f1 3d 1a 38 02 3e
       -0.10283085 -0.08235239 0.118088454 0.12716714
000060 82 d8 bf bd 1f 13 4b bd 48 37 54 bc a6 77 dc 3d
       -0.093674675 -0.049578782 -0.012952633 0.10765009
000070 f2 2f b2 3c bf 33 92 3d 46 1f b8 3d 77 6f cc 3d
       0.021751378 0.07138776 0.0899034 0.09982198
000080 de 68 75 3e 6b 2a 0b 3e 88 9f 39 bc 4d fb 1d be
       0.23965785 0.135904 -0.011329539 -0.15427895
000090 65 33 1c be 62 fd 27 3b e4 18 26 be b3 89 50 3e
       -0.1525398 0.0025633206 -0.16220433 0.20365028
0000a0 29 7a 5f 3e f6 c9 b0 3c f4 66 49 bc 6a bc ef bd
       0.21823944 0.021580677 -0.012292612 -0.11705859
0000b0 01 cb 14 bb 95 8d 8e 3d 1a ff 08 bd e1 31 9a bd
       -0.0022704008 0.069605984 -0.03344641 -0.07529045
0000c0 6a cc ac 3e 3f e7 d4 3d 71 60 09 be 8d 1e cc bd
       0.33749706 0.10395669 -0.13415696 -0.099667646
0000d0 99 32 e3 3d 03 f6 63 be 46 d2 8c 3d 01 ca e2 bd
       0.11093635 -0.22261815 0.06876044 -0.110736854
0000e0 a8 76 2f 3d 1a c8 09 be 53 4f 01 3d a6 49 dd bd
       0.04283777 -0.13455239 0.03156979 -0.10805063
0000f0 2b e2 b8 3d 95 58 80 3e 11 20 6e 3d 57 8f 4f 3e
       0.09027513 0.25067583 0.05813605 0.20269524
