results/autosave/A28_000_800000_EURUSD/ONNX_model.onnx (onnx, 36654 bytes, 7 tensors)

policy.log_std f4 [2]
0	0xc011aff2	-2.2763638
1	0xbfc18d16	-1.5121181

policy.mlp_extractor.policy_net.0.weight f4 [64, 60]
0	0xbcb5c658	-0.022189304
1	0x3e8498d3	0.25897846
2	0x3d94efdc	0.07272312
3	0xbcdd9267	-0.02704735
4	0x3dc92cb4	0.098229796
5	0x3d2970b1	0.041367237
6	0x3d897628	0.0671199
7	0xbd837a9a	-0.06419869
8	0x3d158b16	0.036509596
9	0xbd4fa312	-0.050692625
10	0xbe9c5226	-0.30531424
11	0x3df324d2	0.11872257
12	0x3e20a1e2	0.15686753
13	0xbd65c9f0	-0.056100786
14	0x3e8d137f	0.27553937
15	0x3c31b77b	0.010846968
16	0x3e8398c0	0.25702477
17	0xbe1e41f5	-0.15454848
18	0xbeb05425	-0.34439197
19	0x3ebcadd5	0.36851373
20	0x3d4c7b83	0.049922477
21	0xbda2554d	-0.07926426
22	0x3d07b409	0.03313068
23	0x3e26b936	0.1628159
24	0x3e5b73d9	0.21430911
25	0xbdb793a3	-0.08963706
26	0x3e892912	0.26789147
27	0xbcb94bc3	-0.022619134
28	0xbea99a49	-0.33125523
29	0xbec87390	-0.39150667
30	0x3c2c142f	0.010502859
31	0xbe0c1f02	-0.13683704
32	0x3ca955ec	0.020670854
33	0x3bafbf76	0.0053634
34	0x3e104898	0.14090192
35	0xbda1d149	-0.07901246
36	0xbc24f651	-0.010068492
37	0xbcef0a9e	-0.029179867
38	0xbce5e7c7	-0.028064622
39	0xbdef448a	-0.11682995
40	0x3e3f8e65	0.18706663
41	0xbe4c55be	-0.19954583
42	0xbdaf89a0	-0.08571172
43	0x3d6f1cc8	0.058377057
44	0x3e0b4020	0.1359868
45	0xbdb72f65	-0.08944587
46	0xbe1f4abf	-0.15555857
47	0x3c017650	0.007901743
48	0x3db219a5	0.086962976
49	0x3ea51e84	0.32249844
50	0x3ec5f429	0.38662842
51	0xbe2e3cd1	-0.17015387
52	0xbeb231f9	-0.3480375
53	0xbe607fb9	-0.21923722
54	0xbe007f6b	-0.12548606
55	0x3d8f558f	0.06998741
56	0x3e71edfb	0.23625939
57	0x3dc8688a	0.09785564
58	0x3e4799f4	0.19492322
59	0x3d62f42b	0.055408638
60	0x3d403cf2	0.046933122
61	0xbde973f5	-0.1139907
62	0x3e091ec5	0.13390644
63	0xbe8b22f9	-0.2717512
64	0xbd35ea61	-0.044412974
65	0x3e4cc884	0.19998366
66	0x3dfff0e8	0.12497121
67	0xbe03ed74	-0.1288355
68	0x3e7ab676	0.24483666
69	0xbed856da	-0.42253762
70	0x3e0ce830	0.13760448
71	0x3d7c8c23	0.061657082
72	0x3e33a12d	0.17541952
73	0x3e38cae1	0.18046142
74	0x3e06fa72	0.13181475
75	0x3d5b2a3a	0.053507067
76	0x3e999f3d	0.30004302
77	0x3e13a43b	0.14418118
78	0x3e2dcdc0	0.16973019
79	0xbe046f04	-0.12932974
80	0x3c968f97	0.018379016
81	0x3d6c8dac	0.057752296
82	0xbe124cef	-0.1428716
83	0x3e13db1f	0.14439057
84	0x3e868531	0.26273492
85	0x3e0fd5aa	0.1404635
86	0xbeff8d35	-0.4991242
87	0xbd77feff	-0.060545918
88	0x3d050daa	0.032483734
89	0x3d7527dc	0.059852466
90	0xbe5b6145	-0.21423824
91	0xbe588928	-0.21146071
92	0xbddf8aeb	-0.109151684
93	0x3eafc4c8	0.3432982
94	0x3d055a6a	0.03255693
95	0xbd34e162	-0.044160254
96	0xbd82002a	-0.063476875
97	0x3e4ce7a8	0.20010245
98	0x3d6430d0	0.055710614
99	0x3ed2a6ae	0.41142792
100	0x3c3512d6	0.011051854
101	0x3c8654ed	0.016397918
102	0x3d2c0c63	0.042004
103	0x3e4528e9	0.19253887
104	0x3d2fb909	0.042901073
105	0x3d7da443	0.06192423
106	0xbd57ab43	-0.052653562
107	0xbe4a3325	-0.19746073
108	0x3eb4df5b	0.35326657
109	0xbe21323d	-0.1574182
110	0x3e42ccf8	0.19023502
111	0xbe2346dd	-0.15945001
112	0xbd74a5a7	-0.05972829
113	0x3d98935d	0.07449982
114	0xbbb1d175	-0.0054265806
115	0xbe775cf4	-0.24156553
116	0xbe4dabcd	-0.20085068
117	0x3df98493	0.1218349
118	0x3ae1b3f8	0.0017219773
119	0x3de76d9d	0.11300204
120	0x3d6def59	0.058089588
121	0x3cab9f96	0.02095012
122	0xbdd2da69	-0.10295565
123	0xbe7dc163	-0.24780802
124	0x3e2fc9ff	0.17166899
125	0xbe0696c8	-0.13143456
126	0xbcaa9b0f	-0.02082589
127	0xbea08e30	-0.3135848
128	0x3cc3ee78	0.023917422
129	0x3cf15f62	0.029464427
130	0xbe144bff	-0.14482115
131	0xbca2808a	-0.019836683
132	0x3ecef5bd	0.40421858
133	0x3e077ca7	0.13231145
134	0xbcb3d233	-0.021950817
135	0xbc2780e0	-0.010223597
136	0xbce9798f	-0.028500346
137	0xbd934a14	-0.07191864
138	0x3e4a5792	0.19759968
139	0x3e5fd19a	0.218573
140	0xbde96ed3	-0.11398091
141	0x3d7f7624	0.062368527
142	0xbd34ab76	-0.04410883
143	0xbee9681d	-0.45587245
144	0x3e1b3aa7	0.15159093
145	0x3df71859	0.12065191
146	0x3e11042d	0.14161749
147	0x3dcc7c31	0.09984625
148	0x3dd915a0	0.10599828
149	0x3e56361c	0.20919079
150	0x3cd2f12b	0.025749763
151	0xbde8a7d6	-0.11360137
152	0x3eac395c	0.33637512
153	0x3cf7ffae	0.030273285
154	0x3d9e82ab	0.07739767
155	0xbeac7648	-0.3368399
156	0x3e136629	0.1439444
157	0x3e74396d	0.23850031
158	0xbe5297cc	-0.20565718
159	0x3d73cea0	0.059523225
160	0x3d8f17b8	0.06986946
161	0x3e679a4a	0.2261745
162	0x3e0258c2	0.12729171
163	0x3e29eaf2	0.16593531
164	0xbe4c9832	-0.19979933
165	0x3dd179e2	0.102283254
166	0x3d6ac4b5	0.0573165
167	0x3df799b1	0.12089861
168	0xbe50b3e5	-0.20381124
169	0x3e12742a	0.14302126
170	0xbe0cc64d	-0.1374752
171	0x3c9825a2	0.018572632
172	0x3d0311e0	0.03199947
173	0xbe634fbc	-0.22198385
174	0x3ddc6886	0.10762124
175	0xbe5e545f	-0.21711873
176	0x3e07799b	0.13229983
177	0xbda68200	-0.08130264
178	0x3dbc27f5	0.09187309
179	0xbd76e516	-0.060277067
180	0x3e34c923	0.17654853
181	0x3c059e3a	0.0081554
182	0xbd0eb7d2	-0.034843273
183	0xbd21f17e	-0.039536946
184	0xbdc7cede	-0.09756254
185	0x3e6f36ba	0.2336072
186	0xbecff99b	-0.4062012
187	0x3d972a19	0.07381076
188	0xbdb34313	-0.08753028
189	0xbed396bd	-0.41325942
190	0xbe07d1dc	-0.13263649
191	0x3c9ffbd6	0.019529264
192	0x3e519820	0.20468187
193	0xbd25e840	-0.040504694
194	0xbd450482	-0.048100002
195	0x3e065fa9	0.13122429
196	0xbd522dc9	-0.051313195
197	0xbe50258e	-0.20326826
198	0x3d71cb17	0.059031572
199	0x3ca822ec	0.020524465
200	0xbed9e684	-0.42558682
201	0xbd731df9	-0.059354756
202	0xbd43c952	-0.047799416
203	0xbdb65bdd	-0.0890424
204	0x3cc36ece	0.023856547
205	0xbe7ef2af	-0.24897264
206	0xbd70e358	-0.058810562
207	0x3c367832	0.011137055
208	0x3d3d51cb	0.046220582
209	0xbe8e2ef2	-0.2777019
210	0x3d6b5c2c	0.05746095
211	0x3dd145ca	0.10218389
212	0x3e77b63b	0.24190609
213	0x3e83bb19	0.25728682
214	0x3a6b0e41	0.00089666626
215	0x3d1d71ec	0.038438722
216	0x3dfcb8e8	0.123399556
217	0xbe0f7012	-0.14007595
218	0xbe6d3c0b	-0.23167436
219	0x3d9f21bc	0.07770106
220	0xbe0a4be7	-0.13505517
221	0xbe51b972	-0.20480898
222	0xbe6cd281	-0.23127176
223	0xbe4a8351	-0.19776656
224	0xbe363864	-0.17794949
225	0xbd0ffb17	-0.035151567
226	0xbd1bf286	-0.038073085
227	0xbd7b8d6f	-0.06141418
228	0xbe088a27	-0.13333951
229	0xbef195d0	-0.4718461
230	0x3e460a91	0.19339968
231	0x3de4d6cf	0.11173784
232	0x3dde88c6	0.10865931
233	0xbe4171e7	-0.18891107
234	0xbe8e99f5	-0.27851835
235	0xbc9c4275	-0.019074658
236	0x3e28a4ae	0.1646907
237	0x3e2aa15b	0.16663115
238	0xbc4ea2bc	-0.012612041
239	0xbde90298	-0.11377448
240	0xbd844b3f	-0.064596646
241	0x3de8da85	0.11369804
242	0xbce29254	-0.027657665
243	0xbdb26b51	-0.08711875
244	0x3cc2ae4d	0.023764754
245	0xbda078cc	-0.0783554
246	0x3d6ee9bc	0.058328375
247	0x3e0a6677	0.1351565
248	0xbec3ea43	-0.38264665
249	0xbe688e73	-0.2271059
250	0x3deb7385	0.11496643
251	0xbe99b2a2	-0.300191
252	0x3e6aa191	0.22913195
253	0x3e61e9d8	0.2206186
254	0xbd825e7f	-0.0636568
255	0x3e94aa96	0.29036397

policy.mlp_extractor.policy_net.0.bias f4 [64]
0	0x00000000	0.0
1	0x00000000	0.0
2	0x00000000	0.0
3	0x00000000	0.0
4	0x00000000	0.0
5	0x00000000	0.0
6	0x00000000	0.0
7	0x00000000	0.0
8	0x00000000	0.0
9	0x00000000	0.0
10	0xb91ada6a	-0.0001476795
11	0x00000000	0.0
12	0x00000000	0.0
13	0x00000000	0.0
14	0x00000000	0.0
15	0x00000000	0.0
16	0x00000000	0.0
17	0x00000000	0.0
18	0x00000000	0.0
19	0x00000000	0.0
20	0x00000000	0.0
21	0x00000000	0.0
22	0x00000000	0.0
23	0x00000000	0.0
24	0xb85d3e1f	-5.274836e-05
25	0x00000000	0.0
26	0x00000000	0.0
27	0x387af374	5.9831378e-05
28	0x37da2b1a	2.6007696e-05
29	0x00000000	0.0
30	0x00000000	0.0
31	0x00000000	0.0
32	0x00000000	0.0
33	0x38622669	5.391837e-05
34	0x00000000	0.0
35	0x00000000	0.0
36	0x00000000	0.0
37	0x00000000	0.0
38	0x00000000	0.0
39	0x00000000	0.0
40	0x00000000	0.0
41	0x00000000	0.0
42	0xb70d048e	-8.405315e-06
43	0xad9c72f8	-1.7786203e-11
44	0x394a051e	0.00019266127
45	0x00000000	0.0
46	0x00000000	0.0
47	0x00000000	0.0
48	0x00000000	0.0
49	0x00000000	0.0
50	0x00000000	0.0
51	0x00000000	0.0
52	0x00000000	0.0
53	0xb8119c79	-3.471642e-05
54	0x00000000	0.0
55	0xb733120a	-1.06734315e-05
56	0x00000000	0.0
57	0xb8a1a308	-7.707445e-05
58	0x00000000	0.0
59	0x00000000	0.0
60	0xb93e7206	-0.00018162289
61	0x00000000	0.0
62	0x00000000	0.0
63	0xb8ce5890	-9.8393415e-05

policy.mlp_extractor.policy_net.2.weight f4 [64, 64]
0	0xbd7c66c4	-0.061621442
1	0x3b2f800b	0.00267792
2	0x3d16aa77	0.03678366
3	0x3d973eef	0.073850505
4	0x3e6648e1	0.22488739
5	0xbd9ead33	-0.07747879
6	0xbec4d16f	-0.38441035
7	0x3dcf4133	0.10119858
8	0xbe259c94	-0.16173011
9	0x3deca3fe	0.115547165
10	0xbda03d7d	-0.07824228
11	0x3e051b01	0.12998582
12	0xbe4da938	-0.20084083
13	0x3e531046	0.20611677
14	0x3dc3c63d	0.09559295
15	0xbe4c0e85	-0.19927414
16	0xbe8ee137	-0.279062
17	0x3e3366f4	0.17519742
18	0x3e31b7fe	0.17355344
19	0xbe3335a2	-0.17500928
20	0x3dad451b	0.084604464
21	0xbd764813	-0.06012733
22	0x3ea8e519	0.32987288
23	0x3de5a99d	0.11213992
24	0x3e2c198e	0.16806623
25	0x3cd45dec	0.025923692
26	0xbda60241	-0.08105899
27	0x3eb63a73	0.35591468
28	0xbc092147	-0.00836975
29	0xbdfa82a3	-0.12231948
30	0xbe345b9a	-0.17613068
31	0xbe0e1a8c	-0.13877314
32	0x3bd27b78	0.00642341
33	0xbdf49cfe	-0.119440064
34	0x3d63052c	0.055424854
35	0xbeb7ed24	-0.3592311
36	0xbdf06d3a	-0.11739583
37	0xbd906974	-0.070513636
38	0xbe2906b0	-0.16506457
39	0xbd1ad594	-0.03780134
40	0xbe0b77b4	-0.13619882
41	0xbe31fdb7	-0.17381941
42	0x3ec35a74	0.38154948
43	0x3d6b0e88	0.057386905
44	0xbd893bcd	-0.06700859
45	0x3dd40892	0.10353197
46	0xbeb692e3	-0.3565894
47	0xbd9159ab	-0.07097181
48	0x3d217b1f	0.039424058
49	0x3f02368b	0.50864476
50	0xbcd6712d	-0.026177013
51	0xbcdbc1d6	-0.026825827
52	0xbe2e18ea	-0.17001691
53	0xbc7bb160	-0.015362114
54	0xbe2e5f24	-0.17028481
55	0xbeea7ec6	-0.45799845
56	0xbeb70920	-0.3574915
57	0xbec84b89	-0.3912013
58	0xbe325d84	-0.17418486
59	0x3ec0cf70	0.37658262
60	0xbd209d69	-0.039212618
61	0x3e549f4a	0.20763889
62	0xbe89ca9b	-0.26912388
63	0xbe030e96	-0.12798533
64	0xbd292596	-0.04129561
65	0x3db5b77d	0.08872888
66	0x3e3696b9	0.17830934
67	0x3e2a905d	0.16656633
68	0xbd84f8b2	-0.06492747
69	0x3cf52737	0.029925926
70	0xbb940286	-0.0045169024
71	0xbe001a98	-0.12510145
72	0x3cef3390	0.029199392
73	0xbe8f2b3a	-0.27962667
74	0x3df81a7d	0.12114427
75	0x3ea7708c	0.32703054
76	0xbe2b2a24	-0.16715294
77	0x3e8fc743	0.28081712
78	0xbd46616f	-0.048432764
79	0x3ec93a27	0.3930218
80	0xbe8867cb	-0.26641688
81	0x3d8573bb	0.065162145
82	0x3df5b739	0.119978376
83	0xbbc4a929	-0.006001611
84	0x3f128dcb	0.5724761
85	0x3dbedb0d	0.09319124
86	0x3cfd5d55	0.030928293
87	0x3ed49e41	0.41526988
88	0xbed4ecd0	-0.41586924
89	0x3eb40609	0.35160854
90	0x3e0474bd	0.12935157
91	0x3e00dadf	0.12583493
92	0x3c3d123b	0.011539991
93	0x3daecd65	0.0853527
94	0x3dd09621	0.10184885
95	0xbe76d68f	-0.24105285
96	0x3d925db3	0.07146778
97	0x3dd5e035	0.10443155
98	0x3e00526e	0.12531444
99	0xbdfd3ecf	-0.123654954
100	0xbd548b35	-0.05189057
101	0x3c995acb	0.018720051
102	0xbe30e915	-0.17276414
103	0xbcdb31f3	-0.026757216
104	0x3b8def67	0.0043315175
105	0x3e606657	0.2191404
106	0xbe7ab57d	-0.24483295
107	0xbe0dbb18	-0.13840902
108	0xbea228e1	-0.31671813
109	0x3e209109	0.15680327
110	0x3da451d3	0.08023419
111	0x3d8c61ef	0.06854617
112	0xbeeef319	-0.46669844
113	0xbea329d8	-0.31867862
114	0xbdf8abb4	-0.12142125
115	0xbe3c42c9	-0.18384852
116	0x3e9e74b5	0.30948415
117	0xbedf2cec	-0.4358896
118	0x3d83e02b	0.06439241
119	0x3d30fdf4	0.04321094
120	0xbe66a7e9	-0.2252499
121	0xbeed6d11	-0.46372274
122	0x3e58eec9	0.2118484
123	0xbebadb8d	-0.3649563
124	0x3d1a815c	0.037721023
125	0x3ece5a41	0.40303233
126	0x3d63238b	0.05545382
127	0x3d8843ed	0.06653581
128	0x3e4f4b6a	0.20243612
129	0x3c98ef8e	0.018668916
130	0x399b9a0a	0.00029678672
131	0x3eacdb53	0.3376108
132	0x3e8b01bc	0.2714976
133	0xbde38c31	-0.11110724
134	0xbd7fc17f	-0.06244039
135	0x3eac8d39	0.33701494
136	0x3c072dd9	0.008250677
137	0x3c3739bb	0.011183198
138	0xbe7a8488	-0.24464619
139	0x3e51c295	0.20484383
140	0x3eed3233	0.4632736
141	0xbe3b5579	-0.18294324
142	0xbe0d8a15	-0.13822205
143	0xbe90c560	-0.28275585
144	0x3da481cd	0.0803257
145	0xbed1d81f	-0.409852
146	0xbe3ed3e5	-0.18635519
147	0xbb4a1806	-0.0030837073
148	0x3ef83f3b	0.4848574
149	0x3d1e8e6c	0.038710043
150	0x3e433119	0.19061698
151	0xbe124f2b	-0.14288013
152	0x3e6d5d71	0.23180176
153	0x3e517def	0.20458196
154	0x3ccf2aa6	0.025288891
155	0xbda6a3a8	-0.08136684
156	0xbe6bbad9	-0.23020495
157	0xbe1ef19f	-0.15521859
158	0x3dcfefd9	0.10153169
159	0x3d9ebd93	0.07751002
160	0x3ca14660	0.019686878
161	0x3de63231	0.11240042
162	0xbe55280b	-0.20816056
163	0x3e32f1aa	0.17475
164	0xbed57117	-0.41687843
165	0x3e3cc52a	0.18434587
166	0xbe43488f	-0.19070648
167	0x3c8f079c	0.017459683
168	0xbd99357d	-0.07480905
169	0xbe9f2051	-0.31079343
170	0x3cb8c9b0	0.02255711
171	0x3e64d64b	0.22347371
172	0x3dcb4e04	0.0992699
173	0x3e8854a7	0.26627085
174	0xbd06c38a	-0.032901324
175	0x3da0c0ff	0.07849311
176	0x3ea064aa	0.313268
177	0x3ce69459	0.02814691
178	0xbdd6dcd7	-0.104913406
179	0xbdf1bd49	-0.118036814
180	0xbc9556fc	-0.018229954
181	0xbf228473	-0.6348335
182	0x3db4c053	0.088257454
183	0xbb18f690	-0.0023340322
184	0xbce11379	-0.027475106
185	0xbe84f941	-0.25971416
186	0x3d10bff8	0.035339326
187	0xbd9b910e	-0.07596026
188	0xbc188dff	-0.009311198
189	0xbe977533	-0.29581603
190	0x3e201661	0.15633537
191	0x3ec0d6d1	0.37663892
192	0x3e466a02	0.19376376
193	0x3e74060e	0.23830435
194	0xbe39bd90	-0.18138719
195	0xbd885751	-0.06657279
196	0xbe5c0021	-0.21484424
197	0xbe32c0fc	-0.1745643
198	0x3dc80618	0.09766787
199	0xbd767a30	-0.06017512
200	0x3e9fd3ef	0.3121638
201	0x3db6a2de	0.08917783
202	0x3e8d6fc8	0.27624345
203	0xbd9f83c3	-0.077888034
204	0x3d577204	0.05259897
205	0xbdede7f0	-0.11616504
206	0x3dab25de	0.08356832
207	0xbdbeb3a1	-0.09311605
208	0xbd8b3734	-0.067976385
209	0xbe0be55d	-0.13661714
210	0x3db21d2a	0.08696969
211	0xbe3a2170	-0.18176818
212	0x3ee98ac9	0.45613697
213	0x3e5bf3ce	0.21479723
214	0x3d42f705	0.047598857
215	0x3df70967	0.1206234
216	0xbdbd0bde	-0.09230779
217	0xbe44ee26	-0.19231471
218	0x3c801d00	0.015638828
219	0xbd2bb5ce	-0.04192143
220	0xbece8335	-0.40334478
221	0x3e84ee66	0.25963134
222	0xbe1254d6	-0.14290175
223	0xbd60fe04	-0.05492975
224	0xbf0f57a8	-0.5599313
225	0x3da57888	0.0807963
226	0x3d95b250	0.07309401
227	0xbde90af2	-0.11379041
228	0x3e033aa8	0.12815344
229	0x3ec95e4a	0.3932975
230	0x3ea60cd4	0.32431662
231	0xbcdcda0c	-0.026959442
232	0xbc325ba9	-0.010886111
233	0x3ec3bd65	0.38230434
234	0xbe875cc2	-0.26437956
235	0x3ea3abcd	0.3196701
236	0xbd81af19	-0.06332225
237	0xbdcc23d0	-0.09967768
238	0x3bf57a4f	0.007491387
239	0x3f001bb8	0.50042295
240	0x3eccf69f	0.40031907
241	0xbd7f6611	-0.062353197
242	0x3d0f3b1c	0.03496848
243	0x3e3bc4aa	0.1833674
244	0xbdbfba80	-0.09361744
245	0xbeee149a	-0.46500093
246	0x3d21d90c	0.039513633
247	0xbf0f69af	-0.56020635
248	0xbeea3753	-0.45745334
249	0xbe19082d	-0.14944525
250	0xbb1d76f7	-0.0024027207
251	0x3db27a62	0.08714749
252	0x3e7c09db	0.24613135
253	0xbebb8b50	-0.36629725
254	0x3c978d1f	0.018499909
255	0xbdaef368	-0.0854252

policy.mlp_extractor.policy_net.2.bias f4 [64]
0	0xbd0d7cff	-0.034543034
1	0xbd94142e	-0.072304115
2	0xbd07774d	-0.03307276
3	0x3ac941dc	0.0015354711
4	0xbc8c4828	-0.01712425
5	0x3dc87647	0.097881846
6	0xbb7f6100	-0.0038967729
7	0x3c959518	0.01825957
8	0xbcbce118	-0.023056552
9	0x3bfeb184	0.0077726264
10	0xbd45c673	-0.04828496
11	0xbcd45091	-0.025917323
12	0x3b3425d7	0.0027488375
13	0xbc82cf45	-0.015967974
14	0x3a399778	0.00070797605
15	0x3ccbcc63	0.024877733
16	0x3ce5ad6b	0.028036794
17	0x3d8461aa	0.064639404
18	0x3c320052	0.010864334
19	0x3c70c5ba	0.014695579
20	0x3c880ec6	0.016608607
21	0xbc5af036	-0.013362935
22	0xbba2f53e	-0.004973083
23	0x3da69b02	0.08135034
24	0xbc89a51d	-0.016802365
25	0xbd19621d	-0.037447084
26	0xbd6dd6fc	-0.058066353
27	0xbcf47207	-0.029839529
28	0xbb269acf	-0.0025421863
29	0x3d323b67	0.04351368
30	0xbd2191b9	-0.039445613
31	0x3af885ee	0.0018960813
32	0x3d00350d	0.031300593
33	0x3d53eed2	0.05174143
34	0x3d83e8a1	0.06440855
35	0xbc823c84	-0.015897997
36	0xbab6212a	-0.0013895382
37	0x3d1312ae	0.035906486
38	0xbb677eb3	-0.0035323321
39	0xbc486192	-0.012230294
40	0xbc028dac	-0.0079683475
41	0xbce74619	-0.028231667
42	0x3cb8120b	0.022469541
43	0x3c8550e6	0.016273927
44	0x3d8396dc	0.064252585
45	0x3b887786	0.004164639
46	0xbd5aa7a7	-0.053382542
47	0x3c8a0cd2	0.016851816
48	0xbc9d0b8d	-0.019170547
49	0xbc8ac6b0	-0.016940445
50	0x3c559089	0.013034948
51	0xbd0c44cc	-0.034245297
52	0x3cb31163	0.021858877
53	0xbd04cc15	-0.03242119
54	0xbb901862	-0.004397438
55	0x3c922e20	0.01784426
56	0x3cc19ae3	0.023633426
57	0xbca6394f	-0.020290999
58	0xbd25aa66	-0.040445708
59	0xbcfd19a7	-0.030896021
60	0xbc3c2ac0	-0.011484802
61	0xbd8f41c3	-0.06994965
62	0x3d9159e3	0.07097223
63	0x3c9c0eb2	0.019049976

policy.action_net.weight f4 [2, 64]
0	0xbd975be4	-0.073905736
1	0xbe60981f	-0.2193303
2	0x3d0127bb	0.03153203
3	0x3e342826	0.1759344
4	0x3defbb9b	0.11705705
5	0x3d8ea0c4	0.06964257
6	0xbd3eae8e	-0.046553187
7	0x3d301db9	0.042997096
8	0x3bad7ae6	0.0052941917
9	0xbd742943	-0.059609663
10	0x3e3cd250	0.18439603
11	0xbda3dd4e	-0.08001195
12	0x3e16f2d6	0.14741072
13	0x3dcd897e	0.1003599
14	0xbdfbb0d4	-0.12289587
15	0xbd86d7e9	-0.0658415
16	0xbe1e2f04	-0.15447623
17	0xbd9306d9	-0.071790405
18	0x3e5116b2	0.20418814
19	0xbb94cf28	-0.0045412965
20	0xbd77eea4	-0.06053032
21	0x3a8c49a7	0.0010703102
22	0x3e91de2c	0.28489816
23	0xbddd67b7	-0.10810798
24	0xbe3dab11	-0.18522288
25	0xbe38ec8d	-0.18058987
26	0x3e5707b3	0.20999031
27	0x3dd07511	0.10178579
28	0x3e813cf7	0.25241825
29	0xbd12eb4f	-0.03586894
30	0xbd9f073f	-0.07765054
31	0xbdad6e5d	-0.08468316
32	0xbd5c108c	-0.053726718
33	0x3e52215b	0.20520537
34	0xbe3dc995	-0.18533929
35	0xbe662c19	-0.2247776
36	0x3df2e76b	0.11860546
37	0x3e166f3d	0.14690872
38	0xbd81a940	-0.0633111
39	0xbe582e37	-0.2111138
40	0xbd9cbdc5	-0.07653383
41	0x3c141fee	0.009040816
42	0x3d4e34aa	0.050343193
43	0xbd9c6772	-0.07636918
44	0x3e0254b8	0.1272763
45	0xbe4785b5	-0.19484599
46	0x3e216c1f	0.15763901
47	0xbcf4453b	-0.029818168
48	0xbd0e4b0d	-0.034739543
49	0x3e045132	0.12921599
50	0x3e008ea9	0.1255442
51	0xbe7e796c	-0.24851006
52	0xbc9a3203	-0.018822676
53	0x3e62eb7e	0.22160146
54	0x3be754e0	0.0070596784
55	0xbdbdb07d	-0.09262178
56	0x3e42ad4f	0.19011424
57	0x3e3cd9cc	0.18442458
58	0x3df3510e	0.11880694
59	0xbdfea3b8	-0.124335706
60	0x3cfe0b50	0.031011254
61	0x3c439b50	0.011938885
62	0xbd897ead	-0.067136146
63	0x3dd87d3c	0.105707616
64	0x3d55b166	0.052171133
65	0xbdbeded9	-0.093198486
66	0x3dd0afc9	0.10189778
67	0x3e19a6cb	0.15005033
68	0x3bfbb9b4	0.0076820496
69	0xbdeef430	-0.11667669
70	0xbc126e73	-0.008937466
71	0xbdca25d7	-0.098704986
72	0xbc8984d1	-0.016786965
73	0x3d126708	0.03574279
74	0x3db70645	0.08936743
75	0xbd308f71	-0.043105546
76	0x3ce88448	0.02838339
77	0x3e239290	0.15973878
78	0xbe2f9d27	-0.17149793
79	0x3cb67e63	0.022277063
80	0xbdd0d543	-0.101969264
81	0x3d9cbc43	0.076530956
82	0xbc1d636f	-0.009606226
83	0xbde9b143	-0.11410763
84	0xbcd3a59f	-0.02583581
85	0x3c7ff20d	0.015621674
86	0x3e173e96	0.14769968
87	0x3cfb5ca8	0.03068383
88	0xbd848abc	-0.06471774
89	0xbcb048f4	-0.021519162
90	0xbd9f099f	-0.07765507
91	0x3d8422fd	0.06451986
92	0xbc0c6e35	-0.008571197
93	0xbdbf7844	-0.09349111
94	0x3e264721	0.16238071
95	0x3cd392e3	0.025826877
96	0xbeaca635	-0.33720556
97	0xbd1c94eb	-0.038227957
98	0xbdb1e588	-0.08686358
99	0xbd241f72	-0.04006905
100	0x3d9e52b7	0.0773062
101	0x3c6c75f5	0.01443242
102	0x3d55d629	0.052206192
103	0x3b935906	0.0044966964
104	0xbcdead92	-0.027182374
105	0xbd0b883b	-0.034065466
106	0xbd0fcc16	-0.03510674
107	0x3da64456	0.08118503
108	0x3d56aff6	0.052413903
109	0x3e4546ac	0.1926524
110	0x3e00148f	0.12507842
111	0x3e4a049b	0.1972832
112	0xbda16fcd	-0.078826524
113	0xbd792159	-0.06082282
114	0x3dc6035d	0.0966861
115	0x3dca4cc9	0.09877927
116	0x3e16b2d1	0.1471665
117	0xbd8df5f9	-0.06931681
118	0xbe324cec	-0.17412156
119	0xbd07ffbb	-0.033202868
120	0x3dadee49	0.08492715
121	0xbda8a558	-0.08234662
122	0xbd911e91	-0.07085908
123	0x3cdc4aa2	0.026891056
124	0x3d9f57db	0.07780429
125	0x3daf8953	0.085711144
126	0x3dcefc89	0.10106761
127	0x3da7e4b7	0.08197921

policy.action_net.bias f4 [2]
0	0xbc21b029	-0.00986866
1	0xbd04a80e	-0.032386832
