results/autosave/A27_000_1000000_EURUSD/ONNX_model.onnx (onnx, 71929 bytes, 12 tensors)

policy.log_std f4 [2]
000000 b2 70 02 c0 ba 15 f8 bf
       -2.0381284 -1.938163

policy.mlp_extractor.policy_net.0.weight f4 [64, 60]
000000 9e 59 15 be fc 0d 9c bd 67 c4 71 3d 5c ab fd bd
       -0.14584967 -0.07619855 0.059025194 -0.123862
000010 e5 11 17 be 7a 96 9e 3d 2d 8f 8d bc f0 0b d7 be
       -0.1475292 0.07743545 -0.017280186 -0.42001295
000020 6e dd f1 bc 3c 12 b9 be 83 6b d5 3d e5 dc 2e be
       -0.029524531 -0.36146724 0.10420897 -0.17076452
000030 9b b2 33 be c8 a1 d9 bc c1 0f e9 bd ba df b3 3d
       -0.17548601 -0.026566401 -0.11379958 0.08782907
000040 85 da 5f 3d f7 53 cf 3b a0 fc 11 3d 2f 88 2e be
       0.054651756 0.006327148 0.035641313 -0.17044137
000050 8d f9 12 be 90 68 b8 3b 85 df 69 3d 99 55 38 bd
       -0.14353009 0.005627699 0.05709793 -0.045003507
000060 ec 1b 87 bc 43 fb cb 3e 26 99 ff 3b 04 44 bd 3d
       -0.016492806 0.39840135 0.007800239 0.092414886
000070 d7 b0 52 bd 3f 62 0f 3e 5e 5e 62 be 47 38 06 bf
       -0.05143818 0.14002322 -0.2210631 -0.5242962
000080 77 ee 96 bc b8 13 d1 bd 67 8e 21 3c a5 6a fe 3d
       -0.018424256 -0.10208839 0.0098606115 0.124226846
000090 21 f2 b2 3e 57 7b 4f 3d f3 33 13 3e 84 e0 8b 3d
       0.34950355 0.050654735 0.14375286 0.06829932
0000a0 4e de 2c 3e 71 7a f6 bc 70 f4 6e 3c df c0 a0 3e
       0.16881678 -0.030087681 0.014584646 0.3139715
0000b0 16 fa 1d bd cd 60 42 be 6e 1f 69 be 21 f0 c6 3e
       -0.03856858 -0.18982239 -0.22765896 0.3885508
0000c0 bb 09 81 3c 33 0c 3c 3e c5 fc 5d be d0 61 f5 3d
       0.01575171 0.18364029 -0.21678455 0.11981547
0000d0 52 a3 82 3e bd a7 ba bd 44 12 11 3d 03 10 4d be
       0.2551523 -0.09114025 0.03541781 -0.20025639
0000e0 b6 fc 06 3e f8 bc 9f 3d 46 36 0d be a3 bf ec bd
       0.13182339 0.07799715 -0.13790235 -0.11559989
0000f0 43 cd 9e bd ed 84 37 be bf 8d 39 3d 82 4d 14 be
       -0.07753994 -0.17921801 0.045301195 -0.14482692
000100 df 9e ae 3d ad 20 8a be de e2 12 bb 1f 27 ad bb
       0.08526396 -0.26978055 -0.0022413055 -0.0052842046
000110 16 40 2f 3d a0 80 20 be b4 e7 94 3d 67 51 1f 3e
       0.042785726 -0.15674067 0.07270756 0.15558396
000120 d6 fc 77 be ab 1f 86 be 00 39 20 be 8e 5c 20 3e
       -0.24217543 -0.26196036 -0.15646744 0.15660307
000130 f0 43 4c bc 64 d4 4b be d8 c3 30 3b 86 51 c0 be
       -0.012467369 -0.1990524 0.00269722 -0.37562197
000140 a9 fa 7e bc c9 fd 19 3e 24 4d 01 be cf d0 44 3e
       -0.015562692 0.15038218 -0.12627083 0.19220279
000150 56 ff 01 3e da f6 b3 bd e8 44 24 bd 9f d8 09 be
       0.12695059 -0.087873176 -0.040104777 -0.1346154
000160 c4 fa 8a bc 1f 46 41 be 95 09 07 be b7 95 90 3d
       -0.016965277 -0.18874405 -0.13187249 0.07059806
000170 9a 4e a4 3e 2f 00 2b bd e3 6a 1a 3e ea 53 79 be
       0.32091218 -0.041748222 0.15079837 -0.24348417
000180 6a 21 ef bc f5 3c 3f be 18 00 25 be a1 f5 33 3e
       -0.029190738 -0.18675597 -0.16113317 0.17574169
000190 ce f0 54 3e 10 c3 4a 3e 37 47 32 bd 49 65 98 be
       0.20794985 0.19800973 -0.043524947 -0.29764774
0001a0 28 78 05 3e 28 44 3f bd 4f a8 98 be 33 f9 1e be
       0.13034117 -0.04669586 -0.2981591 -0.1552475
0001b0 a3 9d 4e be 0c ee fc be 57 7a 0c 3e 09 cf 85 3d
       -0.20177321 -0.49400365 0.13718544 0.065336294
0001c0 f4 86 5f bd d1 a9 15 bc 81 f5 84 3e 64 dd f8 bc
       -0.05457206 -0.009134726 0.25968555 -0.030379005
0001d0 c2 b0 e5 3d e4 f2 03 be ce b2 32 bd 87 39 d1 bd
       0.112153545 -0.12885624 -0.043627553 -0.102160506
0001e0 f4 8c 35 bd 7a ed ca 3d ac 55 63 3e 92 a5 e5 3d
       -0.044323877 0.09908576 0.2220065 0.11213221
0001f0 91 50 b4 bd 65 f6 97 3e a8 a9 02 bd 0c f2 2f be
       -0.08804429 0.29680172 -0.031900078 -0.17182177
000200 52 94 fe 3e 6d da 10 be c2 c9 bf 3d 63 9d 01 3e
       0.49722534 -0.14145823 0.09364654 0.12657695
000210 00 17 40 bc 06 6b 33 be 9b 1c 82 be 24 73 25 be
       -0.011724234 -0.17521295 -0.2541245 -0.16157204
000220 1d 13 84 3e b5 46 40 3b a5 03 9c 3e c3 86 6a 3e
       0.25795832 0.002933902 0.3047153 0.2290297
000230 af 63 44 be 4b eb ab 3d 95 20 a7 3d 6c d9 6c 3e
       -0.19178651 0.08394488 0.081605114 0.23129815
000240 86 30 df 3d cc da 2f be 02 98 00 be 66 c5 09 3e
       0.10897927 -0.17173308 -0.12557986 0.13454208
000250 8f f0 8e bd 70 80 13 be 44 55 ed 3d cd 8d 47 3e
       -0.06979477 -0.14404464 0.11588529 0.19487686
000260 5f 39 8e ba 99 4c b5 bd d1 f2 f0 bd bb 44 20 3e
       -0.0010850838 -0.088525005 -0.117650636 0.15651219
000270 7a 41 4f bd ba a8 03 3d 7b 39 16 3d a9 ca 2f be
       -0.050599553 0.032143332 0.03667591 -0.17167152
000280 e8 fc 89 be b2 bd ae 3e 3d c4 34 3e e0 8d 4f 3e
       -0.26950765 0.341291 0.17652984 0.20268965
000290 2e e2 81 be 0c b0 84 3d b9 7f 24 3c 4e 5a b1 3d
       -0.25367874 0.06478891 0.010040217 0.086598024
0002a0 90 b4 43 bd f5 cd 1c bd 86 75 02 be 7f 3b 07 3e
       -0.04777962 -0.038282353 -0.12740144 0.1320629
0002b0 a8 0a a3 be 5a 16 5b be 8c e3 cd 3e 3a bd 83 be
       -0.31844068 -0.21395245 0.40212667 -0.25730306
0002c0 c2 ed 1e 3c aa 19 20 be de 0c 03 3e 8c 50 6f bd
       0.009700241 -0.1563479 0.12797877 -0.058426425
0002d0 86 55 46 bd 57 43 c9 3d 58 5d 2b be 12 03 46 3c
       -0.048421405 0.09827297 -0.16734827 0.012085693
0002e0 e8 2e f0 be 35 15 61 3e ba d3 17 be 13 5c 96 3c
       -0.46910787 0.21980746 -0.14826861 0.018354451
0002f0 d3 94 d0 bd 69 2e e6 3c 06 b8 83 3d d7 61 f7 bd
       -0.10184636 0.028098302 0.06431584 -0.12079208
000300 52 d3 3a be 3a 48 6a 3d 26 01 02 3e 4e 58 0c 3e
       -0.18244675 0.057197787 0.1269575 0.1370556
000310 d5 29 10 bd 57 7c bc 3c 86 ad 97 be f0 8c 59 be
       -0.035196144 0.023008509 -0.29624575 -0.2124517
000320 76 d0 d2 be 69 c2 3b bd e5 50 d3 3d 25 3f 88 3e
       -0.41174668 -0.0458397 0.10318164 0.26610675
000330 fd 03 8d 3c 95 4c 7e be ce 71 b2 3e 0a 0d 62 3e
       0.017213816 -0.24833901 0.3485245 0.22075287
000340 40 98 30 3e f2 5c 92 bb cd c2 ca bd d4 8f 07 3b
       0.17245579 -0.0044666464 -0.099004366 0.0020685093
000350 a5 58 d0 3e f3 04 82 3d ef cd e0 bd 7d f2 a5 bd
       0.4069263 0.063486 -0.10976779 -0.081028916
000360 21 da c0 bd 07 18 27 bd 29 9c 1b 3e 3b 3b 04 3e
       -0.09416605 -0.0407944 0.15196289 0.1291322
000370 e4 f6 b9 bd 6a 0c d4 3e 39 4f 5c 3e 02 02 a1 3d
       -0.09080294 0.4141572 0.21514596 0.07861711
000380 37 40 97 be 0b f1 88 3d 41 3e c9 bc 80 d9 1a be
       -0.2954118 0.066866 -0.024565818 -0.15122032
000390 38 71 d9 3d 6a 47 24 3d 3f 4a 11 3e 28 43 45 bd
       0.10617298 0.04010717 0.14188479 -0.04815975
0003a0 67 c0 56 3b 83 a9 9b 3d 87 92 8d be 4e 8c 23 3d
       0.003276849 0.07600691 -0.27650854 0.039928727
0003b0 66 bf f4 3c 44 a9 06 3e 6e b2 2b 3e 06 10 01 3d
       0.029876422 0.13150507 0.16767284 0.03150942
0003c0 9f e3 35 be 27 87 99 3d 77 fd 8f 3d d7 a1 07 3e
       -0.17762612 0.074964814 0.070307665 0.13245331
0003d0 38 40 f2 3d 80 11 c1 3d ff 94 96 3e 3a 93 7c be
       0.11828655 0.09427166 0.2941055 -0.24665537
0003e0 94 c9 2f 3e 9d 11 10 3e a1 cd aa bd f5 4a 3b bc
       0.1716674 0.14069219 -0.08340002 -0.011431445
0003f0 b8 b1 27 bd 81 f2 d9 bb 6b ff 10 be 8c b8 8e 3e
       -0.04094097 -0.006651223 -0.14159934 0.27875173

policy.mlp_extractor.policy_net.0.bias f4 [64]
000000 00 00 00 00 00 00 00 00 00 00 00 00 00 00 00 00
       0.0 0.0 0.0 0.0
000010 c0 07 04 b8 00 00 00 00 00 00 00 00 00 00 00 00
       -3.147847e-05 0.0 0.0 0.0
000020 00 00 00 00 29 6f a5 30 00 00 00 00 00 00 00 00
       0.0 1.2036924e-09 0.0 0.0
000030 00 00 00 00 34 73 6a 38 00 00 00 00 00 00 00 00
       0.0 5.589724e-05 0.0 0.0
000040 00 00 00 00 17 89 5e 39 00 00 00 00 00 00 00 00
       0.0 0.0002122264 0.0 0.0
000050 d4 62 09 39 00 00 00 00 00 00 00 00 00 00 00 00
       0.00013102154 0.0 0.0 0.0
000060 a6 19 ba b8 00 00 00 00 00 00 00 00 00 00 00 00
       -8.8739485e-05 0.0 0.0 0.0
000070 00 00 00 00 00 00 00 00 00 00 00 00 00 00 00 00
       0.0 0.0 0.0 0.0
000080 56 2e 49 b2 00 00 00 00 00 00 00 00 00 00 00 00
       -1.1710275e-08 0.0 0.0 0.0
000090 00 00 00 00 00 00 00 00 00 00 00 00 1c 31 4c b7
       0.0 0.0 0.0 -1.2170782e-05
0000a0 00 00 00 00 00 00 00 00 00 00 00 00 a3 08 26 39
       0.0 0.0 0.0 0.00015834211
0000b0 00 00 00 00 00 00 00 00 00 00 00 00 00 00 00 00
       0.0 0.0 0.0 0.0
0000c0 00 00 00 00 d9 d2 e0 33 00 00 00 00 00 00 00 00
       0.0 1.0469166e-07 0.0 0.0
0000d0 00 00 00 00 00 00 00 00 b2 4a 4c b5 00 00 00 00
       0.0 0.0 -7.610462e-07 0.0
0000e0 00 00 00 00 00 00 00 00 00 00 00 00 00 00 00 00
       0.0 0.0 0.0 0.0
0000f0 00 00 00 00 00 00 00 00 00 00 00 00 c9 58 95 39
       0.0 0.0 0.0 0.00028485645

policy.mlp_extractor.policy_net.2.weight f4 [64, 64]
000000 fa 73 e5 bd 8e 77 44 be 7e 55 8b be 38 3c 8b 3e
       -0.112037614 -0.19186231 -0.27213663 0.2719438
000010 e4 ac 72 bc 48 0e 1c bf 21 97 3a bd 47 2c ba 3b
       -0.014811728 -0.6095929 -0.045554284 0.005681548
000020 df 6e 8e 3d 7b ea 4b 3d f0 f0 ff 3d 19 4c db bd
       0.06954741 0.049784165 0.12497127 -0.10707874
000030 cb da 09 3d b5 ce 7f bd a8 0d d1 3d c3 92 76 3d
       0.033655923 -0.06245299 0.10207683 0.060198557
000040 4f 77 2b bc 42 44 84 3b b5 6f 12 3e 8d 3c 59 3e
       -0.010465457 0.0040364573 0.14300425 0.21214505
000050 19 db d3 be df c5 51 bd 06 8b 00 be 0c 5c 36 be
       -0.41378096 -0.051214095 -0.12553033 -0.1780855
000060 c9 8a 8f 3e 1e 5f 36 3d 62 fb c0 3c 34 60 0f 3e
       0.28035572 0.044524305 0.023557369 0.14001542
000070 4e e3 45 bf e4 99 11 3e 8a 93 01 3e cf d6 2c bd
       -0.77299964 0.14218861 0.12653938 -0.042197045
000080 d8 78 a2 3e d7 fb 27 bf 81 d9 05 3e 6a 0f 8f be
       0.3173282 -0.6561865 0.13071252 -0.27941447
000090 83 6c ee 3d a1 51 3e 3e e1 04 5f 3e 4d ec 44 3f
       0.11641791 0.18585826 0.21779205 0.76923066
0000a0 93 d0 34 3d 52 40 32 3e a0 eb 0a 3e 2e fe 11 be
       0.044144224 0.17407349 0.13566446 -0.14257118
0000b0 1c bb 03 be 86 6d 0b 3f 5f 81 79 3d 2f b7 14 3d
       -0.12864345 0.54463995 0.060914394 0.03630751
0000c0 dd 9b 70 3d d5 61 61 be f7 7e 21 3d b8 26 a7 bd
       0.058742393 -0.22009976 0.039427724 -0.08161682
0000d0 08 56 55 3d 46 7d 7f 3e 55 71 d1 3e 66 dd 83 be
       0.052084 0.24950132 0.40906778 -0.2575485
0000e0 45 a9 9a be 23 16 ef bd 5e 60 fd 3d d6 a2 86 be
       -0.30207267 -0.11674144 0.12371896 -0.2629611
0000f0 56 d2 c0 be 48 7c a8 3e 5f a6 3b be c9 bc e0 be
       -0.37660474 0.3290732 -0.18325184 -0.43894032
000100 91 38 85 3e ff db b6 be 35 59 16 3e 11 2b e2 bd
       0.2601972 -0.3571472 0.14682467 -0.110433705
000110 df 6b 9b be d8 8c 28 be 4e 30 84 be 28 5e 31 3c
       -0.30355737 -0.16459978 -0.25818104 0.010825671
000120 16 fd c7 3d e9 a0 13 3e 02 c6 dc 3e e7 47 1d 3e
       0.09765069 0.14416851 0.43119818 0.1535946
000130 f9 7d c3 bd c6 8c 61 ba 72 ae 65 3e 96 53 dc bd
       -0.09545512 -0.0008604046 0.22429827 -0.1075813
000140 79 ea 28 3d ce c4 8a 3e 5b 94 90 be ab f2 92 bd
       0.041239236 0.27103275 -0.28238186 -0.071751915
000150 4c 89 87 be 91 b6 8f 3d 7f e7 5a 3e bb e1 9f 3e
       -0.26471937 0.07017244 0.21377371 0.31226906
000160 c7 07 36 bf 24 86 ed 3c fe df 8e be 78 eb fd 3d
       -0.7110562 0.028994627 -0.27905267 0.12398428
000170 3d 36 cb 3e 79 90 54 bd 67 61 41 be bd e9 49 be
       0.39689818 -0.051895592 -0.18884812 -0.1971807
000180 b1 5a a6 be f0 5d 48 be 34 76 84 be e1 88 ea bd
       -0.32491067 -0.19567084 -0.25871432 -0.11451889
000190 bb 03 6d 3e 0e 82 84 3c 34 5f 1a 3d b8 51 72 3e
       0.23145954 0.016175296 0.03768845 0.23663986
0001a0 d5 45 5d bd 12 c1 45 bd a4 ea c4 3a eb c3 37 3e
       -0.054021675 -0.04827983 0.0015023542 0.1794583
0001b0 c1 48 2c bd cf 8a 8e 3e 34 a2 32 be d5 14 36 bd
       -0.04206157 0.27840278 -0.17444688 -0.04445346
0001c0 30 61 18 3c 9c 36 f7 3d be 1c 88 3e 54 36 11 3f
       0.009300515 0.12070963 0.2658443 0.56723523
0001d0 f4 e5 44 3e 4d 51 01 3e 10 09 54 3e ec 2a f9 bd
       0.19228345 0.1262867 0.20706582 -0.1216639
0001e0 c9 7c 15 3e d0 8f 56 3d 34 fc 98 3d 52 94 1e bc
       0.14598383 0.052383244 0.07469979 -0.009678917
0001f0 ad 3b d4 be 9e 47 45 be 9f c3 ed 3d 30 c3 a1 be
       -0.4145178 -0.19265601 0.116095774 -0.3159423
000200 14 b6 28 be fd 37 1d be bf 67 f0 bd e0 cb 02 be
       -0.16475707 -0.15353389 -0.11738538 -0.12773085
000210 bc b3 34 bd 96 fb 1f 3e f7 e6 cd 3d b2 0f 93 3e
       -0.04411672 0.15623316 0.10053819 0.28722912
000220 f9 b4 5f 3d 2a c0 a3 bd 5c 86 ab 3d 6d c0 2a bd
       0.05461595 -0.07995637 0.083752364 -0.041687418
000230 48 32 56 3d 91 69 11 3f f2 a0 12 be e8 4a 81 3e
       0.052294046 0.56801707 -0.14319208 0.2525246
000240 ea d0 80 3e dd 7f 42 be 1a 2a 95 3d 2b d5 13 3e
       0.2515939 -0.18994088 0.07283421 0.14436786
000250 aa ac 8b 3d fc a7 68 be 67 58 e6 3d f3 15 65 be
       0.068200424 -0.22720331 0.1124733 -0.22371654
000260 11 7d db 3c 3e 7f 37 3e bf 63 99 be 72 0a 1c be
       0.026793035 0.17919633 -0.29958913 -0.1523836
000270 ea 03 37 bd 86 f8 17 be 07 04 f1 3d ec 20 90 be
       -0.044681467 -0.14840898 0.11768346 -0.28150117
000280 79 07 92 3e d4 9a 0f be 75 04 ec 3c fc de aa bd
       0.28521326 -0.14023906 0.028810719 -0.08343312
000290 55 60 cb bd d1 4b f2 bc 21 4d 3e 3f e7 24 ea 3e
       -0.09930483 -0.029577168 0.7433644 0.4573128
0002a0 52 eb 3d be 3e 99 e5 bd d2 0b 02 3e 43 85 6d 3e
       -0.18546799 -0.11210869 0.12699822 0.23195367
0002b0 5c a3 c3 3e 86 da cb be fe f6 ad 3d 04 26 94 3d
       0.3821057 -0.39815158 0.08494376 0.072338134
0002c0 7f a0 09 3e f5 96 0f bf a3 2c 65 bc ac da 1f 3e
       0.1344013 -0.5608972 -0.013987693 0.1561076
0002d0 22 62 a8 3b e8 71 11 be 81 34 17 3e 3a 89 d1 3d
       0.0051386515 -0.14203608 0.14766122 0.10231252
0002e0 46 0d 6a be bc 4a 8e bd 53 69 e8 be 5e 43 a4 3d
       -0.22856626 -0.06947848 -0.45392856 0.08020662
0002f0 71 20 10 be 71 e3 ab be fc fa 16 bd 9c 49 7c be
       -0.14074875 -0.33571962 -0.03686045 -0.24637455
000300 e8 01 ad be db 21 de 3b 2d 64 6c be 19 14 fa 3d
       -0.33790517 0.006778938 -0.23085089 0.122108646
000310 b5 dc bf 3e bd 95 06 bf 34 cf 0a be 4d e6 08 be
       0.37473074 -0.5257223 -0.13555604 -0.13369103
000320 91 8c 6d 3e 3c 46 8b be 05 77 49 be 11 c3 86 be
       0.23198153 -0.27202022 -0.19674309 -0.263207
000330 1b 03 13 bd e7 03 4b 3e 7f e0 cc bd a5 cb 48 3e
       -0.035891633 0.19825707 -0.10003757 0.19608934
000340 66 0d 2e be ef c5 ad 3d 2f 02 9d bd 42 88 a3 3c
       -0.16997299 0.084850185 -0.07666432 0.019962434
000350 cf d2 89 be d8 09 50 be 85 29 22 3e c5 4e 3a be
       -0.26918647 -0.20316255 0.15836151 -0.1819411
000360 4f e4 c4 be 2a de d4 3e 09 85 f8 bd eb a2 03 3d
       -0.38455436 0.41575748 -0.121347494 0.032137793
000370 1e eb 31 bd f6 e3 18 bc 7d 0b cd 3e 27 d1 04 3d
       -0.043437116 -0.009331694 0.40047827 0.032426026
000380 5d d3 29 bf b3 51 b4 3e 25 a7 e1 bd cb c4 d8 3d
       -0.6633814 0.35218582 -0.110182084 0.1058441
000390 9d af 88 bc f2 89 bf bd 3a c2 77 be 6d de 8d 3d
       -0.016685301 -0.09352483 -0.24195185 0.0692719
0003a0 56 d1 6f bd 3f d0 7a be 6e 34 3c 3e f7 4f 23 3e
       -0.058549248 -0.24493502 0.18379375 0.15948473
0003b0 c2 f1 32 bd 08 65 b5 3e 1c 8b 3c be d5 84 96 be
       -0.04368759 0.35428643 -0.18412441 -0.29398218
0003c0 89 56 53 3e 5e 2f 0c bf 0b cb ac bc 5f 3e 1f be
       0.2063848 -0.54759777 -0.021092912 -0.15551136
0003d0 3a 7d 0f be 08 4e f6 bd 35 90 a4 be 2a d0 ce 3d
       -0.14012614 -0.12026602 -0.3214127 0.10098298
0003e0 ad a4 87 3e ea a8 b4 3d 9c ea 93 3d 49 d9 61 3e
       0.26492825 0.0882128 0.072224826 0.22055544
0003f0 56 94 1c bd c5 7b c1 3c 85 6f a7 3e 66 1c d6 3d
       -0.0382274 0.023618588 0.3270227 0.10454635

policy.mlp_extractor.policy_net.2.bias f4 [64]
000000 51 9f 15 bd e2 20 00 3d 81 f7 08 bd 21 47 98 3c
       -0.03652889 0.03128136 -0.033439163 0.018588604
000010 88 18 28 3c 6f ce ed 3c 3c f0 95 3c b9 5e a7 ba
       0.010259755 0.0290291 0.01830303 -0.0012769318
000020 d6 fb 47 bc 07 ab a4 3d 4b 4d e0 3c 0f 5c 2c 3d
       -0.012206038 0.080404334 0.027380606 0.04207998
000030 39 fc fa 3c 64 c8 2c bd f0 ce 89 bd a0 ad ae 3c
       0.030637847 -0.042183295 -0.06728923 0.021323025
000040 b6 e5 0a 3d f5 2b 39 3c 5d 1a 42 3a a3 3f 31 3c
       0.033910476 0.011301984 0.0007404441 0.010818395
000050 38 08 2a 3c f7 b2 cb bb 9d bf da bc d7 17 97 3c
       0.010377936 -0.0062164026 -0.026702696 0.018443985
000060 d1 3b 21 3d 03 2d 06 3c 53 8e ad 3a 4c f4 c8 b9
       0.039363686 0.008189443 0.0013241268 -0.00038328988
000070 79 b8 44 bd 4a f3 22 bc 53 72 9b 3c c9 10 40 3d
       -0.04802749 -0.0099457 0.018975412 0.046891008
000080 7e b0 03 bd 25 82 0c bd 51 5f 1b 3c ce f9 af bb
       -0.032150738 -0.034303803 0.009483174 -0.005370355
000090 73 ae ae bc 0e 45 ba bc 67 fd 02 bd 63 1b f2 3c
       -0.021323418 -0.022738006 -0.031979945 0.029554075
0000a0 3a 70 d4 bb bf 1c 6c bc a7 d3 00 bd ff 3f b4 3b
       -0.006483105 -0.0144111505 -0.031451847 0.005500793
0000b0 86 bf d8 3c b9 d0 7b 3b 41 09 70 3c bf 7d 3b bd
       0.026458513 0.003842397 0.014650644 -0.045774218
0000c0 69 bd 23 bd 69 58 d1 3d c8 5b 5e 3b 5e f3 65 bb
       -0.039975557 0.10221941 0.0033929218 -0.0035087685
0000d0 da 4b 5a bb be a0 ac 3c 35 6e 6b 3d 22 e2 33 3d
       -0.0033309371 0.021072742 0.05747815 0.04391683
0000e0 c0 fc 9c 3c e3 dd d9 3c 47 0c 03 bd 07 36 64 3c
       0.01916349 0.026595062 -0.03199413 0.013928897
0000f0 01 75 92 ba cf 37 24 bb aa 51 4f 3d 5d 06 3f 3b
       -0.0011173786 -0.0025057679 0.05061499 0.002914808

policy.mlp_extractor.value_net.0.weight f4 [64, 60]
000000 7c 3c 12 be 51 9d 6a be 65 f6 27 3e b0 55 bb be
       -0.14280885 -0.22911574 0.16402586 -0.36588812
000010 06 13 fb bc fa e6 80 3e 92 f2 06 3e eb 26 14 3d
       -0.03064872 0.2517622 0.1317847 0.036169928
000020 15 45 7b 3e 92 8c 0a be 42 82 b9 be 9d 70 0a be
       0.24538071 -0.13530186 -0.3623219 -0.13519521
000030 37 7a 88 3d 7c ab 46 3e 0d 66 f7 bb 88 b4 8f bd
       0.06663936 0.19401354 -0.007550007 -0.070168555
000040 f5 2f 95 3e dd c4 17 be 5d 40 3b 3d 3e aa 7d 3d
       0.2913815 -0.14821191 0.04571568 0.061929934
000050 73 5d 69 bd 08 18 60 3e 6b 3d 63 be f7 b9 23 3e
       -0.056973886 0.21884167 -0.22191398 0.15988909
000060 ff 2d 49 bc 52 a7 22 3d 22 59 e0 bc c0 8a b1 3e
       -0.012279033 0.03971035 -0.027386252 0.3467617
000070 98 64 62 3c 8a 7b 5d bc 3e 7c c9 bd 45 f1 82 3d
       0.013817929 -0.013518224 -0.098381504 0.06393675
000080 1e ef ff bb e6 82 93 3e ab 31 f4 bd 2f 66 99 3d
       -0.0078104874 0.28810805 -0.11923536 0.07490193
000090 6a df e1 bd 49 f7 1b 3e 0a 44 93 3d e9 47 13 3e
       -0.11028941 0.1523105 0.07190712 0.143829
0000a0 af e6 d8 be 58 73 67 bd 3d 48 4f 3e ac 48 56 bc
       -0.42363498 -0.056506485 0.202424 -0.01307885
0000b0 3b c2 4b be 5f c3 e5 3d 9b 7a 09 3e 1e 3f c0 3d
       -0.19898312 0.11218905 0.13425677 0.09387039
0000c0 ee ea 71 bd 62 89 b8 3d a5 93 9d 3d 24 bb 20 3c
       -0.059061937 0.09010579 0.076941766 0.009810243
0000d0 8f ce c7 3d 23 0d 8c 3d 8b f2 a5 3e f2 ec a1 be
       0.09756195 0.06838443 0.32411608 -0.31626087
0000e0 17 73 a2 bd 12 c6 6e be d6 ac d6 bc a3 15 1a 3d
       -0.07932108 -0.23317745 -0.026205461 0.03761829
0000f0 9c 08 1f 3d 58 3c 53 3d ab 0a de bb 4d 26 23 be
       0.03882657 0.05157122 -0.006776174 -0.1593258
000100 1d 73 40 bd f0 bf 38 be df fa 47 3e b2 30 05 be
       -0.04698478 -0.18041968 0.19529293 -0.13006857
000110 34 20 6c 3e af 99 b2 3e 91 b9 bd bd f9 02 fa bd
       0.2305916 0.34882876 -0.092639096 -0.12207598
000120 91 2d 82 3d a8 d1 92 3e 52 19 1d 3e 25 4f a3 3e
       0.06356347 0.2867558 0.1534169 0.3189632
000130 8c 8f 9a bd f7 0a 2f 3e 56 56 ae 3e 9b 46 a5 3d
       -0.07546911 0.17094027 0.34050244 0.080701075
000140 9f ed 52 be ed 11 63 be 8f 81 91 3d 6d 25 e0 3d
       -0.20598458 -0.22174807 0.071047895 0.109446384
000150 23 f9 7a 3e f8 3c 31 3e d6 3b 0c be ae 8a 80 3e
       0.245091 0.17308414 -0.136947 0.25105804
000160 7b 6c db bd 02 8f b1 bd 39 d7 08 3e 5c 31 46 3e
       -0.107140504 -0.08669855 0.13363351 0.19354767
000170 ed de 38 3b fc a5 92 3c 56 3e 33 3e c5 85 8e bd
       0.0028209046 0.017901413 0.17504248 -0.06959108
000180 c4 2d 12 be 1e 9e 85 be 54 5b 9c be 70 81 69 3e
       -0.1427527 -0.26097196 -0.30538428 0.22803283
000190 0f 67 3f be a8 24 b4 3e a3 d3 91 3d d7 76 56 3d
       -0.18691657 0.35184216 0.071204446 0.05235943
0001a0 30 81 4f 3e a7 d9 94 bd a4 94 27 3d 07 c5 b3 3e
       0.20264125 -0.072680764 0.04091324 0.35111257
0001b0 af 64 41 bd ce 0d 25 bb b7 5a 4b be bd 4a 51 be
       -0.04721516 -0.002518523 -0.19858824 -0.20438667
0001c0 7b a8 a3 3c 95 8c b5 3d 67 bf 93 3d a7 fd 76 3e
       0.019977799 0.088647045 0.072142415 0.24120198
0001d0 bc 2a f2 bd 86 88 3c 3e 30 57 a8 3e d9 57 9b bd
       -0.11824557 0.18411455 0.3287902 -0.07585115
0001e0 c4 ba 54 3e ed f3 42 be d0 f6 c4 3d 65 20 50 3d
       0.2077437 -0.19038363 0.09617388 0.050812144
0001f0 c5 9b 40 3d 62 b5 69 3e b9 e3 13 3e a5 8a 4e be
       0.047023553 0.22823098 0.14442338 -0.20170076
000200 c5 75 52 be 66 b3 69 be 8a e7 be 3e 2f bd 5f 3d
       -0.20552738 -0.22822341 0.37286025 0.05462378
000210 d3 15 ec 3d 18 ac 5f bd 9c 73 9b 3e cf 30 c4 3e
       0.115276 -0.05460748 0.3036164 0.38318488
000220 15 ce f6 bc 78 a9 09 3d be 9c 3c 3e 6f b9 e5 3d
       -0.030127564 0.033608884 0.18419167 0.11217009
000230 9e 6d 85 3e 0b 0b 26 bc 12 65 98 bb 7d 62 0e be
       0.26060194 -0.010134469 -0.0046507204 -0.13904758
000240 e6 00 54 be 50 a0 8e bd 00 1a 54 bd 14 46 00 3e
       -0.20703468 -0.06964171 -0.051782608 0.12526733
000250 3c 20 13 bd 0d 64 93 3d f3 12 b7 3d c3 1d 1c bb
       -0.035919413 0.071968175 0.08939161 -0.002382145
000260 4c 63 7f 3c 42 e5 f5 3e bc 6b cb bd 9f dc 2c 3e
       0.015587639 0.48026472 -0.09932658 0.16881035
000270 7b 89 c3 bd 55 ee 2b bd bf 13 04 3c 9b bc e0 bd
       -0.09547707 -0.041975338 0.008061348 -0.10973474
000280 49 1d 94 bc 8f 30 c9 bd 84 52 ec 3d d6 6a 41 be
       -0.01808037 -0.09823715 0.11539176 -0.18888411
000290 f9 42 bb 3e 31 e8 8b bd ee 78 45 3e e7 3c 20 bd
       0.36574534 -0.06831396 0.19284412 -0.03912058
0002a0 42 4a bf be 27 9d c0 bc 3a eb c0 3e e2 9f 20 be
       -0.37361342 -0.023512436 0.37679464 -0.1568599
0002b0 0e cc ae bd 79 56 0c 3e 58 91 88 be ce 24 e4 bb
       -0.08535014 0.13704862 -0.26673388 -0.0069623953
0002c0 fa e9 a7 3d 47 65 35 3e dd 3b 66 3d 15 ae 3d be
       0.08198924 0.17714415 0.056209434 -0.18523438
0002d0 b0 ed 62 be 26 f9 a9 3e 20 35 93 be 54 c0 20 3e
       -0.22160983 0.33197898 -0.2875147 0.15698367
0002e0 2b 97 91 be c6 2e 5f 3e 1e e3 ba bd a9 b8 80 3e
       -0.28435645 0.21795186 -0.091253504 0.25140885
0002f0 52 75 c4 3d 9e 9b 61 3e 30 c3 dd bd 0c 1f 88 3e
       0.095926896 0.2203202 -0.10828245 0.26586187
000300 a4 a6 84 bd ff 92 30 3e 05 b5 df bd 08 58 8b 3c
       -0.06477097 0.17243575 -0.109231986 0.01700975
000310 b8 2f 74 3e c6 b1 ee bd e5 d5 18 3e 5b 0d 94 3e
       0.23846328 -0.11655001 0.14925344 0.2891644
000320 64 11 16 3d 2a 93 9e 3e 6d 20 9a 3e df ab 75 3d
       0.03663768 0.30971652 0.30102864 0.059978362
000330 a6 7e 55 bd 42 25 1d 3d be 52 ad 3e ba ed d5 3d
       -0.052122734 0.03836561 0.3385219 0.10445733
000340 08 8f 11 be af 98 0d 3d ae 09 a9 3e cb 50 46 3d
       -0.14214718 0.03456944 0.33015198 0.048416894
000350 dd 99 60 be 84 c9 b6 3e c5 f3 8b 3c 17 da cc 3c
       -0.21933694 0.3570062 0.017084012 0.025006337
000360 65 52 08 be 5f 2b 26 3e e7 a7 02 bb 06 28 be bd
       -0.13312681 0.16227482 -0.0019936503 -0.092849776
000370 71 f1 14 3d 55 4e 52 bd da 13 4a 3e 8e 34 4b 3d
       0.03636307 -0.051344234 0.19734135 0.049610667
000380 09 b9 2f be 64 56 06 3c c3 9e 9f bd 39 9e a5 bc
       -0.17160429 0.008199308 -0.07793953 -0.020217048
000390 e6 09 99 bd 91 e5 29 3c 33 9c 09 3d f5 7a 23 bd
       -0.07472591 0.010369674 0.03359623 -0.039912183
0003a0 c1 7a 1d 3e 2b d1 ba 3d 18 d9 96 bd 07 30 6d bd
       0.15378858 0.09121927 -0.07365626 -0.05790713
0003b0 a5 04 84 3e 77 5b 30 3e 45 2c 7c 3d 24 8f 4b 3e
       0.25784793 0.17222391 0.061565656 0.19878823
0003c0 23 75 cf b9 b9 b1 27 be 7f 2a 8a be 41 4a 1f 3e
       -0.0003956939 -0.1637639 -0.26985547 0.1555567
0003d0 57 62 55 3e af 2c d2 3c c4 cf 3c bd 9f 9c c2 bc
       0.20838295 0.025656072 -0.04609658 -0.023756323
0003e0 1a a5 23 be 44 e9 68 bc 1e ba 0a be 8a ca 03 3a
       -0.1598095 -0.014215771 -0.1354756 0.0005027434
0003f0 de 79 d5 3c 33 11 e7 3e 55 ae fd 3d 25 0e 6e 3e
       0.026059087 0.4513031 0.12386767 0.23247583

policy.mlp_extractor.value_net.0.bias f4 [64]
000000 e5 e8 51 ad 00 00 00 00 00 00 00 00 e6 73 57 b7
       -1.19319875e-11 0.0 0.0 -1.2841983e-05
000010 00 00 00 00 00 00 00 00 00 00 00 00 00 00 00 00
       0.0 0.0 0.0 0.0
000020 00 00 00 00 00 00 00 00 00 00 00 00 00 00 00 00
       0.0 0.0 0.0 0.0
000030 00 00 00 00 00 00 00 00 00 00 00 00 00 00 00 00
       0.0 0.0 0.0 0.0
000040 00 00 00 00 00 00 00 00 00 00 00 00 00 00 00 00
       0.0 0.0 0.0 0.0
000050 00 00 00 00 00 00 00 00 00 00 00 00 00 00 00 00
       0.0 0.0 0.0 0.0
000060 00 00 00 00 00 00 00 00 00 00 00 00 00 00 00 00
       0.0 0.0 0.0 0.0
000070 e1 82 3e b6 00 00 00 00 00 00 00 00 00 00 00 00
       -2.8388388e-06 0.0 0.0 0.0
000080 00 00 00 00 00 00 00 00 00 00 00 00 00 00 00 00
       0.0 0.0 0.0 0.0
000090 00 00 00 00 07 40 9d 2e 00 00 00 00 00 00 00 00
       0.0 7.150907e-11 0.0 0.0
0000a0 5b 24 5f b8 00 00 00 00 00 00 00 00 8f 03 3e b8
       -5.32012e-05 0.0 0.0 -4.5302844e-05
0000b0 00 00 00 00 00 00 00 00 00 00 00 00 00 00 00 00
       0.0 0.0 0.0 0.0
0000c0 dd a4 62 b1 00 00 00 00 00 00 00 00 00 00 00 00
       -3.2981042e-09 0.0 0.0 0.0
0000d0 00 00 00 00 00 00 00 00 00 00 00 00 00 00 00 00
       0.0 0.0 0.0 0.0
0000e0 00 00 00 00 00 00 00 00 00 00 00 00 06 a7 3b 36
       0.0 0.0 0.0 2.7962392e-06
0000f0 73 98 94 38 00 00 00 00 00 00 00 00 00 00 00 00
       7.085586e-05 0.0 0.0 0.0

policy.mlp_extractor.value_net.2.weight f4 [64, 64]
000000 19 3f 8c be 2f 56 05 bd 6d 7e 39 bd e4 09 c7 3d
       -0.2739189 -0.032552894 -0.045286585 0.09718683
000010 35 1b dd be 40 c3 6d be 57 6a 75 be b2 34 0d be
       -0.4318482 -0.23219013 -0.23966347 -0.13789633
000020 aa fb 5e 3e 86 28 fe 3d 5c c3 38 bc ec fc f0 3d
       0.2177569 0.12410073 -0.011277046 0.11766991
000030 d8 55 6e be 1e 7a 5e 3d 3c 6b 67 bd 83 95 52 be
       -0.23274934 0.05431568 -0.05649875 -0.20564847
000040 73 70 fd bd 1c 70 2a be 06 ab 2a be 5f 75 b6 be
       -0.123749636 -0.16644329 -0.16666803 -0.35636422
000050 d4 d3 87 be c4 75 77 3e 13 26 f3 bd 1b bc d9 3d
       -0.265288 0.24166018 -0.118724965 0.106315814
000060 b7 9a 61 3e 3f 08 ad 3d 34 d2 aa bd 04 f0 93 be
       0.22031675 0.084488384 -0.08340874 -0.28894055
000070 4e 32 0e 3e 3f 1b 69 bd 6c dc 92 bc 11 f1 d7 be
       0.13886377 -0.05691075 -0.017927371 -0.42176107
000080 2f ad 26 bd 7d 8a 2b 3b 20 d7 d5 3d 06 07 63 bd
       -0.040692504 0.0026175075 0.104414225 -0.05542662
000090 5e d9 0f 3e b5 82 d6 3e d5 0f 86 bb d3 27 76 3e
       0.14047763 0.41896597 -0.004091243 0.24038629
0000a0 5b 4d af 3d 5b ed 03 be 3e bd 35 be 6e ad 3f 3e
       0.08559676 -0.12883513 -0.17747971 0.18718502
0000b0 18 f4 f7 bc 7e 99 2c be 27 d3 12 be 7e 8a 2b 3e
       -0.03026776 -0.16855428 -0.1433836 0.1675205
0000c0 a0 d7 0a be 96 6a 27 3e 8c 33 7e 3e 53 a0 b3 bd
       -0.13558817 0.16349253 0.24824351 -0.08770814
0000d0 03 a2 45 be 2f 5e da 3d 71 7a 13 be 01 07 bf 3d
       -0.19300084 0.10662495 -0.14402176 0.09327508
0000e0 86 86 9f bd 1c 3f 21 be dc 54 41 be a6 df 9b be
       -0.0778933 -0.1574673 -0.18880028 -0.30444068
0000f0 2a 5e 06 bf c9 70 4d be 73 e5 36 bc ca 85 71 3e
       -0.5248743 -0.20062555 -0.011163103 0.23586193
000100 f7 61 0e 3d 23 ca c8 bd bf 1a 91 be 80 99 04 3e
       0.034761395 -0.098041795 -0.28340718 0.1294918
000110 27 f2 f4 bd c4 82 9a 3e db 6d 1d 3c 08 46 07 3d
       -0.119602494 0.3017789 0.009608711 0.03302577
000120 85 ec e5 3b e6 84 b1 3d bd a2 d4 3d a9 b5 8a ba
       0.0070167207 0.086679265 0.10382602 -0.0010582703
000130 b8 c8 4f 3e 3c c0 6e bd 57 13 f2 bd d7 43 33 be
       0.20291412 -0.058288798 -0.11820095 -0.17506348
000140 b5 1e cc 3d 95 bf 15 3e d1 90 50 3e 9e 44 c8 bd
       0.099667944 0.14623864 0.20367743 -0.09778713
000150 91 c1 38 be ce 0f 94 3d 15 79 3f bd 01 25 04 3e
       -0.1804259 0.07229577 -0.046746332 0.12904741
000160 e6 96 3b bc b0 44 dc be 57 e1 dd be a3 1f fa 3d
       -0.011449551 -0.43021154 -0.43335983 0.122130655
000170 fe 7f 33 bd 4c 01 e5 bd 6e 53 62 be e2 ce 6c 3e
       -0.043823235 -0.11181888 -0.22102138 0.23125795
000180 00 68 69 3d 88 f8 13 3e db 79 c4 3d 66 d2 22 3e
       0.056983948 0.14450276 0.095935546 0.15900573
000190 eb 86 96 bd f2 fe 36 3d 81 e1 50 3e 9c 1e ab 3d
       -0.07349952 0.04467673 0.20398523 0.08355448
0001a0 4f 29 7a be c3 55 74 bb 1b b3 9d 3e 2e bc a3 be
       -0.2442982 -0.0037282563 0.3080071 -0.31979507
0001b0 aa 2e 15 bf 3f 58 08 3e f1 f0 12 be e7 c8 3a be
       -0.5827433 0.13314913 -0.14349724 -0.182407
0001c0 f4 77 1d be aa a4 26 bd 60 1c e4 3d 42 56 28 bc
       -0.1537779 -0.04068438 0.111382246 -0.010274472
0001d0 62 c5 0a be d5 a5 9b bd e5 d4 00 be 0c d4 2a 3e
       -0.13551858 -0.07599989 -0.12581213 0.16682452
0001e0 31 cd b2 3e db c5 53 bd 0e b4 25 bd 69 85 8e be
       0.34922174 -0.05170236 -0.040454917 -0.2783616
0001f0 4d 64 88 3e 2a 2c 9d bd 06 fa 74 3d 0d ca ad bd
       0.26639023 -0.07674439 0.059808753 -0.08485804
000200 bc 4d 1e 3d 1e 06 be 3d 47 b1 9d 3e 84 2a f5 3c
       0.038648352 0.092785105 0.30799314 0.0299275
000210 c3 94 23 bd 57 c6 8a be fc 77 ac bd ef 45 0f 3e
       -0.039936792 -0.27104446 -0.08421323 0.13991521
000220 e5 05 c9 3d f8 8d 39 3e dc c3 0a 3e 80 aa 05 3e
       0.098155774 0.18120563 0.13551277 0.13053322
000230 bb 5e 16 bd 6e 79 bb bd b6 82 4d 3c da b2 29 3d
       -0.036711436 -0.0915402 0.012543371 0.04143033
000240 7d a6 da 3c bb 57 6e be ae 90 a0 bd 37 85 aa be
       0.026690716 -0.23275654 -0.078400955 -0.3330476
000250 40 1b 8d bc f7 30 68 3e 7a 6d 03 3d bd 06 99 3e
       -0.017224908 0.22674929 0.032086827 0.29887953
000260 ed 41 29 bc 2c 87 96 3e a2 3a cd 3e 60 63 5e 3e
       -0.010330659 0.29400003 0.40083796 0.21717596
000270 ec 58 81 bd c0 ef 6a 3e 32 1e ea 3d 63 0c 87 be
       -0.063157886 0.2294302 0.114315405 -0.26376638
000280 88 29 ac 3e 96 a6 ce be 60 74 6f bd 54 b2 67 3e
       0.33625436 -0.4036147 -0.058460593 0.2262662
000290 8e 1c bb 3d c5 12 94 3e df 59 84 bd 89 63 2a bc
       0.09136306 0.2892057 -0.06462454 -0.010399708
0002a0 30 98 46 be 8e 74 aa 3e 20 4f 81 3e 24 85 5d be
       -0.19393992 0.3329205 0.2525568 -0.2163282
0002b0 2b ab 57 be 76 58 ef 3d 9e c4 6a bc 43 de b7 be
       -0.21061389 0.116867945 -0.014329104 -0.3591176
0002c0 1b 53 80 3e 37 8d 8f be 38 cd 81 bd 3c 2c 39 3c
       0.25063404 -0.28037426 -0.063379705 0.01130205
0002d0 1a 75 db bd 61 6a 68 3e 6e ba 16 3e 01 1c 07 bd
       -0.10715695 0.2269683 0.14719555 -0.03298569
0002e0 a3 12 1c 3e 5e 0d 19 3d c2 f3 1e 3e f7 a4 2b be
       0.15241484 0.037366264 0.15522674 -0.16762148
0002f0 26 4b 05 be 5d a8 70 be 63 cf a8 bc 37 5b b5 3d
       -0.13016948 -0.23501725 -0.020606702 0.088552885
000300 a1 b5 c0 3d 44 41 4a bc 86 a8 90 3d 88 d0 c0 3d
       0.09409643 -0.012344662 0.07063393 0.09414774
000310 b0 89 ee bd 16 e8 03 be 66 69 a6 bd 38 ba 33 3e
       -0.116473556 -0.12881503 -0.08125572 0.17551506
000320 1a 05 14 bd b9 4a 4e bd ab 16 81 3e 04 fc d9 bd
       -0.036137678 -0.05036423 0.25212607 -0.10643771
000330 b8 c3 39 bd c7 1b 95 3d bd 68 67 bd 24 85 20 3e
       -0.045352668 0.07280689 -0.05649637 0.15675789
000340 8a 04 e1 3a c4 31 8f 3d f6 a0 6f 3e 8a 45 8f 3e
       0.001716749 0.06991914 0.23401245 0.27982742
000350 e1 6e 2d be 7f f6 21 be a7 45 13 3e 2b e4 c6 be
       -0.16936828 -0.15816687 0.14382039 -0.38845953
000360 d3 a0 8d bd bd 49 6f 3d 71 a7 95 bd 31 e2 cd ba
       -0.069154404 0.05841993 -0.073073275 -0.0015707669
000370 d5 e1 6a be ca 36 d9 be 50 69 18 3e d6 76 d1 bd
       -0.2293771 -0.42424613 0.14883924 -0.10227744
000380 19 97 ee 3e d3 96 db be de 41 63 3e 2f 7a 12 3e
       0.46599653 -0.42888507 0.22193095 0.14304422
000390 ed 3c 74 3e a1 75 92 3e 4e e5 64 be 4f c5 08 be
       0.23851366 0.2860537 -0.22353098 -0.13356517
0003a0 b4 98 04 3e dc 0f 99 be e3 ea 9b bd ac 97 21 3d
       0.12948877 -0.29894912 -0.076131605 0.039451286
0003b0 85 4b 15 bd e3 39 81 bc 72 f8 84 3e 9c 71 b1 bd
       -0.036448974 -0.015774673 0.259708 -0.086642474
0003c0 6b a4 35 3e 2e b3 51 be 4a 74 29 bd 82 2b 3f be
       0.17738502 -0.20478508 -0.041370668 -0.1866894
0003d0 c8 df c4 bd 12 31 61 be f8 5c e9 bd 05 77 15 3e
       -0.096129954 -0.21991375 -0.113946855 0.14596184
0003e0 e8 45 23 be 5f 5f 98 3d 94 b9 6a be bb c0 c8 be
       -0.15944636 0.074400656 -0.22922355 -0.39209542
0003f0 3f 4e 32 3e af c8 f8 3c 13 02 88 3d 46 6c 8f 3e
       0.17412661 0.03036913 0.066410206 0.28012294

policy.mlp_extractor.value_net.2.bias f4 [64]
000000 8c 2d dc bb 3d 14 bd bb f0 bb 5b bd c8 c9 89 bc
       -0.006719297 -0.005770235 -0.053646028 -0.01681985
000010 cd 8a 62 3c f1 aa b1 3c 28 76 d9 3c e4 19 34 3c
       0.013827038 0.021687957 0.0265456 0.010992501
000020 8c 96 8f 3c d7 38 aa bc 22 29 d7 3c cf ed 78 bc
       0.017527841 -0.020779056 0.02626473 -0.015193417
000030 d4 e0 19 3d 17 cf c3 bc 7d d1 3b bc b9 cd cf 3b
       0.03756793 -0.02390246 -0.01146352 0.0063416627
000040 f8 c4 6f bc 41 43 3f 3d a6 99 b2 3a c7 7f 73 bc
       -0.014634363 0.046694998 0.0013626113 -0.014862007
000050 45 3e 00 3d a1 16 8d bb a6 3c 36 3c fd b6 df 3c
       0.031309385 -0.004305676 0.011122858 0.027308935
000060 fa 32 e7 3c 2c 6a 98 3c b4 fe 1c 3b a4 8d 58 3c
       0.02822255 0.018605314 0.0023955526 0.0132173635
000070 50 b8 bc 3b 7e ab c9 3c e7 a1 cb bc 8d 1f 21 3b
       0.0057592764 0.024617907 -0.024857474 0.0024585456
000080 23 9b 7d 3c 16 d8 cf 3c e0 70 12 bd 6b 54 48 3c
       0.015478882 0.025371592 -0.035752177 0.012227158
000090 aa 4c 7c bc ec c9 13 bb d0 f6 f0 3c 7b 35 52 bb
       -0.0153991375 -0.0022550775 0.029414564 -0.0032075334
0000a0 40 95 15 3c 4e 4f f1 bc 49 99 f4 3b e9 b2 00 bd
       0.009129822 -0.02945676 0.007464562 -0.031420622
0000b0 da 4f 9d 3c c5 58 6a bc b5 94 57 3b 78 1c b2 bc
       0.019203115 -0.014303391 0.0032895033 -0.02174209
0000c0 c5 32 f5 bb 95 54 85 bc bc 48 6a 3d 4f a4 59 bc
       -0.007482859 -0.016275683 0.05719827 -0.013283803
0000d0 1f 50 96 3c 3d 06 c0 3c 65 d8 ac bb 3d b2 4d bd
       0.018348752 0.023440475 -0.0052748197 -0.05021881
0000e0 90 79 16 3d 53 ab 99 3c ec cf 28 bd de 9d 5d bc
       0.036737025 0.018758452 -0.041213915 -0.013526408
0000f0 00 f9 8e 3a f1 9f af 3b b6 ab b7 bc a4 f5 91 bc
       0.0010907948 0.0053596427 -0.022420745 -0.017817326

policy.action_net.weight f4 [2, 64]
000000 d5 82 6b be d3 bb ef 3d a5 9a dc 3d e1 86 8f be
       -0.22999127 0.117057465 0.107716836 -0.28032592
000010 2f 3a 7c bc da 07 a4 3d 92 6a 88 bc 29 d9 bf bd
       -0.015394731 0.0800931 -0.01665238 -0.09367592
000020 3f 8b 93 3d 29 bc 44 be 4b a2 0b be 79 d9 09 be
       0.072042935 -0.19212402 -0.13636129 -0.13461865
000030 88 74 08 3e 2f 83 94 3e 16 2b 8b 3d da 86 4a be
       0.13325703 0.29006335 0.06795327 -0.19778004
000040 33 9b 4a be 93 2d ce 3e e3 69 bb 3b f9 6b 08 3e
       -0.19785766 0.40269145 0.00571941 0.13322438
000050 0f 36 a3 3d f4 fd 17 be 46 31 32 3e a5 1a 10 be
       0.07969295 -0.14842969 0.17401609 -0.14072664
000060 5d db 88 bd 54 2d 70 3e a2 01 d2 3d 9b 57 75 3c
       -0.06682465 0.23454791 0.10254218 0.0149745
000070 8c aa 61 be 7a 11 bb bd c2 c0 16 3e a9 ff 74 3e
       -0.22037715 -0.09134193 0.14721969 0.23925652
000080 a2 e4 f2 3d 05 28 08 bd c8 da 0e bd 83 b2 08 bd
       0.118600145 -0.03324129 -0.034876615 -0.033373367
000090 e8 58 7f 3e 22 65 61 3e 89 ea 05 3e 24 75 13 be
       0.24936259 0.22011235 0.1307775 -0.14400154
0000a0 c2 5b 95 3d fc fb 2b be 75 4c 8b 3d a0 a5 35 be
       0.07292892 -0.16795343 0.068016924 -0.17738962
0000b0 fa 5e 2b be 5a 5d 03 be 4f d2 23 be d1 ec 14 3e
       -0.1673545 -0.1282858 -0.15998195 0.14543463
0000c0 90 0c f3 3d 23 3b ba bd 7c e6 b0 be bd 22 60 3e
       0.118676305 -0.09093311 -0.34550846 0.21888252
0000d0 a4 7d c9 be e1 bb eb bd 80 d8 e7 bd b6 66 14 3e
       -0.3935367 -0.115104444 -0.11320591 0.14492306
0000e0 92 cd 86 3e 12 2a 23 be 7f e3 bd 3d b4 aa 99 bc
       0.26328713 -0.15934017 0.09271907 -0.018758155
0000f0 68 c3 70 be a3 b4 3e be 41 73 29 be ac 63 43 3e
       -0.23512042 -0.18623595 -0.16547872 0.1908099
000100 3b e1 76 bc 8e f3 6f bd 0a e0 ee bd bb 8f cd bd
       -0.015068348 -0.05858188 -0.11663826 -0.1003718
000110 5c 3d 72 be 9a 94 7c bd c0 dc 04 3e c8 8d 27 3d
       -0.23656219 -0.061665155 0.12974834 0.040906698
000120 f3 a5 bb bd db d2 7d bd 3c 85 88 3d 15 7d 97 3d
       -0.09162512 -0.061968666 0.066660374 0.073969044
000130 12 34 8c 3d 63 fe 30 3d 1c 72 92 3d 7c 5c 9a bc
       0.06845869 0.043211352 0.07150671 -0.018842928
000140 1b fc a6 3c 10 74 cb bd 30 52 5a bd 61 49 04 3d
       0.020383885 -0.099342465 -0.053301036 0.032296542
000150 7c 7a 9a bd f7 e2 5d 3d 75 b2 af 3d 15 8b 81 3d
       -0.07542893 0.05417153 0.0857896 0.06325356
000160 3d ed 1f be 99 9d 95 3d fb b3 17 be 37 d2 6f 3e
       -0.15617843 0.0730545 -0.14814751 0.23420034
000170 78 b3 2c be c2 a3 a7 bb ee 37 c2 3d dc 30 80 3d
       -0.16865337 -0.005115957 0.09483324 0.06259319
000180 26 ee 22 3e 25 c6 19 ba 3b 8c 0c bd 92 33 30 3d
       0.15911159 -0.00058660127 -0.03431342 0.04301793
000190 b1 e2 d2 bd cf c5 13 3e 88 43 0b 3c 85 78 1e 3d
       -0.10297144 0.14430927 0.008499987 0.038689155
0001a0 47 2c e2 3c 09 68 7b bc 4d cc 8a be ce a6 b0 3e
       0.027609004 -0.015344628 -0.27108994 0.34502262
0001b0 34 8f 58 bd 6d a9 2f 3d 2c 51 97 3c 7d e2 b5 bc
       -0.052870944 0.042886186 0.018471323 -0.022202725
0001c0 1d b3 8b bd 21 a1 3a bd 12 1a e3 bd ef 30 b7 bb
       -0.068212725 -0.04556382 -0.11088957 -0.00559055
0001d0 b1 62 cd 3c 9c 11 72 3e 8d 1a e6 bc c0 79 b9 3d
       0.025071474 0.2363953 -0.028088832 0.09056425
0001e0 f0 21 24 be f0 12 03 3c e2 5c fc 3d 81 92 0b be
       -0.16028571 0.0080001205 0.123224035 -0.13630106
0001f0 39 bc 7d bc 10 0b 0e bd 35 91 93 bd 61 3d 11 3e
       -0.01548677 -0.03467852 -0.072054304 0.1418357

policy.action_net.bias f4 [2]
000000 b2 99 14 bd 72 f5 83 bb
       -0.036279388 -0.004027062

policy.value_net.weight f4 [1, 64]
000000 ee 14 89 bc 14 44 62 bd 09 7a 08 3e a9 c4 88 3d
       -0.016733613 -0.055240706 0.13327803 0.06678135
000010 d6 d6 13 be 55 4b 28 3d 7f ae 86 3d ed ed f3 bd
       -0.14437422 0.041087467 0.06576251 -0.11910615
000020 96 87 70 bd ae 93 d4 3d 36 b2 32 3d 01 25 23 be
       -0.058723055 0.1037973 0.043626986 -0.15932085
000030 de f0 42 3e bf ef 93 bd 5a 1f 7b 3d 11 b9 21 b9
       0.19037196 -0.07223462 0.061309196 -0.00015423099
000040 86 8f 26 3d 43 db c8 3d 64 58 c2 3b af 16 8c be
       0.04066422 0.09807446 0.005930947 -0.27361056
000050 87 0e b7 bd f3 83 62 3d 31 1f b6 3d f5 bf 6c 3d
       -0.08938318 0.055301618 0.08892668 0.057800252
000060 6e 10 87 bd 2d e1 ea 3d bc 19 28 3d bd b6 05 3d
       -0.065949306 0.1146873 0.041040167 0.032644976
000070 05 6f 65 3d 9a 81 fc bd ea d4 4a 3d ba 27 73 3d
       0.05601408 -0.12329407 0.049519457 0.059364058
000080 6a f7 21 3e 8d 79 12 b9 6a 63 66 3e 3d e7 1b bd
       0.15817037 -0.00013968926 0.22498861 -0.038062323
000090 6d 9c 7b bd e6 bd 0d be 36 ae fd bc c1 c3 9d 3d
       -0.061428476 -0.13841972 -0.03096686 0.07703353
0000a0 65 76 ae 3d ad 17 f7 3d ea 32 98 3c 40 09 05 3e
       0.08518676 0.12065063 0.018578965 0.1299181
0000b0 7e 0e c4 bd fe 46 a3 3d f7 9d 6f 3d b6 52 83 3d
       -0.09573077 0.07972525 0.058500256 0.0641226
0000c0 37 4d 3c bd 1d 8e ad 3c ce 08 ec 3c 9c 70 9e 3d
       -0.045972075 0.021185929 0.028812792 0.07736322
0000d0 08 56 2a bd 6a af 11 3d ac 3c 7d 3d ae 12 92 3c
       -0.041585952 0.03556768 0.06182544 0.017831173
0000e0 4f 86 9b 3b 75 ce 00 3e 9d 02 69 bd 17 f4 50 bd
       0.0047462354 0.12578757 -0.056887258 -0.051014032
0000f0 e8 95 6f 3d 48 73 1b 3d 2c 26 ec 3c 12 a1 90 bd
       0.05849257 0.037951738 0.028826796 -0.07061972
