results/autosave/A26_10010_5000000_eurnzd_box/ONNX_model.onnx (onnx, 71929 bytes, 12 tensors)

policy.log_std f4 [2]
000000 cd bb 9c bf 2d 72 fb be
       -1.2244812 -0.49110547

policy.mlp_extractor.policy_net.0.weight f4 [64, 60]
000000 b2 c4 1a be 98 99 52 be 70 23 62 3e f5 b0 aa 3d
       -0.15114096 -0.20566404 0.22083831 0.08334533
000010 17 f1 76 bd 25 3b 67 bc 27 f8 64 3d d3 b4 8a 3d
       -0.060288515 -0.014113222 0.05590072 0.06772771
000020 cf 46 87 3e 8d d1 cc 3d a3 4c b7 bc 58 44 9d be
       0.2642121 0.10000906 -0.02237541 -0.30716205
000030 b9 21 bb 3e 67 02 11 3e aa 73 87 3e 0a 0a a5 3e
       0.36549166 0.14161073 0.26455432 0.32234222
000040 3d c9 4c be 56 52 9d 3e cd 7d d3 3d 6a 4e 2c bd
       -0.19998641 0.3072688 0.10326729 -0.04206697
000050 96 b0 c4 be d0 55 a0 bd 72 f3 8b bd d5 39 6d 3c
       -0.38415974 -0.078288674 -0.06833543 0.01447912
000060 1d 32 15 bd 21 57 8c 3d ef 26 2a be f7 87 14 3e
       -0.036424745 0.06852556 -0.16616414 0.14504991
000070 41 3c 66 be d7 f5 c5 bd 60 2a 37 3e db 9e 0d bd
       -0.22483923 -0.09666031 0.17887259 -0.034575325
000080 c8 bd 81 be ea b4 2f 3e 31 86 4b bd dd 86 0e 3e
       -0.25340104 0.17158857 -0.04968852 0.13918634
000090 b9 c0 2d be 89 e5 e3 3d 42 0c 76 3d 85 89 d9 3c
       -0.16968049 0.11127765 0.060070284 0.026554832
0000a0 d9 c6 c3 3d 54 56 6e be e2 34 ab bd 05 14 07 3e
       0.095594116 -0.23275119 -0.08359696 0.1319123
0000b0 01 5b 8d bd 64 91 e5 bd ec 5f 98 be a3 9b cc be
       -0.06902123 -0.11209372 -0.29760683 -0.3996249
0000c0 8b 3f b0 bd 20 cc 57 3e 83 e8 db bd 59 5d 95 3e
       -0.0860587 0.21073961 -0.107377075 0.2917278
0000d0 55 f3 17 3e cd 60 03 3e 71 40 f1 bc f4 b0 14 be
       0.14838918 0.12829895 -0.029449673 -0.14520627
0000e0 10 52 27 3e c7 c5 9a be e1 b7 04 3e 98 c5 a7 3c
       0.16339898 -0.30229017 0.12960769 0.020479962
0000f0 34 ea 43 be 9b f7 bf 3d df 34 ce 3d 86 ec 2e be
       -0.1913231 0.09373399 0.10068678 -0.17082414
000100 79 a8 8d 3c 00 85 b1 3e d8 75 41 be eb 91 b8 bd
       0.017292248 0.34671783 -0.1889261 -0.09012207
000110 82 47 86 bd 0b 6a 54 3d bf 4a 9d be 9f c0 bd bb
       -0.06556608 0.051858943 -0.3072109 -0.0057907845
000120 f1 74 97 3c 7c 6e 5c 3d 78 0b eb 3d b3 12 2d 3e
       0.01848838 0.053816304 0.11476797 0.16901664
000130 b6 d0 20 3e df 7a b3 3d e0 f8 e3 3d cb 23 5b be
       0.15704617 0.0876367 0.111314535 -0.21400373
000140 01 53 70 be d1 28 2b ba a1 92 43 3c a2 0e 94 be
       -0.23469163 -0.00065292144 0.0119368145 -0.28917414
000150 be 47 3c be 2f f8 86 3c 14 56 5b 3e a5 37 fe 3c
       -0.18386742 0.016475765 0.21419555 0.031032393
000160 78 5b a7 3d 51 9d 56 3e 42 a8 5d 3e e4 05 f7 bd
       0.08171743 0.20958449 0.21646217 -0.120616704
000170 72 c7 80 be 5c eb ca 3d 0b f7 05 3c e4 ca ed bd
       -0.25152165 0.099081725 0.008176575 -0.11610964
000180 59 0a 23 bd 6d 67 f0 3d 72 ca 27 3d 9d 79 46 be
       -0.03980479 0.11738477 0.04096455 -0.1938233
000190 ef d3 ec 3d 64 4a 46 3d 9f 67 2d bd 65 84 6e be
       0.115638606 0.04841079 -0.04233515 -0.23292692
0001a0 61 e6 42 3e b4 10 a6 bd 2d e8 cd 3e 59 ec 6b bd
       0.19033195 -0.081086546 0.402162 -0.057598446
0001b0 63 3c 52 3e 9b 1c f1 3d e0 34 30 3d 3f a5 04 bf
       0.20530848 0.11773034 0.043019176 -0.51814646
0001c0 18 31 75 be 16 ab 2e be e5 6b 45 be db 14 0d be
       -0.23944509 -0.17057452 -0.1927944 -0.13777487
0001d0 f4 02 ed bd 67 52 8a be 0d 85 b0 be 1b 26 17 bd
       -0.11572829 -0.27015993 -0.3447651 -0.036901575
0001e0 8b a4 3e be 1a 7b 84 3d f0 1c 54 be 70 2b c8 bd
       -0.18617456 0.06468792 -0.20714164 -0.0977391
0001f0 33 48 57 3e 9c d6 99 3e da 93 27 3d 75 b5 ab 3e
       0.21023636 0.30046546 0.040912487 0.33536878
000200 02 41 0d 3e f1 c7 83 be 74 0b 0f 3e e8 74 3b bd
       0.1379433 -0.2573848 0.13969213 -0.045765787
000210 a7 26 ef bd 1c b5 a0 bd aa 3e 40 be f3 2d 7d be
       -0.11677294 -0.07847044 -0.18773904 -0.2472456
000220 9b 55 19 bb de 8f 73 3d f7 89 d1 3d 7c 51 13 bd
       -0.0023396972 0.059463374 0.10231393 -0.03596638
000230 ad ec 8e be 7e 68 66 3e 0b 57 41 3e 25 df 13 3e
       -0.27914944 0.22500798 0.1888086 0.14440592
000240 44 3b 28 bd 6a 5d 13 3d 27 7e 02 bd 58 b8 32 3e
       -0.041072145 0.03597776 -0.03185859 0.17453134
000250 81 ba 1c be 04 4f 9c be 60 79 aa bd b1 90 17 bd
       -0.1530552 -0.30529034 -0.08323932 -0.037003223
000260 46 04 30 3e 9f ee 8f bd d4 dd 00 3f 91 8e 9a 3d
       0.1718913 -0.07027935 0.5033848 0.07546724
000270 32 e3 6e be 8b 45 67 3d f3 74 3d 3e 8a 9e fa bd
       -0.23328856 0.056462806 0.18501644 -0.1223727
000280 3d 06 be bd 7d 59 73 be ca 48 2f be 70 11 c2 bb
       -0.092785336 -0.23764606 -0.1711761 -0.005922489
000290 86 3e 25 3d d4 1e 50 3e f0 0a 93 bd a6 ba 5c be
       0.04034283 0.2032426 -0.071798205 -0.21555576
0002a0 18 33 49 be 24 55 74 3d 42 9f 54 3e b7 5a 3c be
       -0.19648397 0.05965151 0.20763877 -0.1839398
0002b0 6d c9 b7 bc a0 36 54 be f2 81 ec bd 5e 73 81 3e
       -0.022434914 -0.20723963 -0.115482226 0.2528333
0002c0 88 05 53 3e 14 ef 2e 3e 67 2a 48 be 66 ea b2 3e
       0.20607579 0.17083389 -0.19547425 0.34944457
0002d0 f3 71 1c be cd 1a 07 3e d5 4e 9b be eb 40 e4 bd
       -0.15277843 0.13193817 -0.30333582 -0.111451946
0002e0 75 27 83 bc 66 c7 05 be 5a aa 12 bd c0 76 7b 3d
       -0.016010026 -0.13064346 -0.03580699 0.061392546
0002f0 1a 13 d4 3d 43 5d 04 39 89 4d e4 bd 5f e7 04 3c
       0.10355206 0.00012623244 -0.11147601 0.008111804
000300 56 b0 d2 bd c0 62 43 bc ed 77 8d 3e b4 39 d5 3d
       -0.1028754 -0.011925399 0.2763056 0.104113966
000310 01 19 4b 3e c8 1b e5 3d 19 4c 1c 3d 67 2b 45 3d
       0.19833757 0.111869395 0.03815851 0.048137095
000320 2e 0d 42 3e f4 44 a9 be eb 5a a7 3d 4f 07 3d be
       0.1895034 -0.3306042 0.08171638 -0.1845982
000330 a8 5c 80 3e 85 35 b4 be 0f e0 0c 3e 26 f6 42 be
       0.2507069 -0.35197082 0.13757347 -0.1903921
000340 3d 2b c7 bb 69 4a c7 be 17 69 94 3e 90 05 8a be
       -0.0060781525 -0.38923958 0.28986427 -0.2695737
000350 3e ac 0d 3e 20 43 0e 3e 0e 97 ea 3d 41 5a 6e 3d
       0.13835236 0.13892794 0.11454593 0.05819154
000360 4b 21 05 bd 51 f5 f0 bd 4b 0d 68 bd 07 f9 92 be
       -0.032502454 -0.117655404 -0.056653302 -0.28705618
000370 f4 99 8c bc 0b f7 33 3e 34 4c ad 3d a4 16 4e be
       -0.017163254 0.17574708 0.084618 -0.20125824
000380 34 17 05 3e 3d 0b 92 3e 77 ef 85 3b 1b e9 80 3c
       0.12997133 0.285242 0.0040873843 0.015736153
000390 26 c2 97 bb 91 b2 70 3d 58 91 bd 3c 8b db ea 3e
       -0.0046312986 0.058764044 0.023140594 0.45870623
0003a0 49 ac a5 bd 09 4a 4e be 9b 30 c7 bc 8b 5b 27 3e
       -0.080895014 -0.2014543 -0.02431517 0.16343515
0003b0 4d 70 1b 3e 5c b8 55 be 1d f1 54 3c a6 96 4e be
       0.15179558 -0.20871109 0.012996939 -0.20174655
0003c0 ac 37 06 be 0a 09 0f be 53 ce c7 bd 6c 74 e8 3d
       -0.13107175 -0.13968292 -0.0975615 0.11350331
0003d0 2e ac f0 3d a8 16 8e be 4f b3 32 bd e7 4d 45 3e
       0.11751591 -0.2775166 -0.043628033 0.19267999
0003e0 1b 09 23 be f7 22 cb 3d 61 ae c8 3c a5 5e 69 3e
       -0.15921442 0.099187784 0.024497213 0.2279001
0003f0 dc f0 b7 3d 36 d3 cd bc dd ee ad bd 3a fa 01 3e
       0.08981487 -0.025125127 -0.08492825 0.1269311

policy.mlp_extractor.policy_net.0.bias f4 [64]
000000 00 00 00 00 7e 10 e3 37 00 00 00 00 00 00 00 00
       0.0 2.7068189e-05 0.0 0.0
000010 17 6c 80 3a 00 00 00 00 ab c1 60 bb 30 ef 34 3b
       0.0009797838 0.0 -0.0034295123 0.0027608387
000020 fd e5 98 b2 28 88 86 33 00 00 00 00 d8 7b 0c 3c
       -1.7799715e-08 6.264628e-08 0.0 0.0085744485
000030 b7 a9 df 3b dd ca 95 ba 78 80 93 3b 63 37 22 b6
       0.0068256515 -0.0011428256 0.0045013987 -2.417212e-06
000040 20 a7 17 3c 00 00 00 00 00 00 00 00 00 00 00 00
       0.009256154 0.0 0.0 0.0
000050 00 00 00 00 00 5d 1b b3 00 00 00 00 00 00 00 00
       0.0 -3.6173333e-08 0.0 0.0
000060 a8 21 e7 3b 00 00 00 00 2a ff 4c 3a 00 00 00 00
       0.0070535727 0.0 0.0007820005 0.0
000070 96 1c e2 3b 15 4b 4a 3b a2 41 90 ba 42 e3 00 39
       0.0069003804 0.0030867506 -0.0011005888 0.00012291691
000080 00 00 00 00 34 79 1c 3c c0 0c cf b5 24 05 34 b9
       0.0 0.009550381 -1.5426413e-06 -0.00017168053
000090 00 00 00 00 2f 81 e2 3b 6d 59 4a bc 5d e5 93 3b
       0.0 0.0069123725 -0.012350422 0.004513426
0000a0 d7 8a 0f bb e3 54 a5 bb 00 00 00 00 0c e7 34 3b
       -0.0021902823 -0.0050455197 0.0 0.0027603535
0000b0 42 e9 e7 3b 66 c4 e1 3b 00 00 00 00 a5 24 7c bb
       0.007077367 0.0068898676 0.0 -0.003847399
0000c0 00 00 00 00 00 00 00 00 00 00 00 00 00 00 00 00
       0.0 0.0 0.0 0.0
0000d0 00 00 00 00 00 00 00 00 79 01 94 3b d4 75 24 3a
       0.0 0.0 0.004516777 0.0006273661
0000e0 e6 c9 93 3b 00 00 00 00 00 00 00 00 00 00 00 00
       0.004510152 0.0 0.0 0.0
0000f0 00 00 00 00 ba aa e5 b4 00 00 00 00 00 00 00 00
       0.0 -4.2778794e-07 0.0 0.0

policy.mlp_extractor.policy_net.2.weight f4 [64, 64]
000000 50 9f 6e 3c c7 ba 83 3b 78 6c 0c bd a5 49 b0 3d
       0.01456435 0.0040200683 -0.03428313 0.086077966
000010 6f 6c a7 be 16 22 8f 3d a7 8a f6 be 19 91 c6 bd
       -0.32699916 0.06988923 -0.48152658 -0.09695644
000020 a7 b4 7d 3c d6 30 19 3e 79 72 d6 3d 2b 6c 13 3f
       0.015484965 0.14960036 0.10471053 0.57586926
000030 d5 68 20 bf 76 8c f1 be 79 86 1e be 8c 6b a9 3e
       -0.6265996 -0.47177476 -0.15480985 0.33089864
000040 87 b7 7e be 2b bb 9e 3e 48 ee b9 3e 4d 79 cf 3e
       -0.24874698 0.31002173 0.36314607 0.40522233
000050 8e 0f 8f 3e 4e 89 b1 3e 1f 78 3e bd 44 aa aa 3b
       0.27941555 0.34675068 -0.046501275 0.0052082855
000060 f9 50 41 be d5 c2 23 bf 9c f8 2a bf e1 a1 a3 be
       -0.18878545 -0.63969165 -0.667856 -0.3195944
000070 79 8e 5c bf 52 81 f1 3e af 8b 8c 3f 4c 0f 39 bf
       -0.86154896 0.47168976 1.0980128 -0.72288966
000080 04 81 16 be 0d fa 64 3e 32 ae ad be d3 a3 c0 bd
       -0.14697653 0.22361012 -0.33921963 -0.09406247
000090 e5 41 00 3e 89 94 84 be 8d 1c 71 bd ed 2f 01 3e
       0.12525137 -0.25894573 -0.05886512 0.12615938
0000a0 8a 57 15 3f 28 08 0c 3f da 32 90 3d 7a 42 28 bf
       0.583367 0.54699945 0.07040949 -0.65726435
0000b0 1b e9 65 3e 7f 61 db 3d 32 79 7b 3e e8 48 21 be
       0.22452204 0.10711955 0.24557951 -0.15750468
0000c0 dd 54 78 be 8f 52 08 3e 42 e7 8f 3d 04 0e a0 3c
       -0.24251123 0.13312744 0.07026531 0.019537933
0000d0 c6 91 23 3e 18 c1 4f be 53 ee de 3d 7c 0d 29 be
       0.15973577 -0.20288503 0.108853005 -0.1650905
0000e0 fb e0 99 be ba b7 9a bc 87 6e 72 bd 6a a4 3a be
       -0.3005446 -0.018886436 -0.05918744 -0.18226781
0000f0 cc c9 b2 3d 2e a6 5a 3e 2c 39 ad be d8 73 fe bc
       0.08729896 0.21352455 -0.3383268 -0.031061098
000100 63 b0 01 bf 10 11 2b 3f a9 b3 a9 bc 83 ad 67 3e
       -0.5065977 0.6682291 -0.020715551 0.22624783
000110 72 41 8d 3e 69 a6 da bc 51 af e3 be 72 4b c5 bd
       0.27588993 -0.026690679 -0.44469693 -0.09633531
000120 a7 f0 8f 3e b7 2a c1 be 94 55 82 3d df fc ac be
       0.2811329 -0.377279 0.06363979 -0.33786675
000130 3b 0a 5d 3d 94 29 14 3e 07 3e 47 be 4c 00 11 3f
       0.053964835 0.14468986 -0.19457255 0.5664108
000140 99 a1 83 be 03 f7 7b be 37 a7 c9 bd 76 e7 bb 3d
       -0.25709227 -0.24605946 -0.09846347 0.09175007
000150 0d a2 97 3d bb 62 53 be c9 95 83 bd cd d6 d3 bd
       0.074039556 -0.20643131 -0.064250536 -0.103437044
000160 a1 4f 92 3e f4 c1 bd 3e cd e0 75 be 66 24 9d 3d
       0.28576377 0.37062037 -0.24011536 0.07672958
000170 14 e3 e4 3e a2 9b e0 3e e7 62 17 3e 16 79 b6 3d
       0.44704497 0.43868738 0.14783822 0.08909814
000180 f6 21 a1 be 98 87 bd 3d 78 b3 49 3e 2c 0e 55 3b
       -0.31471223 0.09254378 0.19697368 0.0032509668
000190 52 67 ed bd e3 d9 a9 3d 85 a5 4d 3e 92 3f 44 bb
       -0.115919724 0.08293512 0.20082672 -0.0029945117
0001a0 ce e1 e6 3c 1b 69 f1 bd e5 6f e4 3e d0 df 6e be
       0.028183844 -0.117876254 0.4461662 -0.23327565
0001b0 7d 1f 37 3f 05 c6 f1 bd 6c 7c 28 be 7c 66 cb be
       0.7153242 -0.11805347 -0.16453713 -0.39726627
0001c0 a8 08 cb be 3e 25 31 bd 36 2a 39 bd 64 9e dc bc
       -0.39655042 -0.043248408 -0.04520627 -0.026930995
0001d0 d3 3e 10 3b 7a 0f e7 bd 17 d1 92 bd 30 e7 4c 3e
       0.0022010102 -0.11282249 -0.07168787 0.20010066
0001e0 81 50 a1 bd 8a 14 d4 3d 92 24 45 be aa 7f 22 3e
       -0.07876683 0.1035548 -0.19252232 0.15869012
0001f0 55 0f 3a be 6f 6f ef bd ac 23 d1 bd a3 d9 e4 bd
       -0.18169911 -0.11691176 -0.10211882 -0.111743234
000200 ed 7d 6c bd d6 bc 97 3e f4 07 31 be bd 92 3a 3e
       -0.05773728 0.29636258 -0.1728819 0.18220039
000210 8b 49 99 bd 7d 1f 02 3d 2f 73 0a 3f 43 d4 66 be
       -0.0748473 0.03176831 0.54082006 -0.22541909
000220 0c 8a 02 3e 09 ec 27 be 09 54 6c 3e 3c c2 ef be
       0.12747973 -0.16398634 0.23078932 -0.46827877
000230 40 dd 09 3f bb c0 a8 be 4a 59 8c 3f a6 fb 0f 3f
       0.53853226 -0.32959542 1.0964749 0.5624336
000240 b8 2f df 3e ad c2 09 bd cf df 72 3e 61 f1 51 be
       0.43591094 -0.033632923 0.23718189 -0.20502235
000250 88 ca 0f be 3b 63 19 bf 11 a8 38 3e f8 d0 dd bd
       -0.14042103 -0.5991704 0.18032862 -0.10830873
000260 a1 78 b4 be b2 f1 07 3f 6b 5c 8c 3e 81 5c a4 bc
       -0.35248283 0.5310317 0.2741426 -0.02006364
000270 7f 7d d1 3e 11 28 2a 3f 37 4b 4c 3e 53 90 eb 3d
       0.40916058 0.66467386 0.19950567 0.11502137
000280 ff d1 81 3d 50 01 13 bf b0 57 ae 3e 17 7c d4 3e
       0.06338882 -0.5742388 0.34051275 0.41500923
000290 32 c6 f8 3d bf 2a 07 be bd 37 44 3e 16 96 12 bd
       0.12147178 -0.131999 0.19161887 -0.035787664
0002a0 4a 38 1c bb 6d 69 67 3f 7d 66 2b bf 54 27 c6 3e
       -0.0023837262 0.9039524 -0.6695326 0.3870188
0002b0 1a a5 f3 be f8 64 82 3e 95 33 45 be a2 62 02 3e
       -0.475869 0.25467658 -0.19257958 0.12732938
0002c0 ae 05 c5 3e eb 35 ae be fd b9 b0 3d 8e a6 c3 3e
       0.38480896 -0.3402551 0.086292244 0.3821301
0002d0 da 4b 3e bd 52 05 f3 3b e1 fd 5c 3e 40 77 57 3f
       -0.046459056 0.0074164057 0.21581222 0.84166336
0002e0 42 dc 60 be fb af 4a 3e 9e eb 5a 3e e3 f7 41 3e
       -0.21959022 0.19793694 0.21378943 0.18942218
0002f0 24 6e cc 3e d8 6d 00 bf 72 8d b3 bd 8c 3b 9b bd
       0.3992778 -0.5016761 -0.08767213 -0.07579717
000300 12 b3 df be 5d d0 48 be 9c 29 20 bc f0 15 31 3d
       -0.43691307 -0.19610734 -0.009775545 0.04323381
000310 fa f7 01 3e a3 15 ab 3e 19 ad d7 3d a1 9c a5 3e
       0.12692252 0.33414945 0.10531063 0.3234606
000320 18 29 89 3e 41 33 8d be 97 1c a7 3d 6a c6 62 3f
       0.26789165 -0.27578166 0.0815975 0.88584006
000330 1c 63 bb be 45 c7 8e be 34 37 bc be 52 4c a2 be
       -0.36599052 -0.27886406 -0.36760867 -0.31698853
000340 49 fa 82 3e 31 7a f3 3d 83 00 4f 3e 8e af 48 be
       0.25581577 0.118885405 0.20215039 -0.19598219
000350 62 ab 3e bd 45 f1 ec 3e 44 33 ef 3d 91 eb 52 3e
       -0.046550162 0.46277824 0.116797 0.20597674
000360 cf e3 01 be ba 53 4f 3e 41 27 89 be 55 1c 7b bd
       -0.12684558 0.20246783 -0.2678776 -0.061306316
000370 6e 42 90 3e 7d 76 27 be fb 7b 31 bf 92 11 3f 3f
       0.28175682 -0.16353793 -0.69329804 0.74636185
000380 5f 52 ed 3d 9d 70 19 bf 06 20 f6 3e 92 37 54 3f
       0.11587977 -0.5993746 0.48071307 0.82897294
000390 8e 45 04 3e 45 24 bf 3e 04 ea 3a 3d 48 57 8b 3e
       0.12917158 0.3733236 0.04563333 0.27215028
0003a0 8d f6 6e 3e 65 4f 5d 3f 03 e6 2b 3d ef 3b d2 3e
       0.23336239 0.8644927 0.041967403 0.4106135
0003b0 79 55 31 3e ea 89 17 3e e4 08 84 3d 07 2c 2f 3e
       0.17317761 0.14798704 0.06447008 0.17106639
0003c0 70 5f 12 3e de c9 13 3e 19 70 93 be f5 b0 57 be
       0.14294219 0.14432475 -0.2879646 -0.21063598
0003d0 2f 15 f9 bd 9e 75 95 be f4 ef 4e bd 6f c0 d1 be
       -0.121622436 -0.29191297 -0.050521806 -0.40967128
0003e0 fd 5d 93 be 59 21 2b bd 7d bb 16 3c 40 03 a0 bd
       -0.28782645 -0.04177985 0.009199974 -0.0781312
0003f0 01 f4 1d bf ad b5 2a bd f5 9f 27 bf d8 2e 3f be
       -0.61700445 -0.041677166 -0.6547845 -0.18670213

policy.mlp_extractor.policy_net.2.bias f4 [64]
000000 36 42 1b 3d 9e 69 09 3d 33 4a 41 bc 8e 78 1c bd
       0.03790494 0.03354799 -0.011797476 -0.038200907
000010 c3 fa cc 3b f0 be 81 bd 0f 52 11 bd 6c fd 2e 3a
       0.006255479 -0.063352466 -0.035478648 0.0006675336
000020 82 80 d7 bb c9 2b be bd 13 a8 82 bc e3 2e 13 bd
       -0.0065765986 -0.09285695 -0.015949285 -0.035933387
000030 f3 3d a3 bd 90 26 94 3c 2a 27 cb 3c 3d 66 d4 bc
       -0.079708 0.018084794 0.024798948 -0.025927657
000040 3c c2 50 bc fe 84 88 3b 8c c8 96 bd c7 73 99 3b
       -0.012741622 0.0041662445 -0.0736247 0.004682991
000050 b2 a1 18 bc b2 63 83 bd c7 09 3d bd b7 8b 56 3c
       -0.009315895 -0.064155 -0.046151903 0.013094834
000060 03 c9 92 bd 27 0b a9 bd e6 fa 7c 3d 8f 17 06 3d
       -0.07167246 -0.0825408 0.061762713 0.03273731
000070 46 35 f8 bb 0b 6b 57 bd ab b4 18 3c c3 42 9d 3a
       -0.00757471 -0.05259232 0.009320418 0.0011998046
000080 30 89 65 bc 82 4b 64 bd e4 09 65 3d 4c 4e 0d bd
       -0.014009759 -0.055736072 0.055917636 -0.034498498
000090 9e b4 9e bc 25 8e 11 3d e6 bb 1d 3d 60 20 55 3d
       -0.019373234 0.03553595 0.038509272 0.05203283
0000a0 ce a4 58 bd 7f f3 1f bd 82 8d 5b 3c de 89 e7 3b
       -0.052891545 -0.039050575 0.013400437 0.0070659956
0000b0 e7 df 28 3d f3 a6 8a 3c 64 f9 1b 3d 38 64 b8 3d
       0.041229155 0.01692531 0.038079634 0.0900349
0000c0 b2 ec 19 3d 01 17 c7 bd 5a 18 08 bd f8 17 9f bd
       0.037579246 -0.097211845 -0.03322635 -0.077682436
0000d0 fb 3a 2b 3b 9f 82 28 3d 23 56 83 bd 5d 6f 62 3c
       0.0026127684 0.041140195 -0.06412914 0.013820496
0000e0 4f 9a 38 bc df 24 c2 bd 76 e5 17 3d 42 c1 84 3d
       -0.011267259 -0.09479689 0.037084065 0.064821735
0000f0 4f f2 ca 3d 9e 09 c6 3b 2b da ff 3c 64 8f 5b 3b
       0.09909498 0.006043627 0.03123196 0.0033502216

policy.mlp_extractor.value_net.0.weight f4 [64, 60]
000000 d5 ea 34 be b2 e8 69 3e f6 40 2c 3e 8a 48 87 bd
       -0.17667706 0.22842672 0.16821656 -0.066056326
000010 a6 59 54 3d fd fb 0e 3e a3 48 2c bd d3 47 ac be
       0.051843308 0.13963313 -0.04206146 -0.33648548
000020 a4 c5 41 3e 61 cb ae 3d 95 20 b2 3e 00 1e 1d 3e
       0.1892305 0.08534885 0.34790483 0.15343475
000030 d0 21 5a 3d 57 86 a9 3d 6b e5 2b bd 19 72 24 be
       0.053254902 0.082775764 -0.041966837 -0.1605915
000040 3b d3 99 3e 44 bd 08 be 67 d5 00 3e ca 74 1b 3e
       0.3004397 -0.13353449 0.12581407 0.1518127
000050 1b 4e 87 3d f0 76 c8 bd 8b be af 3d c6 92 10 3e
       0.06606694 -0.097883105 0.08581265 0.1411849
000060 51 5f d4 3c 3b c8 a1 be d2 af aa bd f3 26 c9 bc
       0.025924357 -0.31598076 -0.08334316 -0.024554705
000070 58 1e 5a be b6 6b 33 3e 5d 81 57 be 1b d4 3a 3e
       -0.21300638 0.17521557 -0.21045442 0.18244974
000080 ca 2e b6 3e da 80 0b bd 95 ab 31 be 0b d9 8f bd
       0.35582572 -0.03405843 -0.1735061 -0.070238195
000090 dc 23 38 3d a2 08 60 be 06 34 4c 3e ab b0 67 be
       0.044956073 -0.21878293 0.1994172 -0.22625987
0000a0 74 a0 96 3e 05 c3 9f 3e ce 74 c4 3d 36 3a fe 3c
       0.2941929 0.31203476 0.09592591 0.031033617
0000b0 43 63 a4 3d 15 70 83 3e 62 03 9f 3d 84 0e 8f bb
       0.08026745 0.2567145 0.07764317 -0.004365744
0000c0 c5 3e 1d bc f4 e7 33 3e 8e 77 e8 bd 6e d1 8f bd
       -0.009597485 0.17568952 -0.11350928 -0.070223674
0000d0 4d 9b 1e be 38 05 08 be e0 1d 80 bd c7 af 47 bc
       -0.1548893 -0.13283241 -0.06255698 -0.012187905
0000e0 b1 ff 0f be 94 64 56 3e 76 14 8c 3e cd 3c 68 3d
       -0.14062382 0.20936805 0.2735936 0.05669861
0000f0 b4 2f 09 3e ea 10 c4 3c 54 86 52 3d e9 28 19 be
       0.13397104 0.023933847 0.051397637 -0.14957012
000100 99 22 4f bc a2 f1 20 be aa b5 c0 3d 97 4b d7 3d
       -0.012642526 -0.15717176 0.0940965 0.105124645
000110 49 4e 8b be 56 3f de 3e 74 2f b9 3c f0 8d 2a bc
       -0.27208164 0.43407696 0.022605635 -0.010409817
000120 b1 c9 3f bc ea 98 a7 bd b3 d5 de 3d d6 bb 76 3e
       -0.011705802 -0.08183463 0.10880604 0.24095091
000130 cb 20 55 bd 38 1e e2 3d 72 da 39 be 30 57 ad 3e
       -0.052033227 0.1104092 -0.18149737 0.3385558
000140 d0 ae 1b 3e eb 84 c2 3d e9 77 2a 3e 78 af c0 3d
       0.15203404 0.09498008 0.16647305 0.09408468
000150 55 37 3f be 99 3c 15 be 3e 31 d8 3d 00 16 8d 3e
       -0.18673451 -0.14573897 0.10556267 0.27555847
000160 24 b2 82 3e c0 53 23 3d c1 a5 dd be 08 f7 40 be
       0.25526536 0.039874792 -0.43290523 -0.18844235
000170 fb f3 cb 3e a4 fe c7 3d 07 a1 cd bb d3 c3 f0 bc
       0.3983458 0.09765366 -0.0062752995 -0.029390251
000180 f4 f0 4b 3e 0e ec d8 3e 4f 55 fc bd 6e d0 aa 3d
       0.19916135 0.42367595 -0.12320959 0.08340536
000190 b2 ce 38 bc f3 04 13 bb d8 d3 07 be b1 d9 7f bd
       -0.011279749 -0.002243337 -0.13264406 -0.062463466
0001a0 d2 ac 1b 3d 31 b5 9c bd 22 1f 3e ba ae 58 57 be
       0.03800661 -0.07651747 -0.0007252564 -0.21029922
0001b0 d3 d3 31 be 90 01 5e 3e 33 ea de 3d 1e f2 b6 3d
       -0.17365961 0.21680284 0.10884514 0.08932899
0001c0 e7 94 98 bc 1c 5f 95 be 5b a8 d6 3d d3 15 e8 3d
       -0.01862569 -0.29174125 0.1048133 0.11332288
0001d0 f5 ed 19 3d d7 2a 84 3e 76 68 8c 3e 86 1c d0 bd
       0.03758045 0.25813934 0.27423447 -0.101616904
0001e0 f0 82 f8 3d ab 79 eb be 3f c6 10 be f9 ce ae 3d
       0.12134349 -0.45991263 -0.14138125 0.08535571
0001f0 33 a0 0d be b1 fb b4 be 2a 31 da be 7c a1 49 be
       -0.13830642 -0.35348275 -0.42615634 -0.19690508
000200 28 81 58 bd 25 cf 11 be d5 e3 b6 bc 07 2e 44 be
       -0.052857548 -0.14239176 -0.022325436 -0.19158183
000210 6a 60 2f 3e b3 de 22 bb 28 7f 2f 3e d4 bd e4 bc
       0.17126623 -0.0024851977 0.1713835 -0.027922548
000220 b3 4c 38 be 83 a7 fa 3c df 4b 4b 3e 02 d9 20 3e
       -0.17998008 0.030597454 0.19853161 0.15707782
000230 37 2d 91 be 5e 42 4a be 77 bd a1 3d 51 97 4d 3e
       -0.2835481 -0.1975188 0.07897466 0.20077254
000240 8b 35 50 be 40 a4 4b bd 74 b8 e9 3d 76 fb 29 3e
       -0.20332925 -0.049717188 0.11412135 0.16599831
000250 bf 4d 45 be 50 d2 6d 3e 3e fa 10 be ac 4e 11 3e
       -0.19267939 0.23224759 -0.1415796 0.14190167
000260 68 34 d5 3c 1b a9 9f be c6 c3 64 bd c1 99 49 bd
       0.026025966 -0.31183705 -0.055850767 -0.049218897
000270 6e 95 04 bd c2 c2 7c 3e 4e b5 f7 3d 7c 14 93 3e
       -0.03236907 0.24683669 0.12095128 0.28726566
000280 01 8d 38 3d d1 51 c8 bd 0f 1c 34 be 17 31 44 3d
       0.045056347 -0.0978123 -0.17588829 0.04789838
000290 30 d2 2c 3e e6 0b 31 3e cd 74 74 bd 05 42 50 3e
       0.16877055 0.17289695 -0.059681702 0.20337684
0002a0 2d de 33 be b0 6d eb bd fd b9 ee 3d 79 30 a1 bd
       -0.17565222 -0.114955306 0.11656568 -0.078705736
0002b0 0b e2 4b 3e db f9 c4 3d 5b 0b f3 bd 99 76 26 bd
       0.19910447 0.09617969 -0.118674 -0.040640447
0002c0 8a f4 f5 3d 0b 04 0b 3e 6a 8a e5 3c a1 88 4c 3e
       0.12009533 0.13575761 0.028020103 0.19973995
0002d0 39 d7 68 bc 2f d1 85 3b 57 95 67 3e 08 65 9b 3d
       -0.014211469 0.0040837745 0.22615562 0.075876296
0002e0 15 35 f7 3d 36 43 8c 3e 8a 43 3a be e3 a5 ca 3d
       0.120706715 0.27395028 -0.18189827 0.09894922
0002f0 e8 19 bf 3e 6d 9d 37 be 44 0b 4e bd e7 75 7e 3e
       0.37324452 -0.17931147 -0.050303712 0.24849664
000300 6d f2 f6 3d b6 34 b5 3e d4 e3 85 be ed 63 48 bc
       0.12057958 0.35391778 -0.26150382 -0.012230855
000310 40 05 f6 bd 6a a0 a2 3e 7e 4a 80 be b0 75 84 3c
       -0.1201272 0.3176301 -0.25056833 0.016169399
000320 f4 d8 ec 3d eb c8 3a 3e c9 96 ba bd 31 ad 86 3d
       0.11564818 0.18240707 -0.09110791 0.065760024
000330 7e 39 7f be 16 b6 60 3e 0a e8 a0 bd 0b 9a 8e 3d
       -0.24924275 0.2194446 -0.07856758 0.06962975
000340 8f ba 03 be 58 28 6d be 18 a5 1f be 93 9b 91 be
       -0.12864135 -0.23159921 -0.15590322 -0.28439006
000350 3b 88 fd 3c b5 01 9e bd e7 1f 27 3e 82 7c 8e 3d
       0.030948749 -0.07715169 0.16320764 0.06957342
000360 88 37 5e 3d 9c e7 a3 3d e8 27 7f be 27 cb bf 3e
       0.054252177 0.0800316 -0.24917567 0.3745968
000370 04 76 f8 3c 60 a5 3f 3e d8 03 06 3e 86 b0 18 be
       0.030329712 0.1871543 0.13087404 -0.14911088
000380 9d f5 24 3e ee df b1 3d 60 e9 57 3e eb 78 68 3e
       0.16109319 0.08685289 0.21085119 0.22702377
000390 04 02 85 bd 9f 63 20 bd f3 3d 7a 3e b0 c0 98 bd
       -0.06494525 -0.039157506 0.24437694 -0.07458627
0003a0 16 46 b3 3c ce 50 02 3e e1 31 61 3e 26 34 f6 3d
       0.021884006 0.12726137 0.21991684 0.12021665
0003b0 c9 c6 c7 3c 9b 5f 5b 3e a3 89 8e 3b 80 a0 1e 3e
       0.02438678 0.2142319 0.0043499037 0.15490913
0003c0 8e 9b 62 3d 34 2e ec bd 4e 88 99 be cc 7d b2 bc
       0.05532413 -0.1153225 -0.29986805 -0.0217885
0003d0 56 14 d5 be a4 13 c3 3e d4 db 02 be fd 2a aa 3d
       -0.41617078 0.38100922 -0.1277917 0.083089806
0003e0 4c 9e d9 be 66 aa 59 3e 14 b0 e8 3d cf 7b 61 3e
       -0.42503583 0.21256408 0.11361709 0.22019885
0003f0 db 95 54 bc 75 fe c5 3e 12 4b ce bd 85 56 b0 bc
       -0.012975181 0.38670698 -0.10072912 -0.02152563

policy.mlp_extractor.value_net.0.bias f4 [64]
000000 00 00 00 00 00 00 00 00 ca e7 6e 39 00 00 00 00
       0.0 0.0 0.00022783797 0.0
000010 00 00 00 00 c8 62 20 3b 00 00 00 00 aa 4c f3 39
       0.0 0.002447294 0.0 0.0004640569
000020 20 2b b8 39 12 17 31 b9 99 0d d4 3a a2 5b 3d ba
       0.00035127345 -0.0001688863 0.0016178369 -0.0007223432
000030 12 a0 06 b2 51 6b 09 ba 00 00 00 00 0a ce 15 b9
       -7.836222e-09 -0.00052421266 0.0 -0.00014286503
000040 44 52 b5 b9 7b e9 b1 b9 00 00 00 00 75 cc 19 3a
       -0.00034584303 -0.00033934027 0.0 0.0005866953
000050 e6 d2 d7 3a 00 00 00 00 a7 6e 17 b2 85 64 76 ba
       0.0016466051 0.0 -8.814516e-09 -0.0009399134
000060 eb f8 b8 3a 43 52 06 39 76 02 23 b9 00 00 00 00
       0.0014112269 0.0001280988 -0.00015545808 0.0
000070 3e 05 96 3a 81 60 b5 39 e6 db 10 ba 00 00 00 00
       0.0011445654 0.0003459491 -0.00055259315 0.0
000080 00 00 00 00 6e c8 73 b9 96 b8 9a 3a de 13 a3 32
       0.0 -0.00023248952 0.0011804278 1.8984732e-08
000090 a5 b2 c5 ba df 87 59 37 00 00 00 00 00 00 00 00
       -0.0015083147 1.2965843e-05 0.0 0.0
0000a0 4f 05 b9 38 2d 72 85 3a 65 47 78 b9 b8 77 2c b9
       8.822476e-05 0.0010181122 -0.0002367772 -0.00016447797
0000b0 cc 6f 8e 39 d9 20 c3 b4 be 24 31 bb 00 00 00 00
       0.00027167646 -3.634548e-07 -0.0027029957 0.0
0000c0 00 00 00 00 00 00 00 00 00 00 00 00 00 00 00 00
       0.0 0.0 0.0 0.0
0000d0 00 00 00 00 ff a7 bc 38 e1 41 d9 b9 cd 55 f1 39
       0.0 8.99583e-05 -0.0004143855 0.0004603103
0000e0 00 00 00 00 00 00 00 00 85 0d 27 2f 00 00 00 00
       0.0 0.0 1.5193365e-10 0.0
0000f0 a5 2e 7e ba c5 3d ad 3a 00 00 00 00 00 00 00 00
       -0.00096962816 0.0013217261 0.0 0.0

policy.mlp_extractor.value_net.2.weight f4 [64, 64]
000000 13 cb 67 be a7 d1 84 3c c5 82 0f 3f 7a 4c c7 3d
       -0.2263606 0.016213251 0.56058913 0.097313836
000010 b5 0d 7f bd d2 d9 00 bd f3 7a df bc c2 ed 3e 3e
       -0.06226893 -0.03145773 -0.027280306 0.18645385
000020 c4 20 ca bd cc 52 0c 3e 66 9b d9 bd da 33 9a be
       -0.09869531 0.1370346 -0.10625343 -0.30117685
000030 cd 75 d9 3d 96 54 89 be 6f b2 41 bc 27 97 e3 3c
       0.10618172 -0.26822346 -0.011822327 0.027782036
000040 d0 94 2b 3e 3a be da 3d fb 4c 06 be 8a c4 92 3e
       0.16755986 0.10680814 -0.13115303 0.28665572
000050 65 13 52 bd 02 79 91 bd f1 6d cc 3d 67 28 81 3e
       -0.051288027 -0.071031585 0.09981907 0.25226137
000060 df 12 0c bf d5 66 a6 bd 77 21 b7 ba 11 43 a0 be
       -0.54716295 -0.081250824 -0.0013971765 -0.31301168
000070 ab 2c 07 3e 56 fe 87 be 28 25 da be 7d e6 1b 3d
       0.13200633 -0.2656123 -0.42606473 0.038061608
000080 7e e7 97 3e d8 d1 a9 be 44 8f 1c be 09 17 1f be
       0.29668802 -0.3316791 -0.15289026 -0.15536131
000090 3d 73 88 bd c2 a5 0d bd ee ae 94 ba 72 52 a6 3d
       -0.06662605 -0.034581907 -0.0011343637 0.08121194
0000a0 81 cd 28 be 6f 68 46 be 92 d5 cf bd da ff 6f 3e
       -0.16484644 -0.19375776 -0.10148157 0.23437443
0000b0 89 8d 25 bf 09 87 8e be d0 1e fa 3c ac ac 8e 3e
       -0.6466909 -0.278374 0.03053227 0.27866113
0000c0 cb 97 ec bb a8 c9 84 bd b5 86 dd be e5 da 80 bd
       -0.0072202436 -0.064837754 -0.43266836 -0.06291751
0000d0 51 e7 bd 3d cc db 9a 3c de 9e b6 3e 1c 5f fd 3e
       0.09272636 0.018903635 0.3566808 0.49486625
0000e0 4f 76 c6 bd 7a e4 86 3d f0 5f 83 3e 1d 40 e6 bd
       -0.09690534 0.06586547 0.25659132 -0.112426974
0000f0 31 f2 35 3e 6a 64 7c bc d5 93 14 bc 37 7f 94 3e
       0.1776817 -0.0154048 -0.009068449 0.29003307
000100 5a 72 97 3c f7 64 a0 3d ff 24 1c bf 43 30 30 3e
       0.018487144 0.078317575 -0.6099395 0.1720591
000110 6e 3c ab bd 84 92 0b be 25 39 bb 3e 3a 24 f8 3e
       -0.083611354 -0.1363011 0.36567035 0.4846514
000120 64 64 b4 be 81 a0 c0 bb 26 3d a3 3d 85 58 0e be
       -0.35232842 -0.0058785086 0.079706475 -0.13900955
000130 e7 6d 3f be f6 21 64 be 65 e8 5a 3e fe 26 64 be
       -0.18694268 -0.2227858 0.21377714 -0.222805
000140 c2 6c c6 be fe e9 15 3e a4 91 1d be a8 62 f0 be
       -0.3875485 0.14640042 -0.15387589 -0.4695027
000150 5e fe 0c bf 84 ae 99 3c 63 08 4f 3d 26 9a 9f bd
       -0.55075634 0.018759973 0.050545108 -0.07793073
000160 71 bb 1b 3d cd 37 88 3e b4 af 41 bd 04 a7 07 3e
       0.038020555 0.26605073 -0.047286704 0.13247305
000170 e5 cc fd be f1 e1 87 bc ab 83 ed bc 38 c5 60 3f
       -0.49570385 -0.01658723 -0.028993448 0.8780093
000180 1e b7 07 be b6 d4 07 bf 5e 1b cd be be d6 10 bd
       -0.13253447 -0.53058946 -0.40059942 -0.035361044
000190 c4 f9 81 be 4d cc d0 3e 88 f8 8c be bc 25 40 3d
       -0.2538587 0.4078087 -0.27533364 0.046910986
0001a0 e5 54 85 3d c0 fd 15 3a c4 ae df be e1 a1 31 3d
       0.06510333 0.00057217106 -0.43688023 0.04336727
0001b0 02 ff 1d bd 3d ff ef bd ad 09 2c 3e f4 c1 71 bd
       -0.038573273 -0.11718605 0.16800566 -0.05902286
0001c0 d9 5c 58 3e 70 45 84 bd db ae a7 bd 90 86 c9 bb
       0.21129169 -0.06458557 -0.08187648 -0.0061500743
0001d0 7e 93 be be 88 b3 5b 3e dd 33 38 3e 25 7e f5 3e
       -0.37221903 0.21455204 0.17988534 0.47947803
0001e0 06 9c a1 3c 6f da 17 be c1 71 b1 3d 37 7d a0 3d
       0.019727718 -0.1482942 0.08664275 0.07836383
0001f0 a1 bb e5 be d5 42 1b be 37 f8 28 3e 6a d0 b4 3d
       -0.44869712 -0.15162213 0.16500936 0.08828814
000200 79 e1 54 3d 87 ba 3e 3e ff 11 78 be e3 17 00 be
       0.05197284 0.18625842 -0.24225615 -0.12509112
000210 44 aa 52 3d 0a 8f 1e 3d 8e fd e0 bd 70 8e bc be
       0.05143191 0.03871063 -0.10985862 -0.3682742
000220 07 6b 33 be 0b 3f 8c be a6 69 78 be 65 a0 94 3e
       -0.17521296 -0.27391848 -0.24259052 0.2902862
000230 de a1 07 bc 94 36 3a 3c fb 4a 33 3e 6f 3c e1 3e
       -0.008278338 0.0113655515 0.17509072 0.4399142
000240 0b 2d a5 3e f8 d1 88 3e 39 30 86 be 23 f2 ac 3e
       0.32260928 0.26722693 -0.26208666 0.33778486
000250 c3 81 23 bf 44 bc 89 3d 36 64 a3 3e c7 42 cb 3e
       -0.63869876 0.06725362 0.31912392 0.39699385
000260 5b 9d 96 3e 95 87 1f bb e3 a7 a7 bd 55 03 dc 3d
       0.29416928 -0.0024342288 -0.08186319 0.10742823
000270 d6 b4 cf be 65 e5 cc bd 72 60 74 3e c7 fa 80 3d
       -0.40567654 -0.10004691 0.23864916 0.06297832
000280 c9 2e ca bc 61 3c 31 3e 57 27 dc be 85 6c 22 be
       -0.024680512 0.17308189 -0.42998764 -0.1586171
000290 8e ee d6 bd 8f 0f 85 3d 16 e9 96 3d 98 28 42 3e
       -0.104947194 0.06497108 0.07368676 0.18960798
0002a0 6f 14 c6 3c e4 94 83 3e 9d e8 36 be 91 9e f1 bd
       0.024179665 0.25699532 -0.17862172 -0.11797822
0002b0 88 9d a1 3d c1 04 7c be 22 98 50 3d c4 92 65 3d
       0.07891375 -0.24611188 0.050926335 0.05604817
0002c0 3e 5d 25 3e a6 84 13 be 55 e1 bc 3e 2c b6 cc bd
       0.1614885 -0.1440607 0.36890665 -0.09995684
0002d0 06 33 4a 3e 66 e2 60 3d ab 94 94 3e 0c 24 51 3e
       0.19746026 0.05490341 0.29019675 0.20423907
0002e0 58 da ed 3d 06 27 91 3d ee 3f fa bd 0d ef a5 be
       0.116139114 0.07087521 -0.12219225 -0.32408944
0002f0 3a 45 50 3e d4 e8 86 be 06 af 01 3e 57 1e 16 be
       0.20338908 -0.2634951 0.12664422 -0.14660011
000300 06 d5 19 be a8 a5 ce 3d bc 38 34 bf 42 6d bf 3e
       -0.15022668 0.1009019 -0.7039907 0.37388045
000310 dd 91 8f 3c af cf c3 3d be d2 8c 3d 4d 7e 8a bd
       0.017525608 0.09561097 0.068761334 -0.06762371
000320 6b c6 12 3d a1 41 b7 bb 57 06 e3 be 76 68 81 3d
       0.035833757 -0.0055925404 -0.44340774 0.063187525
000330 aa 96 b8 bd 7a a5 8c be 11 6c a1 3e 92 82 fb 3e
       -0.09013112 -0.2747 0.3152776 0.49123055
000340 e6 0c 9a 3d 24 b1 27 3d 1f a1 96 3a 7c df 0b bd
       0.075219914 0.04094042 0.001149211 -0.03414868
000350 07 b4 65 bf 59 02 c5 bd 17 24 a1 3c 09 ba 82 3d
       -0.89727825 -0.096195884 0.01967053 0.0638314
000360 45 42 09 3f cf d8 6f 3e a9 4b 30 3e 1b 4f 1a 3e
       0.53616744 0.2342255 0.17216362 0.15069239
000370 0d 63 a4 3e 2b b5 05 be 1b 78 0e be 88 15 c1 be
       0.3210682 -0.13057391 -0.13913004 -0.3771174
000380 ed 54 5d be e4 12 5d bd 78 16 f9 bc c1 ed 9e 3d
       -0.21614428 -0.053973094 -0.030406222 0.07760192
000390 c6 29 8c 3e f1 ef 67 3e 45 4d 39 3e 3e 73 e2 be
       0.2737562 0.22650124 0.18095882 -0.44228548
0003a0 12 77 d7 3c 0c c0 79 bf 9a fa 00 bf 40 4b 6c be
       0.026301894 -0.97558665 -0.5038239 -0.2307558
0003b0 dd 1b 55 3e 31 77 93 bd d0 f9 af 3e 1b 7e 2f 3e
       0.2081141 -0.07200468 0.3437028 0.17137949
0003c0 0b 6f 82 be ae e3 e6 3e 22 0b 7e be d6 96 ac 3b
       -0.25475344 0.4509558 -0.24808934 0.0052670045
0003d0 94 a1 af 3e 29 6e aa be ca aa 5d 3e f4 d1 74 3e
       0.34302962 -0.3328717 0.21647182 0.23908216
0003e0 26 f0 20 be 9c f4 be 3d 8c 51 46 3e ca fa 8d 3d
       -0.1571661 0.09323999 0.19367045 0.069326
0003f0 20 fc f3 3c 87 58 2c 3e 8a 30 55 bc f8 9e f8 3e
       0.029783309 0.16830646 -0.013012061 0.48558784

policy.mlp_extractor.value_net.2.bias f4 [64]
000000 b6 56 0d bd 72 c8 de 3c 6a b2 40 3c 96 4d bf 3d
       -0.034506522 0.02719519 0.011761287 0.0934097
000010 d2 dc 7b bc 61 cf a1 3c 22 0f 3f bc 18 59 c4 bb
       -0.015372472 0.019752206 -0.011661323 -0.005992066
000020 b5 a8 13 3d 76 19 5f 3b fc c9 8c 3b 56 1c 01 3b
       0.036049563 0.0034042276 0.0042965394 0.0019700727
000030 4d ee 8e 3c be 87 bc bd f2 a0 30 bd 42 ee c9 3d
       0.017447615 -0.09205578 -0.04312224 0.09859897
000040 58 c7 bc bb 41 e5 a1 3c 28 14 83 bc 20 8b 48 3d
       -0.0057610683 0.019762637 -0.016000822 0.048960805
000050 af 90 e8 bb c5 15 67 3c ab 5e 52 3c 0e d5 3a bd
       -0.0070973258 0.014104311 0.012839953 -0.04561334
000060 4f 2e 53 bc 06 c4 03 3d 22 e1 9e bc fe a7 07 bc
       -0.012889459 0.032169364 -0.019394461 -0.008279799
000070 d2 fc ca 3d 6f 03 0b bd db 21 6d 3d 9b 1f 78 bc
       0.09911503 -0.03393882 0.057893615 -0.015144254
000080 be 9e 24 3c 0d 53 77 bb ed 14 43 bd 5d 28 1e bd
       0.010047613 -0.003773871 -0.04762738 -0.038612712
000090 88 8f 8b 3c a7 63 18 3b be bf 2c 3c 1f 69 1e bd
       0.017036214 0.0023252757 0.010543762 -0.03867447
0000a0 4a ed 07 bd 2b b2 44 bd cb 2e 30 bc 9e 25 8a bd
       -0.03318528 -0.048021477 -0.010753344 -0.06745456
0000b0 9f f4 12 bd 2c 42 ad bc 52 4d 02 3d 1b 26 62 3c
       -0.03587782 -0.021149717 0.03181202 0.01380303
0000c0 c7 a2 04 bd 0c d8 29 bb e5 62 5e 3c 4b 5b 7b 3b
       -0.0323818 -0.0025916127 0.013573383 0.0038353975
0000d0 57 e9 a6 3b 1e 93 7a bd ed 23 ba bd fc ba 3e 3c
       0.0050937342 -0.061175458 -0.090888835 0.01164126
0000e0 fc ec 37 3c 2e 2c 68 bb 2c 26 8c bd f8 d6 81 3d
       0.011225935 -0.0035426724 -0.06843218 0.0633983
0000f0 3e 84 e3 bd e3 ba 9a 3a 06 81 69 bb cd 16 6b bd
       -0.111092076 0.0011804964 -0.0035629882 -0.05739479

policy.action_net.weight f4 [2, 64]
000000 19 01 cb be fd 85 ed 3b 64 c8 83 3e d9 ab 5d 3e
       -0.39649275 0.0072486387 0.25738823 0.21647586
000010 5e ef 12 3e 7b cd bc be 4f ff 54 3e 6d 34 a7 bd
       0.14349124 -0.3687552 0.20800517 -0.08164296
000020 c2 99 a2 3e fe 39 cd 3e f7 cd c5 be cb db 49 3d
       0.31757933 0.40083307 -0.386337 0.049281877
000030 ca 7f be 3e 92 e4 bc bd 76 ea fe 3e 60 47 57 3b
       0.3720687 -0.09223284 0.49788254 0.003284894
000040 cc 7b cc 3e f0 6b b5 3a e1 80 a1 3e 30 78 25 3e
       0.399382 0.0013841372 0.3154364 0.16159129
000050 6b ca 2a 3b ee b6 d9 be dd 23 02 bc ea 4b db be
       0.0026060592 -0.42522377 -0.007943121 -0.42831355
000060 48 b7 a4 3e 67 e1 3f 3e d6 71 ab 3d 10 cb 65 be
       0.32171082 0.18738328 0.08371322 -0.22440743
000070 50 47 20 3c de 6d 71 be b6 a8 1f be 9b 2a 21 bd
       0.009782627 -0.23577067 -0.15591702 -0.039347272
000080 c6 9d d4 3c 7b 78 2e 3e e4 8d dc be c4 00 02 3f
       0.025954138 0.17038147 -0.43077004 0.5078242
000090 c3 84 af bc 92 95 4c bd 91 5e 38 3e ac 2d c8 3c
       -0.02142561 -0.04994733 0.18004824 0.02443584
0000a0 c2 7b 6b be d8 2d f3 bd 07 ae 71 ba fa 5a b8 be
       -0.22996429 -0.118739784 -0.00092193525 -0.3600691
0000b0 f6 33 22 be 2e cd 12 be 99 12 96 bc ef 83 24 3c
       -0.15840134 -0.14336082 -0.018319415 0.010041221
0000c0 2d 00 33 ba a8 26 36 bd c4 9c 89 be d8 3d c9 3e
       -0.00068283343 -0.04447046 -0.26877415 0.39304996
0000d0 d3 2e 87 3e 83 4d 28 bd 90 2a 90 bd e7 7f ad 3c
       0.26402912 -0.041089546 -0.07039368 0.021179153
0000e0 69 55 cd 3e f6 ee 1d be b3 f6 4c 3c c1 1c 2c bc
       0.40104225 -0.15423188 0.01250999 -0.010504902
0000f0 cc 0d 5a be a3 ca 07 3f 0e 95 cf be 40 b1 20 be
       -0.21294326 0.53043574 -0.40543407 -0.15692616
000100 26 a3 4a bd e9 c6 29 3c 3e 7c 96 3d f0 e1 43 3d
       -0.049471997 0.010362365 0.07347916 0.047822893
000110 bc c1 8c bd bc 14 15 be 73 81 9b 3d 8d 28 e5 3d
       -0.068728894 -0.14558691 0.0759305 0.11189375
000120 c8 86 5e bb fb c8 8c bc 4e 15 9e 3d 7f f5 64 be
       -0.0033954848 -0.017185679 0.07718907 -0.22359274
000130 26 28 b3 3c 2e 6b d0 3c 56 7b f9 3c 59 08 f1 bb
       0.02186973 0.025441732 0.030454319 -0.0073557314
000140 23 0e a9 bd 2b eb 02 bc c9 d2 44 3d 90 8d dc bd
       -0.082546495 -0.007990639 0.048052583 -0.107691884
000150 e4 01 0a bc 27 a6 e0 3d 60 7f 2a be 0e 4e d2 bd
       -0.008423302 0.10969191 -0.16650152 -0.10268794
000160 27 f7 ea bc f4 c7 02 3e 96 5a d8 bd 8e 82 da 3b
       -0.028682305 0.12771589 -0.10564153 0.0066683954
000170 02 6f 23 bc 58 19 75 3a 62 3a f2 3d 04 06 c3 3c
       -0.009975197 0.0009349785 0.11827542 0.02380658
000180 e6 d5 d3 3d 45 6a 0c 3e e3 25 fa 3c b9 cb fd bb
       0.10343532 0.13712414 0.030535644 -0.007745233
000190 cf 7f 07 bd 8c f3 ac bc 25 91 c2 3d 3e c3 df 3c
       -0.033080872 -0.021112226 0.0950034 0.027314778
0001a0 0f 69 14 be fa 81 2a be 45 cd d9 3a 5b a5 c1 bd
       -0.14493202 -0.16651145 0.0016616961 -0.09455367
0001b0 26 54 95 3d ab 26 15 3c 61 43 ce bd 8f e1 36 be
       0.07291441 0.009103457 -0.10071445 -0.17859481
0001c0 4d dd b6 b6 10 fc 30 3e 4f 1d 8c 3e a0 51 97 bd
       -5.4497855e-06 0.17283654 0.2736611 -0.073886156
0001d0 60 8d 0d 3e a0 d0 c5 3b 96 72 01 3e f1 07 57 3d
       0.13823462 0.006036833 0.12641367 0.052497808
0001e0 ee d2 8b be 91 38 f7 bc b6 4b a0 bd dd e3 8a bd
       -0.27309364 -0.03017834 -0.07826941 -0.06781743
0001f0 e2 0f 91 bd e6 ac 9f 3e f1 10 dd bd 3b 11 bf bc
       -0.070831075 0.311866 -0.10794247 -0.023323646

policy.action_net.bias f4 [2]
000000 ca 64 92 bc 11 0c b5 bb
       -0.017870326 -0.00552512

policy.value_net.weight f4 [1, 64]
000000 21 0a f8 bc c9 e0 3e bd e4 5b d3 3b 9f bd ef 3d
       -0.030278267 -0.04660109 0.006450163 0.11706089
000010 50 2b 90 3c 20 93 0e bc 51 cf 27 bc 78 68 3e 3d
       0.017598778 -0.0087020695 -0.010242299 0.046486348
000020 e3 ae 7e 3d 71 f7 4d bd 1c 0b 84 3c f3 9d 84 bc
       0.062178504 -0.050284807 0.016118579 -0.016188597
000030 4b 43 fc bc 70 76 d4 bd 9f fb 4d 3e d2 af 11 be
       -0.030793807 -0.10374153 0.20115517 -0.14227226
000040 fb e4 59 bd f4 0e 88 3c d4 79 90 3c 0a 7f 42 3e
       -0.05319689 0.016608693 0.017636217 0.18993774
000050 3f 3f b5 3c 58 b9 cc 3c 32 a6 85 bc 2a 02 4b 3d
       0.022124885 0.024990723 -0.0163146 0.04956261
000060 bc f5 09 bd bf 45 be bc b4 f1 4e 3e 8f a9 4b bd
       -0.033681616 -0.023226617 0.2020939 -0.04972225
000070 34 19 16 3e b4 ea 74 bd 77 f9 35 3d 5b f9 46 3d
       0.14658052 -0.059794143 0.04442736 0.048577648
000080 e4 1c 7a 3d 74 82 67 bc 53 86 3b bd 55 be 1f 3e
       0.06106271 -0.014130224 -0.0457824 0.1559995
000090 f7 37 1a bd bc 0c 87 bc d9 31 83 3c f1 97 e9 3d
       -0.03765103 -0.016485564 0.01601498 0.11405934
0000a0 4f a9 e8 bc 55 97 61 3d 69 8e df 3c dc 74 1d bd
       -0.028401045 0.055075962 0.027289586 -0.038441524
0000b0 01 51 f7 bc 42 cd b7 bc 0f de 80 bc 10 d6 af 3c
       -0.030189993 -0.022436742 -0.015730886 0.021464378
0000c0 e1 ff be bc fd ba d7 bc d6 1f 14 3d 72 c4 02 bb
       -0.023315372 -0.02633428 0.036163174 -0.0019953516
0000d0 18 d8 c3 3b 38 13 d2 bc b2 00 6c be 15 d2 f4 3b
       0.005976688 -0.02564393 -0.2304714 0.007471333
0000e0 a6 56 03 3d 4b 0c 53 bd 74 bc c1 3d 28 28 ce 3c
       0.032065056 -0.051525395 0.09459773 0.025165632
0000f0 d6 f1 6f be 4d c6 c6 bb 98 1f 08 b8 b6 45 29 3d
       -0.23432097 -0.0060661198 -3.245435e-05 0.041326247
