results/autosave/A25_10010_5000000_EURNZD/ONNX_model.onnx (onnx, 37368 bytes, 7 tensors)

policy.log_std f4 [2]
-1.7181966 -0.9866299
00000000: deed dbbf c793 7cbf

policy.mlp_extractor.policy_net.0.weight f4 [64, 60]
-0.050327215 -0.16094045 0.3137947 0.06365759 -0.25508544 0.17805056 -0.18354623 0.18705656
0.1007233 0.0021381413 0.10726242 -0.25021088 -0.017505983 0.2114159 -0.1512504 0.037489586
0.021566514 -0.15452874 -0.19926973 0.07071878 0.2531052 -0.052898835 0.018481866 0.10522287
0.045058478 0.2663917 -0.18225509 0.01715555 0.021906348 0.19430426 -0.05392015 0.10906137
0.18647161 0.19625472 0.08998462 -0.38424826 0.004923283 0.092274666 0.21924843 -0.20447111
0.19318794 0.21567926 0.19811174 0.05749231 -0.0004283412 0.025488675 -0.06904106 0.07874365
0.03491265 -0.04276766 -0.09465628 0.017374633 0.05158652 -0.27412066 0.08842396 0.48195332
0.10222303 -0.2533312 0.13436705 0.5691373 0.030656276 -0.13410302 -0.2615835 -0.2391272
-0.0038753971 -0.11381195 0.11578168 -0.022723932 0.18622106 -0.2074657 0.03038816 -0.027126782
0.02609278 -0.17348483 -0.10106612 -0.20224243 0.2523708 0.012801058 0.0038073733 0.08181448
-0.070700854 0.24765275 -0.005751092 0.20982583 -0.0059875003 -0.0543195 0.046545226 -0.024858773
0.011669526 0.20787214 -0.14439224 -0.02405977 0.32000685 -0.15230784 -0.2930064 0.29302555
0.14043158 -0.14282928 -0.045909744 -0.20925069 0.36742017 0.14716819 -0.12386256 0.19650325
0.07745948 0.34461316 0.07673513 0.27966914 0.24030757 -0.22451285 0.019326156 -0.2242656
-0.057763524 -0.3146529 -0.16244766 -0.044573657 -0.047793984 -0.2197675 0.28301933 -0.12888107
-0.4165121 -0.028343637 0.014059936 -0.29942095 -0.2067192 0.0657311 -0.14148352 -0.10484264
0.24381994 -0.20210026 0.13447851 0.042458102 -0.115594566 -0.10874287 0.044918858 -0.053798918
0.16730194 -0.11517702 -0.006353906 -0.017628925 0.15649389 0.11591144 0.13856594 0.11147637
-0.096360326 -0.04735263 -0.10716484 0.27184168 -0.14733857 -0.110977285 0.09686473 0.038711894
-0.04440728 -0.0017110198 0.18743542 -0.0042211544 -0.3725627 -0.24291256 0.1692006 0.2971233
-0.018531822 -0.10886712 -0.44258556 -0.24872455 0.029333921 -0.17740299 0.15258108 0.29610935
0.32048076 0.10740578 -0.2856581 -0.11031053 -0.21200037 -0.074853 0.058508337 0.13348524
-0.06517394 0.20757066 -0.33765408 0.011176322 0.13465846 -0.14000432 -0.009465653 0.1916291
0.3793745 0.055887263 0.07332133 0.11539486 0.15334214 -0.20322044 0.23946342 0.36059362
0.22354554 -0.20721446 -0.024001304 0.13711792 -0.09065765 -0.021321658 -0.084014915 -0.112415284
0.14100121 -0.24049053 0.12527868 0.103868246 0.30871466 0.14415018 -0.34261888 -0.18763158
0.2077495 -0.08510452 -0.025268076 0.12512891 -0.21686845 -0.35661793 -0.19876736 -0.2673004
-0.08174888 -0.2546552 -0.03274833 0.15938942 -0.11573635 0.18817051 -0.11246749 -0.049513377
-0.18993501 0.13751398 0.14081752 -0.03766465 0.19043641 -0.05113176 0.105815955 0.2224339
-0.0018490864 -0.0010546078 0.18583335 -0.09446612 0.0035054237 -0.1957583 -0.058859106 0.098877095
0.17122555 0.1484837 -0.034078013 -0.1493013 -0.2604645 -0.061613876 0.08529483 0.3817414
0.21574803 0.044027943 0.19770357 -0.03584344 0.20701277 0.089638256 -0.22829312 -0.30406475
00000000: e923 4ebd 93cd 24be b3a9 a03e e95e 823d
00000010: 8f9a 82be e352 363e 8bf3 3bbe c18b 3f3e
00000020: 0448 ce3d 0f20 0c3b 66ac db3d a41b 80be
00000030: b568 8fbc 697d 583e 63e1 1abe ae8e 193d
00000040: 42ac b03c c83c 1ebe 5d0d 4cbe 02d5 903d
00000050: 0197 813e 73ac 58bd 4867 973c 177f d73d
00000060: 3d8f 383d 7e64 883e 14a1 3abe cc89 8c3c
00000070: f174 b33c b2f7 463e 60db 5cbd 915b df3d
00000080: 6af2 3e3e fff6 483e db49 b83d 30bc c4be
00000090: 7e53 a13b 80fa bc3d a982 603e e060 51be
000000a0: 0fd3 453e 06db 5c3e cedd 4a3e 0e7d 6b3d
000000b0: fc92 e0b9 a0cd d03c 6665 8dbd 5a44 a13d
000000c0: 9100 0f3d 242d 2fbd 27db c1bd 3f55 8e3c
000000d0: 634c 533d 8b59 8cbe 9f17 b53d 96c2 f63e
000000e0: 4f5a d13d a1b4 81be 8497 093e fbb2 113f
000000f0: df22 fb3c 4d52 09be 46ee 85be c3dd 74be
00000100: 60fa 7dbb 3d16 e9bd f21e ed3d 8a27 babc
00000110: bcb0 3e3e e371 54be 97f0 f83c fc38 debc
00000120: 87c0 d53c 02a6 31be c1fb cebd a418 4fbe
00000130: bf36 813e 87bb 513c 2085 793b 5a8e a73d
00000140: 9ccb 90bd af98 7d3e a873 bcbb 95dc 563e
00000150: cb32 c4bb 207e 5ebd 35a6 3e3d a0a4 cbbc
00000160: 8a31 3f3c 6fdc 543e 8fdb 13be ff18 c5bc
00000170: f0d7 a33e 96f6 1bbe ef04 96be 7207 963e
00000180: 4ccd 0f3e d741 12be db0b 3cbd d045 56be
00000190: 7f1e bc3e 42b3 163e a7ab fdbd 2638 493e
000001a0: 13a3 9e3d 2371 b03e 4f27 9d3d cb30 8f3e
000001b0: 3013 763e b2e6 65be e351 9e3c e2a5 65be
000001c0: 7299 6cbd 2f1a a1be ae58 26be de92 36bd
000001d0: a0c3 43bd bb0a 61be e9e7 903e 66f9 03be
000001e0: 1341 d5be ea30 e8bc a55b 663c b44d 99be
000001f0: 33ae 53be 079e 863d 0ee1 10be bdb7 d6bd
00000200: efab 793e 5ff3 4ebe bcb4 093e 8ce8 2d3d
00000210: d8bc ecbd 95b4 debd d6fc 373d 415c 5cbd
00000220: 3351 2b3e eee1 ebbd 6d34 d0bb 896a 90bc
00000230: ef3f 203e fa62 ed3d 3be4 0d3e b94d e43d
00000240: 9058 c5bd d5f4 41bd 3d79 dbbd d52e 8b3e
00000250: ecdf 16be 0f48 e3bd 0461 c63d 5d90 1e3d
00000260: 68e4 35bd 4c44 e0ba 12ef 3f3e 9c51 8abb
00000270: 8ac0 bebe 12be 78be ec42 2d3e 8c20 983e
00000280: 0cd0 97bc baf5 debd 939a e2be a6b1 7ebe
00000290: b14d f03c 21a9 35be 373e 1c3e a59b 973e
000002a0: 0e16 a43e 90f7 db3d c741 92be 7dea e1bd
000002b0: a016 59be 884c 99bd 70a6 6f3d 5bb0 083e
000002c0: ea79 85bd 678d 543e ffe0 acbe e41c 373c
000002d0: e8e3 093e 4b5d 0fbe d415 1bbc 6b3a 443e
000002e0: 603d c23e 0bea 643d 7e29 963d 2454 ec3d
000002f0: b905 1d3e 0519 50be e635 753e ba9f b83e
00000300: 1fe9 643e 0730 54be 629e c4bc a468 0c3e
00000310: b8aa b9bd c2aa aebc 0310 acbd fc39 e6bd
00000320: 9f62 103e 2643 76be 0e49 003e e0b8 d43d
00000330: d90f 9e3e 1b9c 133e be6b afbe 7e22 40be
00000340: 49bc 543e 474b aebd fffe cebc cb21 003e
00000350: c312 5ebe a096 b6be ac89 4bbe 99db 88be
00000360: f56b a7bd 2b62 82be 1d23 06bd fb36 233e
00000370: 2e07 edbd c5af 403e 5b55 e6bd 8ace 4abd
00000380: 537e 42be 77d0 0c3e 7832 103e 3f46 1abd
00000390: c301 433e 896f 51bd 09b6 d83d b6c5 633e
000003a0: 0b5d f2ba c43a 8aba 194b 3e3e 7477 c1bd
000003b0: 40bb 653b dd74 48be 3f16 71bd 1380 ca3d
000003c0: c055 2f3e 1c0c 183e 6395 0bbd 71e2 18be
000003d0: 9a5b 85be d55e 7cbd 0eaf ae3d 9c73 c33e
000003e0: 0ded 5c3e a556 343d ce72 4a3e 92d0 12bd
000003f0: 28fb 533e 4394 b73d acc5 69be 60ae 9bbe

policy.mlp_extractor.policy_net.0.bias f4 [64]
0.0 0.0 0.0 0.0006106174 0.0 0.0 0.00024607783 -0.0048042503
0.0 -0.0015084965 0.0 -5.900048e-09 0.0003744834 0.0 -0.0033640633 -0.0039059166
0.0 -0.0013439823 -0.0017843366 -0.005903196 -0.0025301534 7.352823e-05 0.006351469 0.0
0.0027928937 -2.0795614e-08 -0.0023412723 -4.9928767e-05 0.0 -0.001574474 0.0 -0.00065692264
-0.0044419966 -0.0006377349 0.006085041 -1.2504319e-07 -0.0037025625 0.0 0.0057750843 0.0010200826
0.00036445935 0.0 0.0 0.0 0.0 1.17826975e-08 -0.003619224 0.0
0.0006782512 0.0 0.0025940498 -9.264864e-06 -0.0004079824 -8.470174e-06 0.0 0.0
0.0 0.0 -0.0057576164 0.0 -0.0001022972 0.0 -3.416321e-05 0.0
00000000: 0000 0000 0000 0000 0000 0000 d711 203a
00000010: 0000 0000 0000 0000 0204 8139 f96c 9dbb
00000020: 0000 0000 beb8 c5ba 0000 0000 5fb9 cab1
00000030: 5056 c439 0000 0000 9e77 5cbb 68fa 7fbb
00000040: 0000 0000 9028 b0ba 67e0 e9ba 996f c1bb
00000050: eed0 25bb 2b33 9a38 fc1f d03b 0000 0000
00000060: fb08 373b 0aa2 b2b2 0870 19bb 9b6a 51b8
00000070: 0000 0000 955e ceba 0000 0000 5535 2cba
00000080: 2b8e 91bb aa2d 27ba 0665 c73b 9c43 06b4
00000090: b1a6 72bb 0000 0000 eb3c bd3b 4bb4 853a
000000a0: e814 bf39 0000 0000 0000 0000 0000 0000
000000b0: 0000 0000 da6c 4a32 8130 6dbb 0000 0000
000000c0: abcc 313a 0000 0000 ef00 2a3b 4a70 1bb7
000000d0: 79e6 d5b9 1f1b 0eb7 0000 0000 0000 0000
000000e0: 0000 0000 0000 0000 63aa bcbb 0000 0000
000000f0: 6488 d6b8 0000 0000 784a 0fb8 0000 0000

policy.mlp_extractor.policy_net.2.weight f4 [64, 64]
-0.10350793 -0.06805251 -0.08074884 0.6520652 0.054030236 0.12390778 0.13607283 0.40542123
-0.14286463 -0.11052888 -0.00364164 -0.36206743 0.55437475 -0.18842779 -0.28746137 -0.18172015
0.02999051 0.06507499 -0.2593744 -0.59237826 0.16668749 0.52841187 -0.33715117 -0.4497462
-0.21390098 0.10781454 0.085342236 -0.1885768 0.20054178 0.22010174 -0.121497005 0.00670057
0.39808485 0.3325522 0.13656835 -0.21548788 0.5154377 0.21419586 -0.030020794 -0.40034527
-0.22631453 -0.21578054 0.8040951 -0.019575091 0.24676412 0.006113754 -0.23831598 -0.08411444
-0.19187288 0.0875712 0.18415177 0.983445 0.029117975 -0.09972008 -0.063039355 -0.1864266
0.10301159 0.11379192 -0.29369834 -0.40259182 0.40570626 0.05518607 -0.31573564 -0.5129912
0.18215315 -0.08389505 0.035990078 -0.37851188 0.18175212 -0.024491085 -0.12252946 -0.24699561
0.009072558 -0.4787222 0.41952723 -0.7020988 -0.004019969 -0.18842442 0.0144070545 -0.3572596
-0.07896827 -0.15676253 -0.19260761 -0.11570394 0.44690636 0.20154689 -0.6475685 -0.124205925
-0.9784501 -0.30770087 0.5013618 -0.23670174 0.038362388 -1.1031075 0.029322606 -0.42895925
0.46227378 -0.11911884 -0.30227324 0.48606178 -0.800848 -0.18318468 0.18201947 -0.09747377
0.37695807 0.20861033 0.34915644 -0.19289097 -0.13131468 -0.031271107 -0.03252921 0.073249094
1.1052221 -0.08906229 0.08725813 0.095623896 0.28236496 0.5927236 -0.00986393 -0.1647086
-0.014929977 -0.005275401 0.23400319 -0.25585672 -0.20647727 -0.21002664 0.121584915 0.050402
-0.19116087 -0.12328986 -0.36290166 -0.06645171 0.053690497 0.15263397 0.28400016 0.09622475
-0.06634184 0.02995988 -0.32146764 -0.058108553 -0.11111394 0.2933625 -0.030956762 -0.27131653
0.26413146 0.41131112 0.022792973 -0.0015752574 0.020317174 0.0863258 -0.0331267 0.098244056
0.015381663 -0.2075497 0.07298719 0.0017120221 -0.17850551 -0.079029284 0.12143941 -0.03412628
-0.026116315 0.0639397 0.117517196 0.10966646 0.011452391 0.010232448 0.13160022 -0.07905476
-0.0548631 -0.01304486 -0.091263026 -0.17215669 -0.10180963 -0.33791664 -0.07732458 0.38951504
0.0092141405 0.15873657 0.018529542 0.22936627 -0.16268611 -0.07451023 -0.18064645 0.22892116
0.044480365 -0.22712064 0.24820805 -0.16186042 0.00035082732 -0.022184232 0.08953146 0.3416945
0.35607433 0.14547956 -0.25253275 0.92782485 -0.33746624 0.0017793362 0.32848656 0.14384194
-0.19051147 0.15056458 0.10361956 0.15451002 -0.2850089 -0.092383586 0.23483719 0.50504106
-0.20330295 -0.27985063 0.1100143 0.65599763 0.12325246 -0.08813305 1.0813931 -0.055075824
0.9839578 -0.10161901 0.15101404 0.17841074 0.03150423 -0.7758527 0.0059223715 0.019300587
-0.4114467 0.20596011 0.3898784 0.19646232 -0.04625216 0.30218863 -0.30105227 0.3567235
0.18212982 -0.07959337 -0.05848976 0.112751484 -0.09586123 0.113645844 -0.024846464 -0.0034748153
-0.71195287 0.07134575 -0.008732381 0.87265015 -0.046005774 -0.65216553 0.064724736 -0.01568502
-0.20876746 -0.16669397 0.23010863 -0.010222482 0.1492157 -0.2735385 -0.13719916 -0.019303342
00000000: f7fb d3bd 1d5f 8bbd a65f a5bd bfed 263f
00000010: cf4e 5d3d 5dc3 fd3d ad56 0b3e 5f93 cf3e
00000020: 1b4b 12be f75c e2bd 95a8 6ebb e760 b9be
00000030: 81eb 0d3f 37f3 40be 232e 93be d914 3abe
00000040: a8ae f53c 0946 853d b9cc 84be 1aa6 17bf
00000050: 20b0 2a3e 0046 073f 149f acbe 2245 e6be
00000060: dc08 5bbe dfcd dc3d e9c7 ae3d 471a 41be
00000070: d35a 4d3e 5a62 613e 6cd3 f8bd 7590 db3b
00000080: c7d1 cb3e 4844 aa3e 93d8 0b3e dba8 5cbe
00000090: baf3 033f 2956 5b3e 2bee f5bc 0efa ccbe
000000a0: ffbe 67be 93f5 5cbe 2dd9 4d3f f15b a0bc
000000b0: bcaf 7c3e e355 c83b 1b09 74be 3144 acbd
000000c0: 537a 44be 8858 b33d 4892 3c3e 0dc3 7b3f
000000d0: d288 ee3c 0b3a ccbd c71a 81bd 9de6 3ebe
000000e0: bef7 d23d bd0b e93d a15f 96be 8420 cebe
000000f0: bbb8 cf3e ca0a 623d 1aa8 a1be 6453 03bf
00000100: 5b86 3a3e 2bd1 abbd 556a 133d 4fcc c1be
00000110: 3a1d 3a3e 87a1 c8bc baf0 fabd 6bec 7cbe
00000120: 11a5 143c 141b f5be 46cc d63e bfbc 33bf
00000130: f2b9 83bb 55f2 40be 910b 6c3c bbea b6be
00000140: 1eba a1bd 5b86 20be ee3a 45be 30f6 ecbd
00000150: e9d0 e43e 4f62 4e3e 0dc7 25bf ad5f febd
00000160: b57b 7abf f88a 9dbe 3f59 003f f161 72be
00000170: e121 1d3d a032 8dbf f635 f03c 8ca0 dbbe
00000180: 26af ec3e 94f4 f3bd 8fc3 9abe 17dd f83e
00000190: 6004 4dbf c494 3bbe 5063 3a3e 54a0 c7bd
000001a0: a600 c13e f29d 553e a2c4 b23e 3685 45be
000001b0: 5b77 06be 2216 00bd 593d 05bd 9f03 963d
000001c0: eb77 8d3f 4a66 b6bd 64b4 b23d 76d6 c33d
000001d0: 2492 903e bcbc 173f 529c 21bc 5fa9 28be
000001e0: dd9c 74bc 45dd acbb 889e 6f3e a7ff 82be
000001f0: c76e 53be 3911 57be 8301 f93d 5472 4e3d
00000200: adbf 43be 657f fcbd 3fce b9be d617 88bd
00000210: 91ea 5b3d 144c 1c3e 7868 913e 7b11 c53d
00000220: 3bde 87bd 6c6e f53c 6897 a4be 3c03 6ebd
00000230: b58f e3bd 9c33 963e 0999 fdbc 00ea 8abe
00000240: 3d3c 873e 5f97 d23e 54b8 ba3c de78 ceba
00000250: 3470 a63c 95cb b03d ddaf 07bd 2e34 c93d
00000260: 5f03 7c3c e987 54be 4f7a 953d ee65 e03a
00000270: 26ca 36be 1bda a1bd 3ab5 f83d 00c8 0bbd
00000280: e2f1 d5bc d1f2 823d dbac f03d cf98 e03d
00000290: cfa2 3b3c ffa5 273c 35c2 063e 76e7 a1bd
000002a0: 21b8 60bd 1cba 55bc 1ce8 babd d849 30be
000002b0: 9181 d0bd 6903 adbe 595c 9ebd 846e c73e
000002c0: e8f6 163c d78b 223e 44cb 973c fede 6a3e
000002d0: 3097 26be d298 98bd 62fb 38be 4f6a 6a3e
000002e0: 0b31 363d 5092 68be 402a 7e3e bdbe 25be
000002f0: 3fef b739 b5bb b5bc 455c b73d 95f2 ae3e
00000300: 604f b63e 98f8 143e f94b 81be ee85 6d3f
00000310: 60c8 acbe 9e38 e93a 642f a83e 4d4b 133e
00000320: 7015 43be 9a2d 1a3e 7e36 d43d e037 1e3e
00000330: b0ec 91be 9b33 bdbd 2979 703e 5f4a 013f
00000340: a62e 50be 9548 8fbe 2d4f e13d 76ef 273f
00000350: c96b fc3d 1a7f b4bd 176b 8a3f 3097 61bd
00000360: a9e4 7b3f a11d d0bd 6da3 1a3e 4eb1 363e
00000370: 940a 013d 489e 46bf 7410 c23b 441c 9e3c
00000380: 24a9 d2be 35e7 523e 249e c73e 6b2d 493e
00000390: e872 3dbd 78b8 9a3e 8623 9abe 76a4 b63e
000003a0: 3d80 3a3e d901 a3bd f592 6fbd 40ea e63d
000003b0: e452 c4bd 27bf e83d d08a cbbc bab9 63bb
000003c0: 8b42 36bf b81d 923d 4312 0fbc 0066 5f3f
000003d0: 8d70 3cbd 52f4 26bf 678e 843d df7d 80bc
000003e0: 23c7 55be d3b1 2abe 99a1 6b3e 327c 27bc
000003f0: 00cc 183e 3d0d 8cbe f07d 0cbe 0b22 9ebc

policy.mlp_extractor.policy_net.2.bias f4 [64]
0.026119767 -0.0061981436 0.022144333 0.019994885 0.02196845 0.035516262 0.046959467 -0.015271308
-0.014904343 -0.09202847 0.038725764 -0.03425852 0.0023605367 0.057253838 0.009134353 0.068522766
-0.025593339 -0.021788334 0.038885206 0.017960103 0.15432909 -0.053644806 -0.09183044 -0.001349227
0.10749535 0.010174221 0.029088452 -0.039892524 0.020249434 0.0036549608 0.09138982 0.020562777
0.0008259175 0.0009149747 -0.026144769 0.033063903 0.0050670984 -0.010496272 0.04616905 0.026763197
-0.016288564 -0.039304957 0.082442574 0.004528062 -0.010554254 -0.046937265 -0.070633985 -0.014632646
0.02832785 0.111404106 -0.06366322 -0.0955772 -0.025774673 0.026192762 0.09098689 0.0924613
0.012569763 -0.039058685 -0.030979287 -0.0023582517 -0.013529335 0.051181957 -0.027680181 -0.022180064
00000000: 1ff9 d53c cc19 cbbb 0868 b53c 50cc a33c
00000010: 2ef7 b33c 8079 113d 9258 403d 8234 7abc
00000020: 5831 74bc 6c79 bcbd e89e 1e3d a952 0cbd
00000030: 3cb3 1a3b 0083 6a3d 41a8 153c aa55 8c3d
00000040: 1fa9 d1bc 737d b2bc 1846 1f3d 1121 933c
00000050: 7208 1e3e a8ba 5bbd 9911 bcbd 8cd8 b0ba
00000060: 8626 dc3d c7b1 263c e84a ee3c 5866 23bd
00000070: 24e2 a53c 1188 6f3b 962a bb3d 4573 a83c
00000080: 6382 583a eada 6f3a 8e2d d6bc 046e 073d
00000090: e709 a63b 8ef8 2bbc c21b 3d3d 7e3e db3c
000000a0: 986f 85bc 3cfe 20bd a7d7 a83d 2360 943b
000000b0: c0eb 2cbc 4a41 40bd 8da8 90bd c4bd 6fbc
000000c0: cf0f e83c d627 e43d dd61 82bd fbbd c3bd
000000d0: 6825 d3bc 3492 d63c 5657 ba3d 5a5c bd3d
000000e0: 68f1 4d3c 00fc 1fbd 46c8 fdbc e68c 1abb
000000f0: 25aa 5dbc 2ca4 513d 8cc1 e2bc f7b2 b5bc

policy.action_net.weight f4 [2, 64]
0.09451947 0.38670468 -3.4330904e-05 -0.1537765 -0.5635208 0.08112615 -0.15829061 0.2658049
-0.14305666 -0.17953707 -0.00044465024 0.02949472 -0.17161757 -0.0035025075 0.4791582 0.2818944
-0.00087443285 -0.0003480519 -0.015445149 -0.0069492403 0.18772419 -0.31712493 -0.21143119 -0.10107799
0.31570366 -0.059131492 -0.071072325 0.23369594 -0.3121845 -0.0006684632 0.13437842 -0.24137212
-0.08052832 0.19447586 -0.0852401 0.4256682 -0.2515799 0.30079082 0.22298674 -0.28813514
-0.0015388546 0.2993549 0.31833887 -0.26051325 0.00086770195 -0.25201577 -0.1629345 -0.00024159405
-0.07441432 -0.21963787 0.0008591442 -0.16153589 0.28026623 0.0019294657 -0.35848987 0.22307256
0.0011038947 0.18355757 0.24687864 0.09220456 0.27169505 -0.122418076 -0.3463872 -0.0006765038
0.071071945 -0.049591243 -0.014981711 0.30216065 0.025822856 -0.20642449 0.13998245 -0.09684136
-0.068208635 -0.02341744 0.0017226625 -0.046213094 -0.10876846 0.0016492654 0.031950884 0.22157006
-0.001719211 0.0084620975 0.027079077 0.07414829 -0.06673126 -0.1253162 0.015184351 -0.12559682
-0.035676908 0.103584096 0.07637961 0.21929999 -0.01235378 0.0015785228 0.074372225 -0.111318246
0.09517764 0.041634973 0.08527396 0.20452283 0.14987385 -0.0119172335 -0.083029814 0.08409202
-0.1005225 0.078804545 -0.09985753 -0.24456993 -0.0043079355 0.18329452 -0.2136186 -0.0016221661
-0.06647063 -0.073279604 -0.005550609 -0.13026518 -0.020290464 0.003383121 0.065258645 0.10232767
-0.0015120683 0.06856932 -0.14457448 0.07880274 0.21913409 0.013865429 0.20086406 0.0015643879
00000000: 6d93 c13d 28fe c53e 87fe 0fb8 9677 1dbe
00000010: e642 10bf 7825 a63d ef16 22be 9417 883e
00000020: 727d 12be 91d8 37be f21f e9b9 e99e f13c
00000030: 84bc 2fbe 538a 65bb 3954 f53e 7654 903e
00000040: 323a 65ba bc7a b6b9 a60d 7dbc 74b6 e3bb
00000050: c53a 403e 335e a2be 6b81 58be fa01 cfbd
00000060: e9a3 a13e dd33 72bd 5e8e 91bd fd4d 6f3e
00000070: a6d6 9fbe ce3b 2fba 7f9a 093e 412a 77be
00000080: 08ec a4bd ae24 473e 5d92 aebd 2ff1 d93e
00000090: 15cf 80be 4101 9a3e a356 643e 7386 93be
000000a0: 64b3 c9ba 0c45 993e 50fd a23e fe61 85be
000000b0: 7e76 633a 3608 81be 4dd8 26be 6954 7db9
000000c0: 8966 98bd c0e8 60be 3138 613a aa69 25be
000000d0: 0e7f 8f3e 20e6 fc3a fc8b b7be 226d 643e
000000e0: 8fb0 903a 84f6 3b3e c1cd 7c3e bfd5 bc3d
000000f0: 9d1b 8b3e 54b6 fabd aa59 b1be 6757 31ba
00000100: 2b8e 913d 3020 4bbd da75 75bc cdb4 9a3e
00000110: 748a d33c f160 53be 8f57 0f3e c354 c6bd
00000120: f8b0 8bbd eed5 bfbc f6ca e13a f149 3dbd
00000130: 00c2 debd 2a2c d83a eede 023d 43e3 623e
00000140: 2657 e1ba 9ca4 0a3c f1d4 dd3c 0fdb 973d
00000150: 66aa 88bd e452 00be c9c7 783c 749c 00be
00000160: f321 12bd e623 d43d ea6c 9c3d 2d90 603e
00000170: 8267 4abc 70e6 ce3a 7750 983d d2fa e3bd
00000180: 7fec c23d 6f89 2a3d 1da4 ae3d 6f6e 513e
00000190: 8878 193e 8040 43bc 890b aabd 7038 ac3d
000001a0: bede cdbd 4764 a13d 1b82 ccbd 8a70 7abe
000001b0: 9529 8dbb 8fb1 3b3e d6be 5abe dd9e d4ba
000001c0: c121 88bd 9e13 96bd e2e1 b5bb 3c64 05be
000001d0: 3038 a6bc 5ab7 5d3b 53a6 853d 2b91 d13d
000001e0: 9830 c6ba 126e 8c3d 550b 14be 5563 a13d
000001f0: b064 603e d32b 633c 4faf 4d3e 260c cd3a

policy.action_net.bias f4 [2]
0.062014453 0.015961168
00000000: de02 7e3d ffc0 823c
