results/autosave/A29_000_800000_eurusd_st/ONNX_model.onnx (onnx, 35988 bytes, 7 tensors)

policy.log_std f4 [2]
-2.055595 -1.6792824
00000000: de8e 03c0 baf2 d6bf

policy.mlp_extractor.policy_net.0.weight f4 [64, 60]
0.043075647 -0.12496936 -0.13064732 0.15625621 -0.16849871 0.22391158 -0.1560441 -0.008637438
0.1597217 0.03549751 0.22781399 -0.050443344 0.0033103873 -0.034191288 0.1526801 0.10051521
-0.06472908 0.05437102 0.27131233 -0.111532435 -0.053197283 -0.07340007 -0.149239 -0.18933983
0.29423326 -0.044916015 -0.4647646 -0.139834 0.13843958 -0.19621235 -0.26948217 -0.056945354
0.022602871 0.02025042 -0.15338539 -0.05951644 -0.18805344 0.00294307 -0.23031865 0.2965734
0.19940282 -0.021995692 0.0014491323 -0.1657456 0.1112507 -0.33085403 -0.13465609 0.21905255
-0.06936432 0.2919737 -0.18429704 -0.01687684 -0.2736452 0.09854626 -0.009476655 0.06848051
0.098548636 0.044023924 0.04510765 -0.32859975 -0.46300715 0.049687594 -0.17667718 -0.182055
-0.050974414 -0.032488585 -0.3640882 0.01592257 -0.41105336 0.3491522 -0.14028016 -0.18821652
0.18344903 -0.022021916 0.05921122 0.12563965 0.13520452 -0.17498526 0.0947675 -0.07726123
0.15424468 -0.16750067 -0.21131101 -0.1873759 -0.37329355 0.11663202 0.14817686 -0.08959823
-0.15108256 0.15719275 -0.21543302 -0.13912472 -0.20981331 0.064773515 -0.17789009 -0.05635918
0.017574206 -0.20102859 -0.21045613 -0.09850749 -0.11205796 -0.1627644 0.0015154337 -0.09575311
0.16320656 -0.17137356 -0.21100447 -0.024688492 0.038723025 -0.16301145 0.016728368 -0.23276979
-0.10272803 0.2547351 -0.022938794 -0.015638778 -0.209461 -0.13573073 0.16528608 -0.065723024
0.16224755 -0.028318524 -0.014070473 0.23073034 -0.10788849 -0.0101639815 0.07181994 0.25358272
-0.050916173 -0.028431017 -0.20835963 0.048138134 -0.023362849 -0.00495126 -0.15527193 -0.2988071
-0.22234935 -8.801118e-05 0.09689359 0.121700965 -0.09522134 -0.24550667 0.4085358 0.056302093
-0.1892476 -0.056542113 0.017945243 0.28014562 0.07286723 0.19621001 0.14123443 0.04785785
-0.28221813 0.045850918 0.24298064 0.018654052 -0.033745613 -0.24370472 -0.14278206 -0.046300948
0.09398867 -0.023549696 -0.19932842 -0.035135705 -0.3835997 -0.48556486 -0.060449634 -0.032043055
0.06335803 0.29023835 -0.0054114168 0.1588488 0.051602967 0.11817997 -0.20008557 0.16105229
0.05609161 -0.009901555 0.37932318 0.13837427 0.20211723 -0.1404959 -0.06054472 -0.014208208
0.12892535 0.2054265 -0.26265237 0.035788976 0.13343468 0.093816094 0.09181511 0.0559989
0.12716259 -0.07427106 0.015550024 0.12097231 0.3458062 -0.17431045 0.40618902 0.031730685
0.08774783 0.1533451 0.20528373 0.27573285 -0.39031088 -0.289507 -0.2610889 0.32648477
0.21933043 0.18453862 -0.034749486 -0.26331896 0.110213414 0.04110828 0.15835913 0.32979044
0.0035949734 0.08088718 -0.075961575 -0.062310077 -0.016652541 0.18192889 0.16853684 -0.13460341
0.15614471 -0.1871911 0.006539766 0.03988067 -0.04546105 -0.27536613 -0.1765988 0.08445887
0.05235794 -0.27376583 -0.0732235 -0.006687689 0.07023802 -0.11045924 -0.33023405 0.012405247
0.07678884 -0.1094112 0.44927618 -0.055511687 0.1714613 0.043563478 -0.14398842 0.3514219
-0.09226274 0.074159525 0.27712247 -0.12171132 0.30390525 -0.02838215 0.1413726 0.1763222
00000000: 1770 303d f0ef ffbd 69c8 05be a101 203e
00000010: ed8a 2cbe 1449 653e 06ca 1fbe 0a84 0dbc
00000020: 168e 233e d665 113d 1248 693e ae9d 4ebd
00000030: 15f3 583b 2a0c 0cbd 2c58 1c3e ebda cd3d
00000040: ae90 84bd 26b4 5e3d 73e9 8a3e 1e6b e4bd
00000050: 65e5 59bd c752 96bd 1cd2 18be 4de2 41be
00000060: bea5 963e dbf9 37bd a0f5 edbe a530 0fbe
00000070: 1bc3 0d3e e4eb 48be 91f9 89be 883f 69bd
00000080: a829 b93c 35e4 a53c 0f11 1dbe 83c7 73bd
00000090: 1591 40be 85e0 403b a7d8 6bbe 78d8 973e
000000a0: 4130 4c3e 4f30 b4bc d0f0 bd3a 37b9 29be
000000b0: 68d7 e33d b365 a9be 49e3 09be 504f 603e
000000c0: e10e 8ebd 947d 953e 5db8 3cbe 4c41 8abc
000000d0: 391b 8cbe 9fd2 c93d f943 1bbc 823f 8c3d
000000e0: ded3 c93d 6e52 343d cdc2 383d 3a3e a8be
000000f0: 460f edbe 3885 4b3d ddea 34be a06c 3abe
00000100: 8cca 50bd c012 05bd c569 babe 0d70 823c
00000110: 9675 d2be 14c4 b23e 9aa5 0fbe d5bb 40be
00000120: 10da 3b3e 4e67 b4bc 7787 723d aea7 003e
00000130: 0e73 0a3e 562f 33be 7715 c23d 233b 9ebd
00000140: 51f2 1d3e 4c85 2bbe ea61 58be 78df 3fbe
00000150: 5520 bfbe c5dc ee3d adbb 173e 477f b7bd
00000160: 63b5 1abe 23f7 203e 799a 5cbe b676 0ebe
00000170: 4dd9 56be faa7 843d d228 36be e2d8 66bd
00000180: c8f7 8f3c 70da 4dbe d081 57be 4bbe c9bd
00000190: a57e e5bd b6ab 26be 84a1 c63a 351a c4bd
000001a0: 9f1f 273e 8d7c 2fbe 8e11 58be 853f cabc
000001b0: 099c 1e3d 79ec 26be ee09 893c 345b 6ebe
000001c0: 1363 d2bd a46c 823e 23ea bbbc e51c 80bc
000001d0: f27c 56be fffc 0abe c140 293e cb99 86bd
000001e0: 3924 263e 40fc e7bc d787 66bc 9344 6c3e
000001f0: a4f4 dcbd d486 26bc 5516 933d 98d5 813e
00000200: 7a8d 50bd 2ae8 e8bc 3a5c 55be 7e2c 453d
00000210: 7263 bfbc 2e3e a2bb 9bff 1ebe 3ffd 98be
00000220: 8caf 63be a492 b8b8 2670 c63d 5b3e f93d
00000230: 6803 c3bd 1a66 7bbe 9b2b d13e 069d 663d
00000240: 1fca 41be b498 67bd e701 933c 3f6f 8f3e
00000250: 6a3b 953d 47eb 483e c29f 103e 9806 443d
00000260: e57e 90be 2cce 3b3d ebcf 783e 62d0 983c
00000270: d738 0abd bb8d 79be 7635 12be 10a6 3dbd
00000280: 227d c03d 4beb c0bc c01c 4cbe 75ea 0fbd
00000290: 2e67 c4be f59b f8be 099a 77bd 943f 03bd
000002a0: dbc1 813d 1f9a 943e 4152 b1bb 43a9 223e
000002b0: a25d 533d 5708 f23d 3be3 4cbe e4ea 243e
000002c0: 51c0 653d 223a 22bc a636 c23e fcb1 0d3e
000002d0: d2f7 4e3e 28de 0fbe befd 77bd 8bc9 68bc
000002e0: 0205 043e 535b 523e 5f7a 86be 7697 123d
000002f0: 1aa3 083e a722 c03d 8f09 bc3d 1a5f 653d
00000300: e936 023e 6d1b 98bd 87c5 7e3c 55c0 f73d
00000310: 830d b13e 707e 32be 02f8 cf3e 09f8 013d
00000320: 22b5 b33d 7f06 1d3e e635 523e db2c 8d3e
00000330: d4d6 c7be 433a 94be 72ad 85be 0329 a73e
00000340: 2898 603e b1f7 3c3e 7a55 0ebd bed1 86be
00000350: 92b7 e13d 2861 283d e528 223e 4bda a83e
00000360: a599 6b3b 2ea8 a53d be91 9bbd da38 7fbd
00000370: e96a 88bc 914b 3a3e ec94 2c3e 7ad5 09be
00000380: 66e4 1f3e 06af 3fbe 894b d63b ea59 233d
00000390: 5e35 3abd cafc 8cbe 51d6 34be c6f8 ac3d
000003a0: 4775 563d 092b 8cbe 34f6 95bd 6724 dbbb
000003b0: f3d8 8f3d 7438 e2bd 7014 a9be 613f 4b3c
000003c0: 7843 9d3d fb12 e0bd 8707 e63e 3960 63bd
000003d0: 8d93 2f3e 9e6f 323d b371 13be 92ed b33e
000003e0: 3ff4 bcbd f3e0 973d ffe2 8d3e c943 f9bd
000003f0: 7899 9b3e af81 e8bc fbc3 103e cf8d 343e

policy.mlp_extractor.policy_net.0.bias f4 [64]
-4.018975e-05 0.0 0.0 0.0 0.0 0.0 0.0 0.0
4.4064755e-08 0.0 0.0 0.0 0.0 8.18363e-05 0.0 0.0
0.0 0.0 0.0 0.0 0.0 0.0 0.0 1.3658467e-06
0.0 0.0 0.0 0.0 0.0 0.0 0.0 0.0
0.0 0.0 0.0 0.0 0.0 0.0 0.0 0.0
0.0 0.0 0.0 0.0 0.0 0.0 0.0 3.5064146e-05
0.0 0.0 0.0 0.0 0.0 0.0 0.0 0.0
0.0 0.0 0.0 0.0 0.0 0.0 0.0 0.0
00000000: 6a91 28b8 0000 0000 0000 0000 0000 0000
00000010: 0000 0000 0000 0000 0000 0000 0000 0000
00000020: b641 3d33 0000 0000 0000 0000 0000 0000
00000030: 0000 0000 879f ab38 0000 0000 0000 0000
00000040: 0000 0000 0000 0000 0000 0000 0000 0000
00000050: 0000 0000 0000 0000 0000 0000 2352 b735
00000060: 0000 0000 0000 0000 0000 0000 0000 0000
00000070: 0000 0000 0000 0000 0000 0000 0000 0000
00000080: 0000 0000 0000 0000 0000 0000 0000 0000
00000090: 0000 0000 0000 0000 0000 0000 0000 0000
000000a0: 0000 0000 0000 0000 0000 0000 0000 0000
000000b0: 0000 0000 0000 0000 0000 0000 d711 1338
000000c0: 0000 0000 0000 0000 0000 0000 0000 0000
000000d0: 0000 0000 0000 0000 0000 0000 0000 0000
000000e0: 0000 0000 0000 0000 0000 0000 0000 0000
000000f0: 0000 0000 0000 0000 0000 0000 0000 0000

policy.mlp_extractor.policy_net.2.weight f4 [64, 64]
0.19282182 0.2650293 0.09651062 0.25697148 -0.12379931 -0.10910506 0.1231293 -0.071505874
-0.2286235 -0.14570987 0.24693426 0.0049154432 -0.12858641 -0.0744925 -0.49394837 -0.13228917
0.1482712 -0.22830658 0.077847585 0.032768793 0.21853372 0.11167957 -0.38689482 0.13445522
-0.22458741 -0.12624264 0.2657581 -0.34259033 0.14238971 0.624064 0.08763386 0.2265736
-0.06041251 -0.20523602 0.1057704 0.09536894 -6.959683e-05 0.05412738 0.052344844 0.1909869
-0.53365016 -0.14433506 0.4715081 -0.048178 0.17035118 0.10461907 -0.105832264 0.022100888
-0.18075335 -0.16557679 0.023506643 0.029040048 -0.06542441 0.061149187 -0.06593537 0.17551056
-0.12495073 -0.20143938 -0.277278 0.16302767 0.078294024 0.024484439 -0.2777175 -0.051864285
0.087179616 -0.18555816 0.0921594 -0.016442843 -0.30071604 0.29068983 -0.15372258 -0.062803015
-0.56715924 0.082695976 -0.04622476 0.27440837 -0.21581754 0.009745269 0.3320221 0.20268483
-0.08155203 0.29678658 -0.30394727 0.11377441 -0.12213722 -0.11565614 0.06352987 -0.076071784
0.09266351 0.077498704 -0.0850424 0.14451046 0.23183787 0.49926877 0.09388965 0.13107276
0.19689764 -0.0778825 0.06208633 0.24620064 0.29755813 0.15233128 0.08213101 0.10355061
-0.1902505 0.11230929 0.32721776 0.15677634 0.21364136 -0.10810452 0.32266605 0.20631604
-0.10412836 0.18499668 -0.36704534 -0.08145617 -0.08574656 0.18715495 -0.24719985 -0.058774132
-0.2770944 -0.02611809 -0.33448175 0.25472674 -0.010072905 0.045489896 0.045941208 -0.5026355
-0.21686897 -0.12324384 0.12524049 -0.08878593 0.010275235 0.23174661 0.019963942 0.3017682
0.0085517075 -0.22704199 -0.114454255 0.097799994 -0.14753947 0.19164716 0.18275715 0.11705237
0.40953755 -0.07257864 0.17174023 0.06446976 -0.40908432 0.11684793 0.036825676 -0.36724013
0.1795207 -0.24046557 -0.18167767 -0.21270469 -0.18573818 -0.06959249 -0.6508147 0.008341829
-0.04478182 0.1994369 -0.26309255 -0.16280964 0.13548484 -0.18248063 0.040689923 0.17806041
0.41215283 -0.016294125 -0.05438571 -0.56705165 0.06552145 0.13868207 -0.17249691 -0.48516676
-0.16261968 -0.10351466 -0.07642312 -0.16705404 0.12432729 0.31373072 0.074901074 0.13486496
-0.03122338 0.022867244 0.22794281 0.24991748 0.08234499 0.30811614 0.12229014 -0.016926235
-0.37004054 -0.35157236 0.03476116 0.15901595 0.18180865 0.018273205 0.19944724 0.013539625
0.031698123 0.14191699 -0.24501547 -0.057402633 0.0854941 -0.22671168 -0.07805463 0.23099032
-0.052623484 0.3470137 0.052855846 -0.55547446 -0.062292375 0.20847446 0.13320716 -0.08504181
-0.03268489 0.01906144 -0.13123319 0.06580285 -0.29727098 -0.2633151 -0.46177927 -0.06499471
0.07936655 0.024826175 -0.0035168855 0.117952704 -0.1025347 0.0644407 0.2127448 -0.16548207
0.053357832 -0.11303069 0.42636505 -0.017652703 -0.15299013 0.14281476 0.050337154 -0.24087319
0.16764554 -0.34514824 -0.321626 0.24497148 -0.15585658 -0.15040077 -0.09743148 0.09489067
0.44889504 -0.14415005 0.06838055 0.29173672 0.20661692 -0.11059725 0.033857036 0.13044609
00000000: 1573 453e ecb1 873e 5ca7 c53d c491 833e
00000010: 7e8a fdbd 7972 dfbd 372b fc3d ac71 92bd
00000020: 471c 6abe f834 15be 56dc 7c3e ba11 a13b
00000030: 28ac 03be 868f 98bd cde6 fcbe d076 07be
00000040: 68d4 173e 33c9 69be 8e6e 9f3d 9238 063d
00000050: 4ec7 5f3e 42b8 e43d 1417 c6be a1ae 093e
00000060: 3efa 65be c045 01be 7211 883e 0068 afbe
00000070: 9cce 113e a9c2 1f3f 6279 b33d e902 683e
00000080: 1c73 77bd 6429 52be 279e d83d ca50 c33d
00000090: 83f4 91b8 acb4 5d3d 8c67 563d 1292 433e
000000a0: 4c9d 08bf 92cc 13be 8269 f13e 4b56 45bd
000000b0: 8a70 2e3e 8642 d63d 96be d8bd ec0c b53c
000000c0: 6817 39be f68c 29be 0191 c03c 65e5 ed3c
000000d0: 3cfd 85bd 9277 7a3d 2009 87bd 0ab9 333e
000000e0: 2be6 ffbd 2046 4ebe 62f7 8dbe baf0 263e
000000f0: 9e58 a03d 9793 c83c fd30 8ebe a56f 54bd
00000100: 3a8b b23d f502 3ebe 11be bc3d 24b3 86bc
00000110: 74f7 99be 4cd5 943e 7469 1dbe de9e 80bd
00000120: 5931 11bf 825c a93d 2d56 3dbd 417f 8c3e
00000130: 46ff 5cbe 9faa 1f3c cdfe a93e 9d8c 4f3e
00000140: c004 a7bd 69f4 973e fa9e 9bbe 8f02 e93d
00000150: 1423 fabd 20dd ecbd f31b 823d 86cb 9bbd
00000160: 5ec6 bd3d a4b7 9e3d b62a aebd 8dfa 133e
00000170: e866 6d3e 28a0 ff3e 3849 c03d f037 063e
00000180: 899f 493e dc80 9fbd 3c4e 7e3d 051c 7c3e
00000190: 8a59 983e bbfc 1b3e 4e34 a83d 5812 d43d
000001a0: 07d1 42be 6a02 e63d 1689 a73e fa89 203e
000001b0: cdc4 5a3e e765 ddbd 7c34 a53e 8344 533e
000001c0: 4041 d5bd c56f 3d3e 5eed bbbe 7ed2 a6bd
000001d0: e49b afbd 8ca5 3f3e f521 7dbe 25bd 70bd
000001e0: 51df 8dbe 9bf5 d5bc 3141 abbe 8b6b 823e
000001f0: d308 25bc 9d53 3a3d d92c 3c3d b8ac 00bf
00000200: e612 5ebe 4467 fcbd 0b3f 003e 66d5 b5bd
00000210: 7659 283c fc4e 6d3e 6c8b a33c 5d81 9a3e
00000220: 761c 0c3c b27d 68be fe66 eabd 5d4b c83d
00000230: 9614 17be 273f 443e b124 3b3e 27b9 ef3d
00000240: e8ae d13e 1ca4 94bd acdc 2f3e b908 843d
00000250: 8073 d1be f84d ef3d 85d6 163d e606 bcbe
00000260: 46d4 373e 9b3c 76be b609 3abe 42cf 59be
00000270: 2632 3ebe 8286 8ebd cb9b 26bf 2bac 083c
00000280: 246d 37bd 3039 4c3e 11b4 86be 92b7 26be
00000290: 8abc 0a3e 34dc 3abe 7aaa 263d 7855 363e
000002a0: b205 d33e 427b 85bc 8dc3 5ebd 4c2a 11bf
000002b0: 1c30 863d ac02 0e3e 08a3 30be c767 f8be
000002c0: c685 26be 7eff d3bd ba83 9cbd 3710 2bbe
000002d0: 4e9f fe3d 50a1 a03e bc65 993d 0a1a 0a3e
000002e0: 2cc8 ffbc 1654 bb3c d769 693e 5eea 7f3e
000002f0: 7da4 a83d 66c1 9d3e 4173 fa3d e3a8 8abc
00000300: f475 bdbe 4b01 b4be b861 0e3d 14d5 223e
00000310: 0c2c 3a3e b0b1 953c e63b 4c3e 4ed5 5d3c
00000320: e4d5 013d b052 113e 56e5 7abe 061f 6bbd
00000330: 8817 af3d 1b27 68be 1bdb 9fbd ba88 6c3e
00000340: b98b 57bd c8ab b13e 5f7f 583d 9333 0ebf
00000350: 4a26 7fbd 547a 553e 7567 083e 672a aebd
00000360: 97e0 05bd bd26 9c3c fe61 06be a5c3 863d
00000370: e733 98be 3dd1 86be 556e ecbe f21b 85bd
00000380: ee8a a23d 4360 cb3c 8c7b 66bb 3091 f13d
00000390: b6fd d1bd 7cf9 833d c6d9 593e 2274 29be
000003a0: be8d 5a3d a27c e7bd 854c da3e 679c 90bc
000003b0: 72a9 1cbe 083e 123e 552e 4e3d 76a7 76be
000003c0: 46ab 2b3e 45b7 b0be 2aac a4be ced9 7a3e
000003d0: de98 1fbe a902 1abe 288a c7bd 0a56 c23d
000003e0: 92d5 e53e 129c 13be 1a0b 8c3d 845e 953e
000003f0: 6393 533e d080 e2bd adad 0a3d a993 053e

policy.mlp_extractor.policy_net.2.bias f4 [64]
-0.0028431155 0.001398367 -0.011075448 -0.0399392 0.012461852 -0.017361097 -0.0015340382 0.054691095
0.04362037 0.049985006 0.08969161 -0.057337314 -0.009270369 -0.0037421742 0.04261154 0.04033579
0.015765326 -0.019955412 0.011642047 0.04137542 -0.012319594 0.002177431 -0.030197654 0.004690971
-0.022377994 -0.017809145 0.0120677175 0.014322873 -0.035278402 0.003908597 0.0701867 -0.037217613
0.016357826 0.03298843 -0.02637854 0.08473042 0.051089585 -0.016650874 0.019508079 0.019639725
0.07818222 0.02073543 -0.05715742 0.0026228556 -0.027069852 -0.021015676 -0.002432559 -0.040405616
0.0026516896 -0.012679018 -0.006178963 0.03530187 -0.018410986 -0.04296256 0.022730572 0.05132322
0.013205228 0.01438038 -0.023769097 0.0037363835 0.008175336 -0.021298315 0.011367753 -0.07674769
00000000: 9053 3abb 6949 b73a cc75 35bc 4997 23bd
00000010: cc2c 4c3c dc38 8ebc c811 c9ba c503 603d
00000020: 46ab 323d 14bd 4c3d 3cb0 b73d 88da 6abd
00000030: bfe2 17bc 443f 75bb 7089 2e3d 2437 253d
00000040: 4926 813c 8879 a3bc 49be 3e3c 4679 293d
00000050: 1fd8 49bc 3bb3 0e3b 1261 f7bc b8b6 993b
00000060: 0e52 b7bc 7ce4 91bc adb7 453c 7caa 6a3c
00000070: 1680 10bd b013 803b 0bbe 8f3d 7f71 18bd
00000080: d900 863c e01e 073d cf17 d8bc 2487 ad3d
00000090: 5043 513d 6a67 88bc 68cf 9f3c 7de3 a03c
000000a0: 001e a03d 59dd a93c e61d 6abd 37e4 2b3b
000000b0: 98c1 ddbc 1129 acbc 916b 1fbb 5c80 25bd
000000c0: f8c7 2d3b a8bb 4fbc e678 cabb b298 103d
000000d0: a3d2 96bc 82f9 2fbd 7735 ba3c 4c38 523d
000000e0: be5a 583c af9b 6b3c 69b7 c2bc 1dde 743b
000000f0: d8f1 053c ce79 aebc d03f 3a3c e52d 9dbd

policy.action_net.weight f4 [2, 64]
0.0640954 0.0775351 -0.20752123 -0.10514554 -0.13067491 0.12216189 0.107688814 -0.2881553
0.028154025 -0.03580048 0.13134669 -0.1322519 -0.05317746 -0.0005630039 -0.01655664 -0.007677648
-0.27347168 0.110388935 0.14176926 0.1424412 -0.014230389 0.10756379 -0.08407412 -0.065735094
0.1068385 -0.1894292 0.0953295 0.051895205 -0.032645762 -0.12372827 0.15629134 -0.14230807
-0.01425671 0.01786428 -0.23315041 0.0019842214 -0.07400151 0.031524464 -0.09190237 0.0031104428
0.018045789 -0.07986543 -0.055507906 0.11598441 0.20891395 0.021131378 -0.053054973 -0.0048933756
-0.07816478 0.2208378 0.06848481 0.115125336 -0.16279453 0.049892202 0.10113398 0.0046080807
0.14965537 0.017736549 0.14713594 -0.13783559 0.22146815 0.10306651 0.04658925 -0.012254535
-0.0798424 -0.07100513 0.020145644 0.049567997 0.06576481 0.16151707 0.15329556 0.08986889
-0.044946756 -0.22675179 0.046613578 0.11641163 -0.07313901 -0.10689836 0.09619862 -0.06681696
-0.13487978 0.09507691 0.120786496 -0.11400552 0.046989895 0.093938954 -0.005487737 -0.046640173
0.12445639 -0.13126092 -0.018572751 -0.14967343 -0.08776814 -0.12256616 0.14829454 -0.036820572
0.11406666 0.10501306 0.05124862 0.001955258 0.050218217 -0.04133317 -0.047508974 -0.00651273
-0.047423445 -0.14828792 -0.04617186 -0.06710853 -0.12545055 0.1930335 0.13487129 -0.2494284
-0.20696224 -0.15122686 -0.15078595 -0.052318793 0.057823066 -0.13320193 0.2047613 0.018370265
-0.087414496 -0.12667033 -0.14481446 0.18585426 -0.003886096 0.036200047 0.023167908 0.009101765
00000000: 7344 833d b9ca 9e3d 7280 54be 8b56 d7bd
00000010: a5cf 05be 0330 fa3d f48b dc3d 1789 93be
00000020: 45a3 e63c 86a3 12bd bf7f 063e 0b6d 07be
00000030: 9cd0 59bd 8d96 13ba caa1 87bc c894 fbbb
00000040: 7b04 8cbe 9813 e23d f62b 113e 1bdc 113e
00000050: 9426 69bc 684a dc3d 0d2f acbd 1fa0 86bd
00000060: 25ce da3d baf9 41be 1d3c c33d 1190 543d
00000070: 90b7 05bd 3f65 fdbd d60a 203e 35b9 11be
00000080: fa94 69bc 1c58 923c fbbe 6ebe b609 023b
00000090: 1b8e 97bd cc1f 013d 4f37 bcbd 92d8 4b3b
000000a0: c3d4 933c 7d90 a3bd 425c 63bd 3c89 ed3d
000000b0: 8aed 553e b61b ad3c 2c50 59bd 9c58 a0bb
000000c0: db14 a0bd 4e23 623e c441 8c3d d5c6 eb3d
000000d0: 9cb3 26be c45b 4c3d 551f cf3d 62ff 963b
000000e0: 423f 193e 3d4c 913c ceaa 163e c624 0dbe
000000f0: 8cc8 623e 8914 d33d 5fd4 3e3d 3fc7 48bc
00000100: 6a84 a3bd 236b 91bd 7a08 a53c d007 4b3d
00000110: b3af 863d bb64 253e 83f9 1c3e 2e0d b83d
00000120: 171a 38bd 9f31 68be e1ed 3e3d 3869 ee3d
00000130: e8c9 95bd 87ed dabd c803 c53d 55d7 88bd
00000140: ed1d 0abe afb7 c23d e95e f73d ba7b e9bd
00000150: 7a78 403d 1163 c03d 79d2 b3bb c409 3fbd
00000160: fee2 fe3d 4369 06be e225 98bc fe43 19be
00000170: c8bf b3bd f803 fbbd 86da 173e 2bd1 16bd
00000180: c89b e93d 1611 d73d 13ea 513d c923 003b
00000190: 9eb1 4d3d f84c 29bd c598 42bd bd68 d5bb
000001a0: 163f 42bd cad8 17be b41e 3dbd 3270 89bd
000001b0: 1c76 00be 93aa 453e b31b 0a3e 296a 7fbe
000001c0: e9ed 53be 37db 1abe a267 1abe 3b4c 56bd
000001d0: e1d7 6c3d 1666 08be f2ac 513e 3d7d 963c
000001e0: 5f06 b3bd deb5 01be 3e4a 14be 9450 3e3e
000001f0: dfad 7ebb 8046 143d a0ca bd3c 921f 153c

policy.action_net.bias f4 [2]
0.005010889 0.006346409
00000000: 6232 a43b 8af5 cf3b
